10epochs_0.0007learingrate_50batchsize.pt (torch_old, 712684 bytes, 34 tensors)

weight f4 [32, 3, 5, 5]
-0.090857536 0.018527014 0.05852621 -0.050605107 0.14871469 0.018145455 -0.19785845 -0.16714492
-0.017483475 -0.1452033 0.019235322 -0.09579137 -0.18213484 -0.05032809 -0.15587555 -0.01959365
0.11762597 0.06944592 0.120326966 0.039789755 -0.048525225 0.06369655 0.03954318 -0.024719926
0.12778634 -0.02441062 -0.12355454 0.09520798 -0.011857853 0.0105758 -0.12042268 -0.1439021
-0.14138687 -0.19019726 -0.051944308 0.0032672773 0.054220017 -0.17812705 0.03769251 -0.12161729
0.09486939 0.11002174 0.05159004 -0.026714036 -0.06755885 0.087639 0.008799425 0.07767169
-0.029344581 0.023584722 -0.1382478 -0.03415081 0.059533134 0.0076374062 0.062649876 0.003972832
-0.20049945 -0.23234794 -0.19513571 -0.055464324 0.06605545 -0.011269042 0.0022896663 -0.0063534384
-0.079937294 0.10229713 -0.0022789703 0.043259345 -0.04684128 0.038312238 -0.04526115 0.10487295
0.12602286 0.0820753 0.088842385 0.05481603 0.07580483 0.089153245 0.04796278 0.11189182
-0.046547376 -0.07604696 -0.11995157 0.03390647 -0.035393164 0.14255278 -0.00528434 -0.06639463
-0.08113466 0.059965286 -0.045387655 0.04782006 0.0035392751 0.16770373 -0.030563276 0.008779383
0.06886867 -0.07673093 0.061722565 0.08027206 -0.10146347 -0.0142850075 0.028341085 0.001145597
0.15275818 0.03350641 -0.049896955 -0.17227907 -0.13433585 0.04310134 0.07887896 -0.059828132
-0.030677667 -0.10289155 0.10410335 0.1199731 -0.03805992 0.039704535 0.08027886 0.07871574
-0.025638612 0.059568044 0.038736664 -0.08657304 -0.04341564 0.084989905 0.09268625 0.002098794
0.031990442 0.017426468 -0.014121012 -0.048973672 -0.17663877 -0.16598243 -0.12261112 0.028562939
-0.02940291 -0.04729657 0.071090095 0.052101992 -0.0638312 0.08568594 -0.02892256 0.16481699
-0.09015477 0.0967425 0.06166677 0.04990694 0.04809219 -0.0032171293 -0.012025917 -0.07473324
-0.093426116 0.1037506 0.11828331 -0.07534559 -0.07219457 -0.08437464 0.07870927 -0.039700158
0.03706758 -0.05625319 -0.08030028 0.08023471 0.031018823 -0.12290911 -0.0074203904 -0.009577182
0.029134415 -0.09886226 -0.007962918 0.06803336 -0.07153873 0.096726194 0.150197 -0.13099574
-0.09823166 -0.08320858 -0.07406306 0.022131745 0.024937835 0.1256408 -0.049306422 -0.065134525
-0.14279477 0.005536326 0.06956562 0.13782272 0.04070753 -0.05102772 -0.049737778 0.03620455
0.12430936 -0.05322894 0.024046429 0.13348246 -0.080478616 0.040074416 -0.098173246 0.10909775
0.037832066 -0.08877896 -0.017426252 0.0025391504 -0.058944546 0.10453057 0.14408834 0.08616389
0.0020581507 -0.029969433 -0.046790205 0.07659022 -0.026659539 0.054692063 -0.08192644 -0.012302141
0.08661705 -0.030869694 -0.09211025 0.009976537 0.0417097 -0.005783221 -0.12185681 -0.019027611
-0.011614475 0.07320638 0.05534728 -0.0411534 -0.11727892 0.04630936 0.054182805 0.14906226
0.033701792 0.05071233 -0.11200115 0.061691146 0.09439723 0.017911885 0.081427574 -0.071951754
-0.14267372 -0.108456925 -0.031251878 0.039268237 0.03455853 -0.10551207 0.069563195 0.1253899
0.04295743 -0.008299391 0.11345029 0.13272275 -0.08485405 0.027562778 -0.0706235 0.015074118
00000000: 8413 babd f7c5 973c 2eb9 6f3d 4d47 4fbd
00000010: aa48 183e c7a5 943c 689b 4abe 0a28 2bbe
00000020: 8139 8fbc 2db0 14be 6593 9d3c 442e c4bd
00000030: 8e81 3abe d424 4ebd d79d 1fbe dd82 a0bc
00000040: e2e5 f03d aa39 8e3d fc6d f63d 95fa 223d
00000050: 63c2 46bd 5673 823d 08f8 213d 7181 cabc
00000060: 6cda 023e c8f8 c7bc 2a0a fdbd 67fc c23d
00000070: 7147 42bc 1f46 2d3c 2ba0 f6bd 125b 13be
00000080: b8c7 10be 12c3 42be 8ec3 54bd d11f 563b
00000090: cf15 5e3d f066 36be 7663 1a3d 7c12 f9bd
000000a0: e24a c23d 1453 e13d 1450 533d 65d7 dabc
000000b0: 4b5c 8abd 137c b33d 772b 103c 5612 9f3d
000000c0: 0c64 f0bc bf34 c13c d590 0dbe b8e1 0bbd
000000d0: 04d9 733d 3543 fa3b 944e 803d 882e 823b
000000e0: ba4f 4dbe 9eec 6dbe a8d1 47be 8f2e 63bd
000000f0: 1448 873d caa1 38bc 3a0e 163b 8130 d0bb
00000100: 2ab6 a3bd 2881 d13d c75a 15bb b630 313d
00000110: a4dc 3fbd 4bed 1c3d c163 39bd a1c7 d63d
00000120: 230c 013e 1817 a83d fff2 b53d c686 603d
00000130: 903f 9b3d fa95 b63d 9f74 443d 8a27 e53d
00000140: 76a8 3ebd 82be 9bbd 2ba9 f5bd 83e1 0a3d
00000150: 6cf8 10bd 5bf9 113e 4228 adbb e8f9 87bd
00000160: ee29 a6bd 299e 753d 68e8 39bd f8de 433d
00000170: 2ff3 673b 87ba 2b3e d65f fabc 67d7 0f3c
00000180: 040b 8d3d 1b25 9dbd cdd0 7c3d ae65 a43d
00000190: 14cc cfbd aa0b 6abc 902b e83c db27 963a
000001a0: a46c 1c3e 043e 093d c060 4cbd ed69 30be
000001b0: 568f 09be 088b 303d 4b8b a13d 580e 75bd
000001c0: bb4f fbbc ceb8 d2bd 2334 d53d 75b4 f53d
000001d0: b8e4 1bbd 39a1 223d 3e69 a43d b835 a13d
000001e0: 1108 d2bc 9ffd 733d 56aa 1e3d 354d b1bd
000001f0: 99d4 31bd 300f ae3d 4ad2 bd3d ec8b 093b
00000200: 6908 033d f4c1 8e3c d15b 67bc 9e98 48bd
00000210: cbe0 34be 4cf7 29be 8a1b fbbd d3fc e93c
00000220: 5fde f0bc 0cba 41bd af97 913d e668 553d
00000230: efb9 82bd 1c7c af3d 01ef ecbc c9c5 283e
00000240: 10a3 b8bd ef20 c63d 4c96 7c3d 386b 4c3d
00000250: 51fc 443d 79d6 52bb 5a08 45bc be0d 99bd
00000260: 3156 bfbd 327b d43d 853e f23d ca4e 9abd
00000270: bfda 93bd 9ccc acbd 5332 a13d a29c 22bd
00000280: 2dd4 173d bf69 66bd 7974 a4bd 1852 a43d
00000290: 301b fe3c c5b7 fbbd bf26 f3bb 9de9 1cbc
000002a0: 4cab ee3c 4c78 cabd e676 02bc 1355 8b3d
000002b0: e682 92bd 6218 c63d 3ecd 193e bf23 06be
000002c0: ae2d c9bd 4369 aabd 60ae 97bd a24d b53c
000002d0: 6e4a cc3c fba7 003e 88f5 49bd 4065 85bd
000002e0: cb38 12be 126a b53b 6b78 8e3d 6621 0d3e
000002f0: f0bc 263d 7102 51bd d7b9 4bbd 394b 143d
00000300: e895 fe3d 9706 5abd 04fd c43c a0af 083e
00000310: f9d1 a4bd 1225 243d 0e0f c9bd a46e df3d
00000320: ccf5 1a3d bed1 b5bd 80c1 8ebc e067 263b
00000330: d66f 71bd 2014 d63d e58b 133e b276 b03d
00000340: 0ae2 063b 7582 f5bc 16a7 3fbd 55db 9c3d
00000350: 1b65 dabc c904 603d 0dc9 a7bd eb8e 49bc
00000360: 4864 b13d 71e2 fcbc 4ca4 bcbd a174 233c
00000370: cad7 2a3d 2d81 bdbb 1090 f9bd cbdf 9bbc
00000380: a44a 3ebc 3aed 953d d4b3 623d 7890 28bd
00000390: ee2f f0bd e2ae 3d3d caee 5d3d c7a3 183e
000003a0: e40a 0a3d bbb7 4f3d dc60 e5bd dbaf 7c3d
000003b0: 5653 c13d f2bb 923c 80c3 a63d 715b 93bd
000003c0: 0f19 12be aa1e debd f801 00bd bbd7 203d
000003d0: 3f8d 0d3d b616 d8bd 2677 8e3d 3666 003e
000003e0: 21f4 2f3d 2bfa 07bc a058 e83d 79e8 073e
000003f0: f6c7 adbd 56cb e13c 0ea3 90bd 6ff9 763c

bias f4 [32]
-0.13683799 -0.102065966 -0.16380164 0.023316624 -0.07622437 -0.013887501 -0.13951257 -0.014214408
0.049861096 -0.03998153 -0.090247035 -0.03641317 0.038583104 -0.13913198 -0.17254369 -0.19604239
-0.05242435 0.00069473695 -0.12734349 -0.07046802 -0.072811365 0.03317228 -0.23011167 -0.15789548
-0.00064983754 -0.066428415 0.04128954 0.046483018 -0.07618932 -0.18032847 -0.18715563 -0.03555998
00000000: 421f 0cbe f607 d1bd 9ebb 27be 8102 bf3c
00000010: 861b 9cbd 6788 63bc 62dc 0ebe 8ce3 68bc
00000020: 263b 4c3d acc3 23bd 70d3 b8bd fa25 15bd
00000030: 5109 1e3d 9d78 0ebe 4baf 30be 56bf 48be
00000040: eaba 56bd 021f 363a 5566 02be 8a51 90bd
00000050: 201e 95bd a8df 073d 65a2 6bbe 5aaf 21be
00000060: dc59 2aba 9f0b 88bd 381f 293d fa64 3e3d
00000070: 2509 9cbd 07a8 38be baa5 3fbe 57a7 11bd

weight f4 [32]
0.103420116 0.033355117 0.092575565 0.21942803 0.6231619 0.7564178 0.075473994 0.6034438
0.32700652 0.73240024 0.23154137 0.54377097 0.518402 0.644348 0.13796066 0.5529498
0.28033122 0.75703263 0.22612672 0.1506951 0.86746806 0.3619734 0.34275955 0.67231524
0.27428424 0.61857915 0.575479 0.726752 0.77178943 0.46844852 0.64979386 0.59744585
00000000: edcd d33d 609f 083d 4298 bd3d beb1 603e
00000010: 8a87 1f3f 99a4 413f 1c92 9a3d 4b7b 1a3f
00000020: 666d a73e 957e 3b3f 2e19 6d3e 9334 0b3f
00000030: feb5 043f fef3 243f 8f45 0d3e 1e8e 0d3f
00000040: 9387 8f3e e4cc 413f c38d 673e d14f 1a3e
00000050: 6312 5e3f 9454 b93e 2e7e af3e da1c 2c3f
00000060: fc6e 8c3e 345b 1e3f 9752 133f 6b0c 3a3f
00000070: fe93 453f 7cd8 ef3e e458 263f 36f2 183f

bias f4 [32]
-0.019543739 -0.02682129 -0.056364354 -0.048965808 -0.07634755 -0.099283956 -0.0679296 -0.09129453
-0.084303625 -0.04673961 -0.04014518 -0.00680476 -0.039723765 -0.093354195 -0.137689 -0.0884282
-0.045310088 -0.06025409 -0.08858901 -0.073424466 -0.08182312 -0.06246279 -0.16124372 -0.017884819
-0.086042814 -0.19171531 -0.08497495 -0.038938615 -0.09282001 -0.11053883 -0.20581782 -0.06920636
00000000: 311a a0bc 52b8 dbbc 4fde 66bd 5f90 48bd
00000010: 1b5c 9cbd 6355 cbbd ad1e 8bbd a0f8 babd
00000020: 61a7 acbd 0972 3fbd 466f 24bd 77fa debb
00000030: 63b5 22bd 7c30 bfbd 58fe 0cbe d819 b5bd
00000040: 1297 39bd fecc 76bd 286e b5bd 915f 96bd
00000050: e192 a7bd fcd8 7fbd 131d 25be 2f83 92bc
00000060: 3737 b0bd 0551 44be 5907 aebd 197e 1fbd
00000070: 6b18 bebd 2f62 e2bd e8c1 52be 10bc 8dbd

running_mean f4 [32]
0.48932567 -0.20919734 0.204373 0.19229822 0.72422796 -0.051776588 -0.039036725 -0.067046985
0.61100703 0.442106 -0.071937986 0.45654872 0.56143093 0.1381007 -0.37779558 0.020272054
0.7866877 0.3879043 -0.08326771 -0.1749618 0.70506275 0.7859842 -0.40380266 0.12519646
0.42667136 -0.103668034 0.21891508 0.9029297 -0.15838757 -0.11025894 -0.43526688 0.83885133
00000000: e588 fa3e d437 56be 2847 513e d3e9 443e
00000010: 0167 393f b013 54bd f9e4 1fbd ee4f 89bd
00000020: f56a 1c3f b85b e23e 3954 93bd c1c0 e93e
00000030: f0b9 0f3f 456a 0d3e 6c6e c1be 9411 a63c
00000040: 5d64 493f 649b c63e 4388 aabd 3029 33be
00000050: fe7e 343f 4336 493f 39bf cebe 8033 003e
00000060: ab74 da3e e84f d4bd 462b 603e 6726 673f
00000070: 5a30 22be 70cf e1bd 4ddb debe f6be 563f

running_var f4 [32]
0.46554723 0.17886582 0.08523855 0.1147905 0.49117717 0.18675219 0.1337998 0.20633794
0.29137808 0.3692712 0.059397113 0.4731093 0.24093364 0.29542524 0.33893937 0.30541646
0.5920934 0.16003266 0.09303324 0.174785 0.33964676 0.51290196 0.17411461 0.18246435
0.4295439 0.091841616 0.09542621 0.62973124 0.40766928 0.23106055 0.20217793 0.5906613
00000000: 355c ee3e 9a28 373e 8d91 ae3d 4817 eb3d
00000010: 937b fb3e f73b 3f3e d102 093e 414a 533e
00000020: 822f 953e 1d11 bd3e 634a 733d 623b f23e
00000030: 4fb7 763e fa41 973e 7689 ad3e 8c5f 9c3e
00000040: 6f93 173f 9adf 233e 3688 be3d d7fa 323e
00000050: 2ee6 ad3e 8b4d 033f 1a4b 323e efd7 3a3e
00000060: 2eed db3e 7517 bc3d d16e c33d 1136 213f
00000070: 07ba d03e 239b 6c3e bb07 4f3e 9435 173f

weight f4 [32, 32, 5, 5]
-0.13805854 -0.13276269 -0.034592923 -0.07974012 -0.0003005033 -0.10181334 -0.06561728 -0.023161314
-0.02763338 -0.074329294 -0.008721378 -0.027930325 -0.0033411558 0.06710193 -0.019254738 0.02610655
0.025522973 0.103022344 0.09429792 0.057539705 -0.030628255 0.02633722 0.073530644 0.029792232
0.010719045 -0.07540313 -0.027673708 0.021983711 0.07271509 0.012288758 -0.09429056 0.01366739
0.03580009 0.05021559 0.017736547 -0.015343862 0.03715809 0.026928639 0.0010945468 0.018679004
0.061082855 0.032711662 0.06534834 0.009526007 0.062075302 -0.0051468057 -0.03978354 0.031463534
0.04387853 0.0784175 -0.016217556 -0.0045506586 -0.082922235 0.041674774 0.039659068 -0.040312957
0.0126784025 0.013749764 0.046000358 0.028078075 -0.026117938 -0.07151039 0.03290143 0.002208418
0.020839056 -0.0882276 -0.14931482 -0.049376894 -0.031807266 0.020554636 0.11484247 0.013076456
0.008671024 0.028911756 -0.031221667 0.048213508 0.0021451872 0.026399706 0.020339545 -0.01238822
0.015058101 -0.03548649 -0.011486361 0.010234332 -0.014558818 -0.064101875 0.010995948 -0.10408197
-0.057076357 -0.0013997918 -0.03487158 -0.05728426 -0.07130198 -0.1035476 0.043800622 0.033334922
0.019907806 -0.012879362 -0.07504876 0.04709196 -0.029546242 -0.03964471 -0.003221518 0.015567728
-0.028649637 -0.107353106 -0.08992557 0.014263242 -0.027836032 -0.03538631 -0.11022393 -0.102203466
-0.06267184 -0.029203076 -0.025870549 -0.094625235 -0.06164093 -0.04559545 0.013752142 0.046317108
-0.11635899 -0.14573033 -0.09069194 -0.069898754 -0.084839396 -0.021603703 -0.058740735 -0.014421763
0.030215634 0.022984937 -0.06784134 -0.066159435 0.03995232 0.04488109 0.026831163 -0.009523304
0.0037151526 0.052961245 0.025760235 0.062115952 0.006204539 -0.02439546 0.03818149 0.0024976528
0.018563904 -0.07423947 0.002373157 0.024094144 -0.016017543 0.050814398 0.051542517 0.021024022
0.06447904 -0.009248277 -0.06037197 0.039601997 0.040619276 0.03146017 -0.04470935 -0.027319305
-0.020993821 -0.10743786 -0.043166082 -0.08251048 -0.018368755 0.008754743 -0.12983869 -0.054118976
-0.04891251 -0.013412339 0.05559385 -0.018151969 -0.08821944 -0.117003046 -0.052095402 -0.07620346
0.032939274 0.060431454 0.04035537 0.0018813 -0.091732696 0.007983831 0.058852166 0.04847969
-0.0076245195 -0.008633552 0.065291725 0.01979912 -0.002668805 0.0062720785 0.05094551 0.05807164
0.031126164 -0.03442625 0.0011465332 0.11708213 0.10297894 0.1041031 0.08037745 0.051328342
-0.0043917056 0.0069966326 0.07771634 0.016986052 0.04481641 -0.013113076 -0.04123295 0.04486175
0.013520209 -0.027556706 -0.12724242 -0.09004556 -0.010191332 -0.049553547 -0.010668512 -0.061744742
-0.076224595 -0.08737242 0.021572128 0.05854651 -0.13248338 -0.07359473 -0.03265408 0.02163584
-0.019599672 -0.06022133 -0.053815857 -0.012264334 -0.06965138 0.013393046 -0.029238258 -0.030619977
0.051968873 -0.018939415 0.010300758 -0.06886495 -0.033990763 -0.09184862 -0.11543578 -0.090292916
-0.037100118 -0.12372376 -0.02836854 -0.024082651 -0.046767395 0.02843496 -0.0013476749 0.0018552141
0.03343816 0.032520667 -0.023744313 0.01440211 -0.081838794 -0.059237443 -0.019287152 -0.035869695
00000000: 385f 0dbe f1f2 07be 4fb1 0dbd ca4e a3bd
00000010: df8c 9db9 8383 d0bd 5a62 86bd ccbc bdbc
00000020: 665f e2bc f539 98bd 1ce4 0ebc 23ce e4bc
00000030: 4bf7 5abb bd6c 893d 1dbc 9dbc 67dd d53c
00000040: 8e15 d13c 61fd d23d 451f c13d c1ae 6b3d
00000050: 1be8 fabc 27c1 d73c 3c97 963d d70e f43c
00000060: ef9e 2f3c f56c 9abd f9b3 e2bc 2f17 b43c
00000070: a6eb 943d c956 493c 691b c1bd 30ed 5f3c
00000080: 1da3 123d ddae 4d3d 3c4c 913c d264 7bbc
00000090: 1533 183d 7399 dc3c e576 8f3a b604 993c
000000a0: 0432 7a3d aafc 053d 5ad5 853d f812 1c3c
000000b0: ac42 7e3d 89a6 a8bb 11f4 22bd e8df 003d
000000c0: f9b9 333d 5b99 a03d aeda 84bc b11d 95bb
000000d0: 22d3 a9bd 2bb3 2a3d 8c71 223d 331f 25bd
000000e0: 13b9 4f3c b146 613c df6a 3c3d fe03 e63c
000000f0: 49f5 d5bc 0a74 92bd a6c3 063d 1bbb 103b
00000100: abb6 aa3c acb0 b4bd fce5 18be 6d3f 4abd
00000110: 5648 02bd 3262 a83c 8732 eb3d a23e 563c
00000120: e910 0e3c 59d8 ec3c 95c4 ffbc 877b 453d
00000130: 4596 0c3b 3244 d83c 1e9f a63c f6f7 4abc
00000140: 41b6 763c 485a 11bd 4a31 3cbc e6ad 273c
00000150: 1c88 6ebc d847 83bd 5928 343c ee28 d5bd
00000160: e6c8 69bd 3879 b7ba 80d5 0ebd e6a2 6abd
00000170: c606 92bd c410 d4bd 4868 333d 338a 083d
00000180: b215 a33c f603 53bc 2ab3 99bd 80e3 403d
00000190: f60a f2bc 7e62 22bd 1a20 53bb c90f 7f3c
000001a0: a5b2 eabc f2db dbbd e62a b8bd 5fb0 693c
000001b0: 6408 e4bc 3cf1 10bd 15bd e1bd 0d50 d1bd
000001c0: 185a 80bd 4a3b efbc 79ee d3bc e0ca c1bd
000001d0: 337b 7cbd 4bc2 3abd aa50 613c 02b7 3d3d
000001e0: 9f4d eebd 553a 15be b2bc b9bd 1427 8fbd
000001f0: 47c0 adbd 40fa b0bc 209a 70bd 4249 6cbc
00000200: c786 f73c e84a bc3c 67f0 8abd 997e 87bd
00000210: 0ba5 233d 3cd5 373d 07cd db3c a207 1cbc
00000220: eb79 733b e4ed 583d 2107 d33c 4c6d 7e3d
00000230: 724f cb3b fdd8 c7bc 3264 1c3d a9af 233b
00000240: 5413 983c dd0a 98bd f886 1b3b 1561 c53c
00000250: 3937 83bc c222 503d 3f1e 533d 923a ac3c
00000260: 960d 843d 1686 17bc 9948 77bd b435 223d
00000270: 6660 263d 61dc 003d 2721 37bd bccc dfbc
00000280: 3cfb abbc 6108 dcbd ebce 30bd 41fb a8bd
00000290: 127a 96bc 0e70 0f3c 6ff4 04be dcab 5dbd
000002a0: 7c58 48bd 6dbf 5bbc 60b6 633d 70b3 94bc
000002b0: 65ac b4bd 4b9f efbd fd61 55bd 8f10 9cbd
000002c0: 55eb 063d f986 773d ac4b 253d f495 f63a
000002d0: 5ade bbbd 9dce 023c f80e 713d a492 463d
000002e0: 1bd7 f9bb be73 0dbc abb7 853d c431 a23c
000002f0: 1ee7 2ebb 0286 cd3b 3dac 503d 87dc 6d3d
00000300: 4cfc fe3c 8a02 0dbd 4547 963a c1c8 ef3d
00000310: 9fe6 d23d 0234 d53d ef9c a43d ab3d 523d
00000320: 4ce8 8fbb 0244 e53b bf29 9f3d 5526 8b3c
00000330: 6991 373d 3ad8 56bc e2e3 28bd f4c0 373d
00000340: de83 5d3c 9abe e1bc d64b 02be ce69 b8bd
00000350: 8bf9 26bc a9f8 4abd fcca 2ebc 0ee8 7cbd
00000360: a41b 9cbd 50f0 b2bd 08b8 b03c 77ce 6f3d
00000370: b9a9 07be d5b8 96bd 49c0 05bd a53d b13c
00000380: 7e8f a0bc a4aa 76bd 046e 5cbd 58f0 48bc
00000390: 62a5 8ebd 826e 5b3c 1285 efbc bfd6 fabc
000003a0: 50dd 543d d526 9bbc 83c4 283c 1109 8dbd
000003b0: e639 0bbd 211b bcbd 9869 ecbd 7eeb b8bd
000003c0: 4bf6 17bd e262 fdbd 2465 e8bc fb48 c5bc
000003d0: 2b8f 3fbd 6ff0 e83c 77a4 b0ba a82a f33a
000003e0: 74f6 083d 6434 053d 6f83 c2bc d4f6 6b3c
000003f0: 199b a7bd f6a2 72bd 1700 9ebc 1aec 12bd

bias f4 [32]
-0.035427436 0.007330451 0.028533766 0.00057892397 -0.041401073 -0.0164727 0.008504308 0.04798334
0.00083747413 0.030329213 -0.025086459 -0.014778514 -0.01126744 -0.023488948 0.0118399905 0.022090899
0.00094218046 -0.0031495949 -0.017492175 -0.04298818 -0.0009094028 -0.0042688716 -0.03505818 0.020558223
-0.03741554 -0.021443099 -0.051320735 0.02415587 0.00363885 -0.025842877 0.03831198 -0.012062662
00000000: 5c1c 11bd 4834 f03b a5bf e93c eec2 173a
00000010: 2c94 29bd c1f1 86bc a755 0b3c 2e8a 443d
00000020: f089 5b3a f874 f83c 1e82 cdbc 9521 72bc
00000030: 129b 38bc e56b c0bc 85fc 413c f9f7 b43c
00000040: a9fc 763a 6f69 4ebb c04b 8fbc 6014 30bd
00000050: fd64 6eba e4e1 8bbb 2b99 0fbd b869 a83c
00000060: 0a41 19bd 70a9 afbc b135 52bd 88e2 c53c
00000070: c679 6e3b 71b4 d3bc 06ed 1c3d 79a2 45bc

weight f4 [32]
0.38282797 0.43763515 0.4847393 0.368697 0.9373219 0.6270492 0.75195205 0.86755145
0.28969255 0.44458497 0.2400081 0.20881075 0.22114962 0.67135 0.5748513 0.37239358
0.4707211 0.0016852125 0.8688295 0.015671713 0.6411728 0.45281434 0.8939124 0.43624166
0.1584867 -2.6248497e-05 0.83796877 0.15745568 0.3403448 0.21270995 0.9823348 0.04149488
00000000: 0702 c43e b711 e03e c02f f83e dac5 bc3e
00000010: 54f4 6f3f 4c86 203f ee7f 403f da17 5e3f
00000020: 9552 943e a4a0 e33e afc4 753e 7cd2 553e
00000030: 0c75 623e 98dd 2b3f 7429 133f 5faa be3e
00000040: 5b02 f13e 59e2 dc3a 9c6b 5e3f f761 803c
00000050: e723 243f 48d7 e73e 71d7 643f 115b df3e
00000060: 564a 223e 3830 dcb7 1f85 563f 103c 213e
00000070: ac41 ae3e a3d0 593e 4b7a 7b3f 89f6 293d

bias f4 [32]
-0.0041115433 -0.0133353565 -0.040344678 -0.03719737 -0.02470647 -0.025521282 0.005665913 -0.014472607
-0.03463953 -0.021902202 -0.036308516 -0.036240853 -0.037713196 -0.032434933 -0.005826449 -0.023947068
-0.05377044 -0.008419996 -0.03642485 -0.03648935 -0.0071974564 -0.025762722 -0.052187923 -0.03746223
-0.026889093 -0.008365219 -0.07788517 -0.02219963 -0.02690705 -0.023753958 -0.03192625 -0.008845681
00000000: 20ba 86bb 8a7c 5abc 7640 25bd 455c 18bd
00000010: 3965 cabc 0212 d1bc 20a9 b93b 831e 6dbc
00000020: 2ee2 0dbd 3f6c b3bc 3db8 14bd 4a71 14bd
00000030: 2779 1abd 7eda 04bd cceb bebb a42c c4bc
00000040: 653e 5cbd 06f4 09bc 3932 15bd db75 15bd
00000050: a4d8 ebbb 580c d3bc 01c3 55bd ff71 19bd
00000060: 8446 dcbc 460e 09bc 4382 9fbd 00dc b5bc
00000070: 2c6c dcbc a997 c2bc 19c5 02bd 7aed 10bc

running_mean f4 [32]
-0.18456487 -0.20852026 -0.34088966 -0.5668959 -0.74038327 -0.07570351 -0.014590399 0.06966319
-0.44074643 0.2924568 0.13394004 -0.24894418 -0.15405823 0.08213538 0.30141342 0.008962033
-0.53952044 0.18321818 0.1638006 -0.36829495 -0.11122137 -0.39398712 -0.35077623 -0.21958071
0.081528515 0.021270782 0.106039904 -0.19298457 -0.7015739 -0.16573468 -0.6215408 0.25487155
00000000: 93fe 3cbe 5686 55be 1789 aebe 1720 11bf
00000010: c289 3dbf 710a 9bbd 920c 6fbc 93ab 8e3d
00000020: 84a9 e1be e6bc 953e 9427 093e 39eb 7ebe
00000030: 71c1 1dbe 9836 a83d dc52 9a3e 7ed5 123c
00000040: 031e 0abf 8c9d 3b3e 58bb 273e 2891 bcbe
00000050: 08c8 e3bd aeb8 c9be f198 b3be c4d9 60be
00000060: 6cf8 a63d 1040 ae3c 732b d93d bf9d 45be
00000070: 599a 33bf 5ab6 29be 4c1d 1fbf 867e 823e

running_var f4 [32]
0.41740355 0.36094412 0.36589858 0.22770204 0.1654665 0.30296463 0.6266501 0.38676
0.28369144 0.7420461 0.34051847 0.24640656 0.3235168 0.4578537 0.4357645 0.4685818
0.32903984 0.2589854 0.21858557 0.31722477 0.360908 0.28907987 0.24793804 0.3423733
0.5980145 0.08061686 0.32397702 0.42074946 0.3395183 0.44239753 0.28092203 0.51208055
00000000: ebb5 d53e abcd b83e 0f57 bb3e b92a 693e
00000010: 0d70 293e 2e1e 9b3e 246c 203f 6805 c63e
00000020: 0140 913e bcf6 3d3f 7058 ae3e 0052 7c3e
00000030: fea3 a53e cd6b ea3e 861c df3e f4e9 ef3e
00000040: e977 a83e bc99 843e e5d4 5f3e 496b a23e
00000050: efc8 b83e 4702 943e 78e3 7d3e 8e4b af3e
00000060: 7a17 193f 741a a53d 51e0 a53e 796c d73e
00000070: 58d5 ad3e ee81 e23e 03d5 8f3e b617 033f

weight f4 [64, 32, 3, 3]
-0.063361816 -0.07305735 -0.016293706 0.05286453 0.0012123778 -0.080972984 -0.022823935 -0.032885343
-0.06105631 -0.09101824 -0.124013595 0.018542852 0.14000428 -0.022457672 -0.13706687 0.04026382
-0.002820501 0.034091085 -0.021627128 -0.0855994 0.08267198 0.059291933 -0.04072278 -0.012429311
0.021095045 -0.01739095 -0.04743975 -0.042437777 -0.01997357 -0.117997654 -0.005948694 -0.009716561
0.006306959 -0.008408466 -0.09772627 -0.057796877 0.03178444 -0.047864903 0.034259718 0.037098844
-0.1270293 -0.21880935 -0.10113891 -0.16078047 -0.08150485 -0.03329122 -0.015448794 0.070173584
-0.09337795 -0.080201775 0.01780032 0.013530689 -0.06453898 -0.07379104 -0.029589018 0.004586474
0.0650427 -0.08439269 -0.07248456 0.051021535 -0.01470833 -0.04357989 0.123195305 0.0053071617
-0.0826784 0.005850504 0.031216094 -0.0335793 -0.05206535 -0.003443365 0.08051682 0.060635358
-0.034613304 -0.12012947 0.100049086 0.0098621445 -0.07975633 -0.0704957 -0.097935416 -0.14910407
-0.12552287 -0.037318103 -0.001076133 0.013360504 -0.026321715 0.017289467 -0.026613317 0.08382437
-0.054787397 -0.07655563 -0.09895099 0.056958698 0.05178842 -0.08323405 0.0068692565 0.009867688
-0.04440731 -0.06906058 0.019502051 -0.11413393 -0.037410066 0.071958736 0.012551628 -0.08895058
-0.015503156 -0.026152728 0.043811634 0.079058826 -0.15960476 -0.0721955 -0.006562835 -0.015455861
0.09219304 -0.013710883 0.10895616 0.04071414 -0.023391237 -0.02813755 -0.08716124 0.014427837
-0.02132906 -0.018433658 0.021948494 -0.046739385 0.06954566 0.042614337 -0.023059862 -0.024005035
0.06567875 -0.03663875 -0.099288486 0.010689114 -0.007950462 -0.035214305 0.02191244 0.0756093
-0.022291815 0.11312026 -0.07526039 0.011643304 0.04763982 0.049019918 -0.078564405 -0.046109848
0.0049190284 -0.02441746 -0.0415688 0.024810886 -0.048565004 -0.19954412 0.06588249 -0.07931965
-0.0848765 0.0026496341 -0.015278943 0.06543102 -0.045833744 0.034809425 -0.027973628 0.050006114
-0.0333749 -0.04571042 0.022899019 -0.009313436 -0.044971403 -0.008170088 -0.045835357 0.07535839
0.039927043 0.045770966 -0.045593005 -0.04026854 0.059617702 0.036910463 0.0041892496 0.028684264
0.01667879 -0.0041169985 0.023155348 0.06685631 0.028550811 -0.02719968 0.040088464 0.09117388
0.01367872 0.05954964 -0.048835386 -0.033593245 -0.048306193 -0.039135974 0.023610812 0.05386125
-0.009907427 -0.07332014 0.03596698 0.037006725 -0.07625913 -0.11153462 0.07799043 -0.022463508
-0.08969561 0.050363626 -0.012181074 -0.03166425 -0.18758972 -0.055220082 -0.026863141 -0.056047246
-0.0880406 0.06148891 -0.023318643 -0.058276553 0.033151835 0.021704676 0.075685486 -0.031761784
-0.0571848 -0.012290271 0.09131019 -0.08058219 -0.007303805 0.043939207 -0.010421011 -0.020823495
0.043877512 0.020102173 0.03534783 0.035523273 0.0010767927 -0.005636533 -0.044328112 -0.046920422
0.046803605 -0.036751952 -0.07561149 0.013463533 0.0133039635 0.08407452 0.015379375 -0.009185693
-0.022799179 -0.08537722 -0.032343417 0.037026785 -0.07368422 0.034064654 -0.03374824 0.021503557
0.12699087 0.08235964 0.02720702 0.072802305 0.00077875954 -0.020197973 0.0073329583 0.03641177
00000000: d7c3 81bd 189f 95bd 617a 85bc 7a88 583d
00000010: a6e8 9e3a 2ad5 a5bd 43f9 babc c8b2 06bd
00000020: 2e16 7abd c567 babd d7fa fdbd 2ee7 973c
00000030: 485d 0f3e 27f9 b7bc 425b 0cbe adeb 243d
00000040: 28d8 38bb 18a3 0b3d 602b b1bc bd4e afbd
00000050: ed4f a93d 19dc 723d eecc 26bd 4fa4 4bbc
00000060: 84cf ac3c 7777 8ebc 2f50 42bd 3cd3 2dbd
00000070: 9d9f a3bc c1a8 f1bd 43ed c2bb 3632 1fbc
00000080: 9baa ce3b aac3 09bc b624 c8bd 6bbc 6cbd
00000090: 6730 023d fd0d 44bd eb53 0c3d f5f4 173d
000000a0: f813 02be 8f0f 60be eb21 cfbd a3a3 24be
000000b0: 04ec a6bd 605c 08bd f01c 7dbc 2bb7 8f3d
000000c0: f03c bfbd d440 a4bd fad1 913c d3af 5d3c
000000d0: 032d 84bd c21f 97bd ab64 f2bc 224a 963b
000000e0: 1b35 853d 13d6 acbd c972 94bd f5fb 503d
000000f0: 35fb 70bc d480 32bd d24d fc3d b3e7 ad3b
00000100: 4b53 a9bd 96b5 bf3b e5b8 ff3c 738a 09bd
00000110: 7a42 55bd 14aa 61bb 01e6 a43d c85c 783d
00000120: aec6 0dbd 7106 f6bd 89e6 cc3d d594 213c
00000130: 4957 a3bd 0d60 90bd 5d92 c8bd bdae 18be
00000140: 1189 00be deda 18bd 080d 8dba 04e6 5a3c
00000150: a3a0 d7bc a4a2 8d3c 2c04 dabc 1cac ab3d
00000160: c068 60bd 33c9 9cbd d1a6 cabd 864d 693d
00000170: 1820 543d 9d76 aabd 8017 e13b 15ac 213c
00000180: 71e4 35bd a26f 8dbd c4c2 9f3c 0dbf e9bd
00000190: 4c3b 19bd 1a5f 933d 58a5 4d3c b92b b6bd
000001a0: f300 7ebc 3f3e d6bc d473 333d 98e9 a13d
000001b0: 6e6f 23be 3cdb 93bd 0d0d d7bb 943a 7dbc
000001c0: b4cf bc3d 9da3 60bc 6824 df3d dfc3 263d
000001d0: fb9e bfbc b880 e6bc 9881 b2bd bc62 6c3c
000001e0: 48ba aebc 2f02 97bc 54cd b33c cc71 3fbd
000001f0: f46d 8e3d 5f8c 2e3d 09e8 bcbc 35a6 c4bc
00000200: 9582 863d 8412 16bd c357 cbbd 6521 2f3c
00000210: a842 02bc e03c 10bd b881 b33c 0cd9 9a3d
00000220: 539d b6bc 98ab e73d 1f22 9abd 8ec3 3e3c
00000230: f921 433d 1cc9 483d 60e6 a0bd aedd 3cbd
00000240: cd2f a13b 2007 c8bc 0c44 2abd 3340 cb3c
00000250: 19ec 46bd 4b55 4cbe 66ed 863d 5772 a2bd
00000260: bbd3 adbd 7ca5 2d3b 8854 7abc b300 863d
00000270: 2abc 3bbd 5494 0e3d f328 e5bc 36d3 4c3d
00000280: 1fb4 08bd d93a 3bbd b996 bb3c 6297 18bc
00000290: ef33 38bd d5db 05bc dbbd 3bbd 8055 9a3d
000002a0: 8a8a 233d 567a 3b3d bbbf 3abd a0f0 24bd
000002b0: b131 743d 6d2f 173d f945 893b 43fb ea3c
000002c0: f5a1 883c e3e7 86bb 49b0 bd3c f6eb 883d
000002d0: 64e3 e93c ddd1 debc cd33 243d 5fb9 ba3d
000002e0: b61c 603c 53ea 733d 9d07 48bd 1299 09bd
000002f0: b7dc 45bd 0b4d 20bd 766b c13c 9d9d 5c3d
00000300: c352 22bc df28 96bd 1d52 133d 5d94 173d
00000310: bf2d 9cbd 436c e4bd 72b9 9f3d 6405 b8bc
00000320: 55b2 b7bd 174a 4e3d 2193 47bc 5fb2 01bd
00000330: 8517 40be 742e 62bd 1710 dcbc cc91 65bd
00000340: a14e b4bd ccdb 7b3d bd06 bfbc 65b3 6ebd
00000350: 38ca 073d 01ce b13c fe00 9b3d a518 02bd
00000360: 9c3a 6abd 225d 49bc d600 bb3d 4608 a5bd
00000370: c254 efbb 99f9 333d e3bc 2abc 0996 aabc
00000380: e8b8 333d 50ad a43c e3c8 103d da80 113d
00000390: 2b23 8d3a aab2 b8bb 6591 35bd a12f 40bd
000003a0: 23b5 3f3d 3789 16bd 32da 9abd 2696 5c3c
000003b0: def8 593c 432f ac3d c6f9 7b3c 977f 16bc
000003c0: 58c5 babc 40da aebd 887a 04bd 66a9 173d
000003d0: c1e7 96bd 6187 0b3d 983b 0abd 3a28 b03c
000003e0: e509 023e 2cac a83d 42e1 de3c 6019 953d
000003f0: ab25 4c3a 3876 a5bc 5049 f03b 8224 153d

bias f4 [64]
0.035819806 0.008449766 0.006391055 -0.050541013 -0.044711683 0.039327126 -0.017351316 -0.117232434
-0.062230375 -0.051927112 0.059318583 0.029894724 0.011664053 -0.027709197 0.049411338 -0.041419555
0.037402444 -0.013059503 -0.011269608 0.04843382 0.05274853 -0.018144332 0.028142119 -0.090365596
-0.09191688 -0.09602375 -0.029797167 -0.013038548 0.043550346 0.00070371904 -0.015425491 0.04465916
-0.0032474543 -0.05401791 0.004947688 -0.055523008 0.003789492 -0.031143745 -0.076254494 0.020639557
-0.05138242 -0.0855062 -0.03749654 0.020542428 -0.084473185 -0.0702628 -0.024003768 -0.09446307
-0.03211158 -0.008679333 -0.017459445 0.05132567 -0.0080557 0.04489481 -0.037709225 -0.06363543
-0.031100793 -0.02440587 0.016962398 0.010305145 0.044682134 -0.0025185081 -0.033511646 -0.032632288
00000000: cab7 123d e370 0a3c 0e6c d13b 1804 4fbd
00000010: 9923 37bd 7b15 213d 5924 8ebc 8f17 f0bd
00000020: 47e5 7ebd 86b1 54bd 0bf8 723d c8e5 f43c
00000030: 961a 3f3c 66fe e2bc 8b63 4a3d 8da7 29bd
00000040: 4e33 193d 87f7 55bc 29a4 38bc 8b62 463d
00000050: d80e 583d 6ca3 94bc 4d8a e63c 9911 b9bd
00000060: eb3e bcbd 1aa8 c4bd 3019 f4bc a29f 55bc
00000070: d961 323d c979 383a 33bb 7cbc 86ec 363d
00000080: 3ed3 54bb e241 5dbd 3720 a23b 186c 63bd
00000090: 2059 783b 2b21 ffbc 512b 9cbd 4a14 a93c
000000a0: 5f76 52bd e01d afbd f995 19bd 9848 a83c
000000b0: 4700 adbd f1e5 8fbd 8da3 c4bc db75 c1bd
000000c0: 6f87 03bd c333 0ebc 1c07 8fbc de3a 523d
000000d0: 0efc 03bc 9fe3 373d fd74 1abd 4b53 82bd
000000e0: 17c7 febc d2ee c7bc baf4 8a3c e9d6 283c
000000f0: 9d04 373d 8e0d 25bb 8243 09bd 6fa9 05bd

weight f4 [64]
0.24711642 0.3751029 0.41322848 0.30229205 0.39731187 0.16292305 0.20145105 0.64646965
0.690716 0.9562604 0.7059201 0.8637445 0.53799385 0.19272271 0.77693796 0.40022412
0.5909469 0.29655826 0.242499 0.30401978 0.9878652 0.34659284 0.09103305 0.1482702
0.6860493 0.8016609 0.8576631 0.2228853 0.612641 0.078425 0.37082487 0.648122
0.21862315 0.5117586 0.5739761 0.27797467 0.28785294 0.85018945 0.5997142 0.15331727
0.12071713 0.2212104 0.8604312 0.4949883 0.21430965 0.5543557 0.8474536 0.5467567
0.34898785 0.66703033 0.20575792 0.8280045 0.5552896 0.41527566 0.89706635 0.18362066
0.45510656 0.39743248 0.89443886 0.7763172 0.7834464 0.52102304 0.7657057 0.8245767
00000000: 160c 7d3e 7d0d c03e af92 d33e 06c6 9a3e
00000010: 766c cb3e 4dd5 263e 2f49 4e3e 097f 253f
00000020: c4d2 303f 7bcd 743f 2eb7 343f 5c1e 5d3f
00000030: f7b9 093f 1a59 453e 68e5 463f 2dea cc3e
00000040: 4c48 173f 7cd6 973e a851 783e 7ba8 9b3e
00000050: bce4 7c3f 9e74 b13e 896f ba3d 25d4 173e
00000060: eda0 2f3f a639 4d3f cf8f 5b3f 0b3c 643e
00000070: 0ad6 1c3f 499d a03d c2dc bd3e 53eb 253f
00000080: bfde 5f3e 9d02 033f 19f0 123f b252 8e3e
00000090: 7661 933e 04a6 593f df86 193f 34ff 1c3e
000000a0: 8b3a f73d fb84 623e 3845 5c3f 1b6f fd3e
000000b0: fd73 5b3e 41ea 0d3f b8f2 583f 3ff8 0b3f
000000c0: 89ae b23e 80c2 2a3f 34b2 523e 1af8 533f
000000d0: 7627 0e3f 039f d43e 24a6 653f 0e07 3c3e
000000e0: ba03 e93e 457c cb3e f2f9 643f b9bc 463f
000000f0: f18f 483f c461 053f 4a05 443f 7517 533f

bias f4 [64]
-0.0076208157 0.008663262 0.003975511 -0.005613842 -0.029659351 0.015952203 0.0009908469 -0.09231387
-0.043956444 -0.080071606 0.048386592 -0.014517773 -0.046422448 -0.046702728 0.0019081334 -0.09493481
-0.021156488 -0.0005905282 0.027922723 0.03037324 0.017957289 0.011580543 0.01891735 -0.048360538
-0.04965484 -0.103383064 -0.073800266 -0.003752669 -0.023795221 -0.009135384 0.019787356 -0.0063136606
-0.023608327 -0.07627567 0.0009768484 0.006914884 -0.026869604 -0.11705072 -0.048392102 -0.017133968
-0.035144296 -0.028528268 -0.030439971 0.0015829859 -0.07137279 -0.029840212 -0.027172115 -0.040805746
-0.101619996 -0.03127458 0.014623844 -0.04163872 -0.050567426 0.008188448 -0.015128234 -0.0047654663
-0.017306833 -0.09392271 -0.054176193 -0.037469182 0.005847924 -0.08278959 -0.08303033 -0.08422126
00000000: 09b8 f9bb 5bf0 0d3c 0145 823b 52f4 b7bb
00000010: 2bf8 f2bc 32ae 823c 4edf 813a 0e0f bdbd
00000020: ac0b 34bd 95fc a3bd 0531 463d f4db 6dbc
00000030: 7725 3ebd 5c4b 3fbd 551a fa3a 2f6d c2bd
00000040: 5f50 adbc adcd 1aba 32be e43c 4dd1 f83c
00000050: 2a1b 933c 51bc 3d3c 8ff8 9a3c b315 46bd
00000060: e062 4bbd 80ba d3bd 9824 97bd 57ef 75bb
00000070: 32ee c2bc 94ac 15bc 1819 a23c d3e2 cebb
00000080: 4066 c1bc 6b36 9cbd 9809 803a 4096 e23b
00000090: a51d dcbc 4ab8 efbd cc36 46bd 895c 8cbc
000000a0: 77f3 0fbd 1db4 e9bc 3f5d f9bc 317c cf3a
000000b0: e62b 92bd 7673 f4bc 0e98 debc ed23 27bd
000000c0: 251e d0bd c619 00bd d998 6f3c 5d8d 2abd
000000d0: ca1f 4fbd d728 063c 6adc 77bc a127 9cbb
000000e0: 0fc7 8dbc 8d5a c0bd dbe7 5dbd 4979 19bd
000000f0: f19f bf3b 978d a9bd ce0b aabd 327c acbd

running_mean f4 [64]
0.12642579 -0.3943557 0.0037562354 0.10916459 -0.09328593 -0.20559491 -0.54175246 0.2838839
-0.030963657 -0.43420509 -0.22085051 -0.40575334 0.11982421 0.21197301 -0.62388974 0.38407356
0.081826836 0.04832551 -0.0062399087 -0.44230914 -0.36409107 -0.20049839 0.117790364 0.1338583
0.25939035 0.42927355 0.32899198 -0.3272646 -0.32168612 0.0070536574 -0.4173211 0.23184508
-0.09008775 0.22216734 -0.42886516 -0.49581373 0.2574856 0.0773942 -0.4068347 -0.029008629
0.04582465 -0.21287131 -0.5542083 -0.18713632 0.31271434 -0.21933278 -0.24814287 0.025921322
0.14028215 0.010449436 -0.41276538 0.2097777 -0.27427238 -0.20669918 0.101446554 0.03093671
-0.17141297 0.37037015 -0.27426055 -0.25542757 -0.2786978 0.38251367 0.12752241 0.35871825
00000000: c375 013e fee8 c9be 2c2b 763b af91 df3d
00000010: b20c bfbd 7987 52be 4ab0 0abf 3b59 913e
00000020: 7fa7 fdbc 2150 debe a326 62be e7be cfbe
00000030: 6566 f53d 740f 593e 3db7 1fbf 4aa5 c43e
00000040: d494 a73d f8f0 453d 2678 ccbb 5876 e2be
00000050: 256a babe 734f 4dbe 133c f13d 2612 093e
00000060: d0ce 843e bec9 db3e a371 a83e 3a8f a7be
00000070: 0bb4 a4be 5e22 e73b 1cab d5be cc68 6d3e
00000080: ed7f b8bd d67f 633e 3794 dbbe 4cdb fdbe
00000090: 27d5 833e da80 9e3d a34c d0be 81a3 edbc
000000a0: a1b2 3b3d f0fa 59be 98e0 0dbf aaa0 3fbe
000000b0: 181c a03e c698 60be 2a19 7ebe f458 d43c
000000c0: 20a6 0f3e 1c34 2b3c fc55 d3be f7cf 563e
000000d0: 6e6d 8cbe f3a8 53be 36c3 cf3d fc6e fd3c
000000e0: e286 2fbe 28a1 bd3e e16b 8cbe 67c7 82be
000000f0: 7ab1 8ebe d5d8 c33e 3c95 023e eba9 b73e

running_var f4 [64]
0.13559704 0.18869652 0.18087417 0.18547757 0.23035605 0.16700055 0.3468432 0.1769739
0.18175556 0.3833918 0.16932502 0.36794823 0.12972416 0.15795028 0.48888028 0.22723147
0.1349388 0.11622843 0.13253377 0.25981453 0.30402946 0.18116789 0.14803751 0.13291481
0.20729433 0.3135413 0.13767792 0.23574512 0.32317093 0.1541971 0.31544217 0.10772814
0.1496876 0.15607862 0.29930905 0.21790278 0.15795864 0.18607806 0.16514872 0.081839666
0.11846034 0.16620238 0.53591186 0.15424846 0.18799359 0.23142749 0.31536412 0.28379855
0.2733142 0.16914807 0.19270182 0.12443575 0.2019475 0.12512359 0.13717218 0.108998165
0.11979464 0.15904549 0.3172964 0.2822025 0.21106806 0.23924562 0.20634493 0.22321628
00000000: f3d9 0a3e a939 413e 1437 393e d5ed 3d3e
00000010: 75e2 6b3e 3102 2b3e 6f95 b13e a538 353e
00000020: 211e 3a3e ee4b c43e 8a63 2d3e b663 bc3e
00000030: 69d6 043e b8bd 213e 844e fa3e 5eaf 683e
00000040: 662d 0a3e 2c09 ee3d efb6 073e 6906 853e
00000050: c0a9 9b3e 1384 393e 2597 173e d21a 083e
00000060: f744 543e 7c88 a03e 71fb 0c3e 2b67 713e
00000070: a976 a53e d8e5 1d3e a381 a13e 92a0 dc3d
00000080: b547 193e 13d3 1f3e 093f 993e e821 5f3e
00000090: e9bf 213e 3f8b 3e3e bf1c 293e 8e9b a73d
000000a0: 569b f23d f530 2a3e 8531 093f 4ff3 1d3e
000000b0: 6481 403e 54fb 6c3e 6877 a13e 0b4e 913e
000000c0: d7ef 8b3e 2735 2d3e a053 453e 2cd8 fe3d
000000d0: 53cb 4e3e 6620 003e dd76 0c3e 6e3a df3d
000000e0: e456 f53d d2dc 223e ac74 a23e d97c 903e
000000f0: 3a22 583e cefc 743e 164c 533e cf92 643e

weight f4 [64, 64, 3, 3]
0.024974186 -0.13321407 -0.055163648 0.03875497 0.04298083 0.079085335 0.007179917 0.066060826
0.038688876 -0.0033426613 -0.10913679 -0.045800127 -0.10262076 0.04375568 0.052668102 -0.07275304
-0.058670994 0.008954201 0.015055452 0.034147475 -0.00058351306 0.0017195418 -0.10879163 -0.029818598
-0.051514883 -0.0094206035 0.05213152 0.008231315 0.047709756 -0.011035672 0.017076587 0.037391372
-0.07804239 -0.09310279 0.056617692 -0.08721616 0.013564011 0.024674851 -0.025855558 -0.008012351
-0.06594178 -0.03843521 -0.015233452 -0.06609936 -0.046251863 -0.052938186 -0.0076016546 0.09892668
-0.11094466 -0.113386594 0.035632484 0.049698487 0.1087442 -0.0014128949 0.04877372 -0.044042766
-0.10202643 -0.08259366 -0.049900446 -0.029277874 -0.057181634 -0.034380566 -0.011243678 -0.039987694
-0.018685432 0.032548226 -0.06050747 -0.0077264337 -0.07512969 -0.046160277 -0.03569923 -0.00017436517
0.035845004 -0.053191297 0.08216906 -0.053547695 -0.09129522 -0.12512265 -0.037023276 0.049126048
0.07955202 0.0165654 -0.019297441 -0.012849247 0.045271184 0.0024339873 -0.10272189 0.050916795
0.051314007 -0.05144802 0.038577158 -0.00582389 -0.04058503 0.0045342115 -0.11976673 -0.077506654
0.08916581 -0.038233045 -0.04543698 0.007522904 -0.032127917 -0.010296278 -0.048300087 0.0032173824
0.041624337 0.02377582 -0.040593427 -0.115876585 -0.0051659383 -0.0022486013 -0.0004932312 -0.028507613
0.05376747 0.049520284 0.031024866 -0.002713165 -0.063941196 0.026427753 -0.008531834 -0.049467333
-0.12877266 -0.08788201 -0.033218276 -0.056387343 -0.02360429 -0.03246807 0.032172807 -0.030574871
-0.028484102 -0.03644519 -0.09281627 -0.030518008 -0.032584265 -0.0680563 -0.09549047 -0.014591369
-0.09264135 -0.089048214 -0.04295605 -0.059965752 0.021916855 -0.0038598345 -0.07226735 -0.0038912164
-0.10113067 0.00939558 -0.03821524 -0.019262208 0.1006678 -0.03198986 0.07316267 0.049298037
-0.09498102 0.038147766 0.006833557 0.019723406 0.05897341 0.022786245 -0.029374598 -0.008148732
0.004149524 -0.012988998 0.044794925 -0.010504998 -0.093582526 0.005269487 -0.09069696 0.08981413
-0.11452704 0.028043104 0.06189091 -0.06504235 -0.03758395 -0.08802889 -0.082116835 -0.1399847
-0.08313727 0.017250117 -0.01690596 0.037296396 0.052082907 -0.021665294 0.005937086 -0.028195078
-0.08961525 -0.094604425 0.008607391 0.017698605 -0.0751964 0.01616713 0.11006267 0.07375515
-0.047834616 -0.04911143 0.025240738 -0.087591596 -0.056396347 -0.12927276 -0.0780187 0.0148751885
-0.020507226 0.019273633 0.003765061 -0.02027675 0.022928752 0.03260468 1.733689e-05 0.051426902
-0.0128771085 0.02664069 -0.07685089 0.06529437 0.005632515 -0.14425589 0.011425662 0.062807314
-0.07062558 -0.01266577 -0.0049188724 0.084644556 -0.012030238 -0.06723808 0.07010262 0.010222969
-0.015366235 -0.0132169165 -0.043433025 -0.097214736 0.021519557 0.03573774 0.007896663 -0.013586643
-0.010660826 -0.051617548 -0.10403104 0.013693713 -0.014282614 -0.042527016 0.045434188 0.06894919
-0.016814783 -0.014540222 0.04400235 -0.028498305 -0.0050692814 0.012950682 -0.10401071 -0.0005632484
-0.0045928643 0.061248634 0.0862389 -0.10711402 -0.0018741027 -0.038554344 -0.10667549 0.044624005
00000000: aa96 cc3c 4569 08be 47f3 61bd 88bd 1e3d
00000010: ab0c 303d 7ef7 a13d 8245 eb3b e64a 873d
00000020: 3a78 1e3d 8d10 5bbb 1c83 dfbd ea98 3bbd
00000030: d52a d2bd 2839 333d 82ba 573d 8cff 94bd
00000040: ff50 70bd a4b4 123c 24ab 763c 39de 0b3d
00000050: e6f6 18ba 4062 e13a 25ce debd 2246 f4bc
00000060: 4501 53bd e058 1abc dc87 553d a3dc 063c
00000070: 4e6b 433d f7ce 34bc 33e4 8b3c b227 193d
00000080: b0d4 9fbd adac bebd f4e7 673d 639e b2bd
00000090: 963b 5e3c ea22 ca3c 09cf d3bc 3c46 03bc
000000a0: 7c0c 87bd 3d6e 1dbd bb95 79bc 1a5f 87bd
000000b0: 9872 3dbd b6d5 58bd 4d17 f9bb 129a ca3d
000000c0: f436 e3bd 3b37 e8bd 5ef3 113d a490 4b3d
000000d0: 47b5 de3d e330 b9ba f4c6 473d 3066 34bd
000000e0: 3cf3 d0bd dd26 a9bd 6964 4cbd 27d8 efbc
000000f0: 4a37 6abd a3d2 0cbd 6737 38bc 23ca 23bd
00000100: 3112 99bc 4a51 053d aed6 77bd 062e fdbb
00000110: 98dd 99bd 8f12 3dbd 5b39 12bd cbd5 36b9
00000120: 36d2 123d 1edf 59bd 4148 a83d d454 5bbd
00000130: fdf8 babd 2720 00be b8a5 17bd 6538 493d
00000140: 2bec a23d 29b4 873c ab15 9ebc a685 52bc
00000150: 476e 393d 8883 1f3b db5f d2bd 218e 503d
00000160: a32e 523d 29bb 52bd 1503 1e3d 55d6 bebb
00000170: 7d3c 26bd b993 943b 4248 f5bd cfbb 9ebd
00000180: 909c b63d 419a 1cbd 201c 3abd b182 f63b
00000190: 9098 03bd b8b1 28bc 50d6 45bd b8da 523b
000001a0: 487e 2a3d 82c5 c23c 4b45 26bd b450 edbd
000001b0: 0847 a9bb 455d 13bb 2f4c 01ba cc88 e9bc
000001c0: 473b 5c3d c8d5 4a3d dc27 fe3c 5bcf 31bb
000001d0: 9af3 82bd 047f d83c 1bc9 0bbc 429e 4abd
000001e0: fbdc 03be 7cfb b3bd e30f 08bd 6af6 66bd
000001f0: c95d c1bc 3dfd 04bd a2c7 033d 2778 fabc
00000200: 7e57 e9bc 8d47 15bd 7516 bebd e700 fabc
00000210: 1477 05bd 1a61 8bbd 8290 c3bd a310 6fbc
00000220: c0ba bdbd e95e b6bd aff2 2fbd a69e 75bd
00000230: fa8a b33c 47f5 7cbb e800 94bd c703 7fbb
00000240: 991d cfbd ebef 193c 9587 1cbd c7cb 9dbc
00000250: eb2a ce3d cd07 03bd 4fd6 953d bdec 493d
00000260: 6985 c2bd d540 1c3d 08ec df3b fb92 a13c
00000270: 1a8e 713d 38aa ba3c ffa2 f0bc 4282 05bc
00000280: bbf8 873b cecf 54bc e27a 373d 281d 2cbc
00000290: 32a8 bfbd a9ab ac3b 54bf b9bd 78f0 b73d
000002a0: 278d eabd a7ba e53c 5381 7d3d ec34 85bd
000002b0: a1f1 19bd 7e48 b4bd df2c a8bd 2658 0fbe
000002c0: df43 aabd 1e50 8d3c 5e7e 8abc 1bc4 183d
000002d0: e354 553d 6a7b b1bc e38b c23b 5df9 e6bc
000002e0: 3388 b7bd f7bf c1bd 0406 0d3c aafc 903c
000002f0: 9200 9abd ee70 843c 8a68 e13d f10c 973d
00000300: 3bee 43bd 1129 49bd aac5 ce3c 3963 b3bd
00000310: dbff 66bd 1460 04be 45c8 9fbd 10b7 733c
00000320: c5fe a7bc bde3 9d3c 3ebf 763b 6d1b a6bc
00000330: 14d5 bb3c 7c8c 053d b06e 9137 04a5 523d
00000340: 82fa 52bc 943d da3c 0064 9dbd 0eb9 853d
00000350: f690 b83b d1b7 13be b332 3b3c 1fa1 803d
00000360: 25a4 90bd 1784 4fbc 7e2e a1bb 205a ad3d
00000370: 7a1a 45bc 1eb4 89bd f691 8f3d 3d7e 273c
00000380: a9c2 7bbc c48b 58bc d4e6 31bd 8518 c7bd
00000390: c849 b03c bd61 123d 0161 013c 839a 5ebc
000003a0: bfaa 2ebc ec6c 53bd 3a0e d5bd 985b 603c
000003b0: a001 6abc cf30 2ebd 3319 3a3d 3c35 8d3d
000003c0: 28bf 89bc 1c3a 6ebc cf3b 343d 4775 e9bc
000003d0: 371c a6bb 192f 543c 9103 d5bd f6a6 13ba
000003e0: bd7f 96bb d9df 7a3d 059e b03d 985e dbbd
000003f0: 74a4 f5ba 29eb 1dbd ae78 dabd a9c7 363d

bias f4 [64]
-0.041584156 0.02431796 -0.005016793 -0.051138736 -0.0130797615 -0.00963926 0.0018981812 0.0044780606
-0.06689697 -0.06749165 0.027461054 -0.06988985 -0.025621934 -0.023654599 -0.058489066 -0.03153473
-0.0103716925 -0.03476745 -0.03677804 -0.042858206 -0.05107933 -0.0023660422 -0.052291382 -0.05013827
-0.04125611 -0.06536419 0.005741993 -0.073664665 -0.046614215 -0.024621254 -0.0121830115 -0.052443534
0.0072925664 -0.032189094 -0.02326606 -0.0019900498 -0.05314804 -0.07335883 -0.028942155 -0.009673075
-0.08069962 -0.025427798 -0.0050154966 -0.05499529 -0.040299874 -0.010085031 -0.025345892 -0.061505813
0.022014985 -0.005712207 -0.091742374 -0.06577988 -0.10624881 -0.017974868 -0.04587985 -0.011302499
-0.012075272 -0.0032197519 -0.024109086 -0.053583156 -0.04157608 -0.02829154 -0.08073579 -0.031204274
00000000: 2654 2abd 7536 c73c e963 a4bb da76 51bd
00000010: 7f4c 56bc fded 1dbc 64cc f83a b2bc 923b
00000020: 4701 89bd 1039 8abd 01f6 e03c 6922 8fbd
00000030: 17e5 d1bc 4ac7 c1bc 3b92 6fbd 902a 01bd
00000040: 08ee 29bc 5068 0ebd 92a4 16bd 168c 2fbd
00000050: 8f38 51bd 9a0f 1bbb 7d2f 56bd c95d 4dbd
00000060: 2bfc 28bd a9dd 85bd 5427 bc3b 80dd 96bd
00000070: 8cee 3ebd 83b2 c9bc 419b 47bc 08cf 56bd
00000080: 7bf6 ee3b b6d8 03bd 7798 bebc 7f6b 02bb
00000090: c2b1 59bd 273d 96bd 1918 edbc d17b 1ebc
000000a0: d845 a5bd f54d d0bc 0959 a4bb be42 61bd
000000b0: 7b11 25bd b03b 25bc 30a2 cfbc 85ed 7bbd
000000c0: c558 b43c 772d bbbb 6de3 bbbd 9ab7 86bd
000000d0: fa98 d9bd 0840 93bc 82ec 3bbd 1e2e 39bc
000000e0: 5dd7 45bc 7902 53bb 6b80 c5bc 037a 5bbd
000000f0: ae4b 2abd a9c3 e7bc ce58 a5bd 1ba0 ffbc

weight f4 [64]
0.6621985 0.4174029 0.61072654 0.39864874 0.9053862 0.5581429 0.90947217 0.42004642
0.56379473 0.23687014 0.14356223 0.86745995 0.2828604 0.6756119 0.33067614 0.4326604
0.27845818 0.4984585 0.18843697 0.7276108 0.50014824 0.45355335 0.43078458 0.87567556
0.24025914 0.7004242 0.56254435 0.66353863 0.27053374 0.43219423 0.50928897 0.49035728
0.2182472 0.07492213 0.39312166 0.28502277 0.5635772 0.27293015 0.13705912 0.42257908
0.46986377 0.82580805 0.14928545 0.06836691 0.32234633 0.6298553 0.4176964 0.58809286
0.256485 0.83562046 0.38313892 0.3926577 0.41546148 0.7640891 0.3439902 0.4034078
0.23869863 0.5523728 0.543658 0.56306165 0.7165255 0.32569462 0.27995765 0.59390914
00000000: d785 293f d5b5 d53e 9358 1c3f b01b cc3e
00000010: 64c7 673f 74e2 0e3f 2bd3 683f 5310 d73e
00000020: da54 103f 168e 723e fa01 133e db11 5e3f
00000030: 14d3 903e e7f4 2c3f 624e a93e aa85 dd3e
00000040: 1292 8e3e f435 ff3e 9ff5 403e b444 3a3f
00000050: b709 003f 2538 e83e cc8f dc3e 462c 603f
00000060: 7e06 763e 004f 333f e802 103f abdd 293f
00000070: 6683 8a3e 9048 dd3e c360 023f 1c10 fb3e
00000080: 327c 5f3e c670 993d 3e47 c93e 81ee 913e
00000090: 9846 103f 80bd 8b3e 3a59 0c3e 495c d83e
000000a0: fc91 f03e 2868 533f 49de 183e f303 8c3d
000000b0: 940a a53e 323e 213f 4ddc d53e 418d 163f
000000c0: 0052 833e 39eb 553f c92a c43e 6e0a c93e
000000d0: 5eb7 d43e 589b 433f 7c1f b03e 788b ce3e
000000e0: 6a6d 743e 4e68 0d3f 2c2d 0b3f cf24 103f
000000f0: 376e 373f 72c1 a63e 9c56 8f3e 6e0a 183f

bias f4 [64]
-0.08289519 -0.030439325 -0.12427752 -0.09880402 -0.09700516 -0.08678655 -0.06720947 -0.03682865
-0.08639132 -0.05023781 -0.047532428 -0.13091332 -0.085537896 -0.06599273 -0.13811198 -0.11507279
-0.07966233 -0.091142915 -0.084107466 -0.09709625 -0.097747125 -0.11878683 -0.108259656 -0.11482239
-0.038911723 -0.16199858 -0.09689734 -0.10390294 -0.11640722 -0.11448899 -0.11372719 -0.079534024
-0.10022448 -0.07141218 -0.10455543 -0.10029303 -0.13378727 -0.092246674 -0.058486503 -0.07629797
-0.09748406 -0.076185256 -0.04652054 -0.091884546 -0.0708887 -0.093275495 -0.08010822 -0.104014225
-0.035307784 -0.060391407 -0.11555904 -0.07029961 -0.15601078 -0.07389411 -0.11918943 -0.060951874
-0.08272678 -0.077655956 -0.101357095 -0.09982985 -0.1073902 -0.10363407 -0.10544852 -0.099562265
00000000: f4c4 a9bd e45b f9bc 3685 febd c359 cabd
00000010: a4aa c6bd 26bd b1bd 1ea5 89bd a3d9 16bd
00000020: efed b0bd 29c6 4dbd 5db1 42bd 240e 06be
00000030: 7e2e afbd 3227 87bd 3a6d 0dbe 48ab ebbd
00000040: 0126 a3bd 23a9 babd 8940 acbd 66da c6bd
00000050: a52f c8bd 8246 f3bd 3db7 ddbd 0028 ebbd
00000060: e661 1fbd f5e2 25be 1d72 c6bd 11cb d4bd
00000070: e966 eebd 3479 eabd cde9 e8bd bce2 a2bd
00000080: 7e42 cdbd 8d40 92bd 2821 d6bd 6f66 cdbd
00000090: 88ff 08be d3eb bcbd 8b8f 6fbd 1c42 9cbd
000000a0: b9a5 c7bd 0407 9cbd 528c 3ebd f72d bcbd
000000b0: 182e 91bd 3907 bfbd c70f a4bd 6905 d5bd
000000c0: e59e 10bd fb5c 77bd 38aa ecbd 3ef9 8fbd
000000d0: 4ac1 1fbe cc55 97bd 9619 f4bd aca8 79bd
000000e0: a86c a9bd 160a 9fbd 4f94 cfbd 9873 ccbd
000000f0: 65ef dbbd 193e d4bd 65f5 d7bd 4de7 cbbd

running_mean f4 [64]
-0.1801593 -0.053533137 -0.060872883 -0.18673204 -0.07261439 -0.23278582 -0.39365482 0.15377387
-0.10046355 -0.21205463 0.110336155 -0.25940952 -0.30150056 -0.16788818 0.011521114 -0.1274667
0.055553664 -0.1581171 -0.050900217 -0.14747088 -0.024608064 -0.031060359 -0.16468665 -0.29057902
0.0065934183 -0.11654474 -0.14975636 -0.24834463 0.010159891 -0.063266896 -0.12857944 -0.15857923
-0.116230294 -0.1357725 -0.3662698 -0.0127950255 -0.07589718 -0.0546489 0.0877128 -0.113700315
-0.04173685 -0.28652027 -0.049476802 -0.11396049 -0.057544224 -0.0016374423 0.00712728 -0.1725765
-0.0578785 -0.16031718 -0.07022081 -0.3241307 -0.032722622 -0.1077723 -0.10902586 0.01509009
0.10109853 0.09051241 -0.063403234 -0.028716292 -0.11211674 -0.26753375 -0.0050859633 -0.060005322
00000000: ae7b 38be 9045 5bbd d855 79bd af36 3fbe
00000010: dab6 94bd 685f 6ebe 208d c9be e676 1d3e
00000020: d5bf cdbd d924 59be ecf7 e13d 53d1 84be
00000030: 485e 9abe e1ea 2bbe 0ec3 3c3c a186 02be
00000040: 3d8c 633d 73e9 21be bf7c 50bd 9b02 17be
00000050: da96 c9bc 4b72 febc 9ea3 28be c6c6 94be
00000060: 9a0d d83b 02af eebd bb59 19be 0e4e 7ebe
00000070: ac75 263c 1392 81bd 54aa 03be 9862 22be
00000080: 260a eebd f207 0bbe b787 bbbe 3aa2 51bc
00000090: fb6f 9bbd 86d7 5fbd c5a2 b33d b6db e8bd
000000a0: 42f4 2abd c9b2 92be 30a8 4abd 1e64 e9bd
000000b0: 7eb3 6bbd 729f d6ba f58b e93b e5b7 30be
000000c0: 0212 6dbd 302a 24be eecf 8fbd 76f4 a5be
000000d0: 2808 06bd b9b7 dcbd f348 dfbd 6d3c 773c
000000e0: bf0c cf3d 925e b93d 8ed9 81bd 6e3e ebbc
000000f0: 769d e5bd 2ffa 88be 27a8 a6bb 24c8 75bd

running_var f4 [64]
0.084210694 0.11144782 0.11438208 0.078081876 0.109276004 0.12704386 0.22359113 0.09759506
0.07756826 0.111769825 0.14863549 0.12604013 0.20117216 0.13361755 0.1405041 0.08218447
0.1423539 0.12044957 0.10273552 0.08515934 0.089082465 0.0793414 0.0762795 0.114538066
0.084773354 0.10331631 0.11619088 0.15006633 0.082308576 0.2084591 0.07416298 0.07097641
0.06968202 0.11670959 0.13115384 0.09301097 0.09642168 0.07161706 0.09208721 0.12907057
0.05389965 0.11198829 0.07455055 0.16614626 0.057640508 0.1127529 0.0733873 0.09811395
0.10410373 0.16857456 0.11368417 0.097160645 0.07443453 0.14622651 0.08222235 0.071312025
0.11645338 0.06446525 0.07525185 0.104074106 0.117939815 0.110869884 0.077099435 0.07165745
00000000: a876 ac3d c13e e43d 2741 ea3d 64e9 9f3d
00000010: 19cc df3d c917 023e 13f5 643e ebdf c73d
00000020: 1cdc 9e3d 94e7 e43d e733 183e aa10 013e
00000030: 1300 4e3e 0ad3 083e 4fe0 0f3e 5550 a83d
00000040: 39c5 113e 44ae f63d 0067 d23d 0568 ae3d
00000050: de70 b63d be7d a23d 6d38 9c3d ef92 ea3d
00000060: a79d ad3d 8097 d33d 7cf5 ed3d fdaa 193e
00000070: 6691 a83d 4d76 553e c3e2 973d 145c 913d
00000080: 72b5 8e3d 7005 ef3d 314d 063e 897c be3d
00000090: bb78 c53d f7ab 923d 3898 bc3d 132b 043e
000000a0: e1c5 5c3d 1e5a e53d f5ad 983d 3f22 2a3e
000000b0: 7418 6c3d feea e63d 154c 963d f7ef c83d
000000c0: 5634 d53d cf9e 2c3e 3fd3 e83d 29fc c63d
000000d0: 2271 983d 67bc 153e 3164 a83d 0a0c 923d
000000e0: 1c7f ee3d 5b06 843d a41d 9a3d ce24 d53d
000000f0: 6e8a f13d c00f e33d 4fe6 9d3d 24c1 923d
