15epochs_0.0007learingrate_32batchsize.pt (torch_old, 712680 bytes, 34 tensors)

weight f4 [32, 3, 5, 5]
000000 8b c5 a5 bd 0a 55 e1 bc 91 95 c5 3c 43 35 c2 bd
       -0.08094319 -0.02750637 0.02411917 -0.09482815
000010 d2 5a 9c 3c a9 8f f4 3d 3c d0 5b 3d 4d 60 5a bc
       0.019086275 0.119414635 0.053665385 -0.013328624
000020 a3 cd b0 3d 49 ee 52 3d 73 2e a2 3d 32 54 c7 bd
       0.08632972 0.051496778 0.07919016 -0.09732856
000030 14 31 c3 3d c3 5c 86 3c 12 4d 17 3e e6 10 4d 3c
       0.09530845 0.016401654 0.14775494 0.012516236
000040 92 31 78 bd 53 c7 e3 bd bb 41 05 be 9d 44 a3 bd
       -0.06059415 -0.111220025 -0.13013355 -0.07972071
000050 9c c6 0c be 3c ac 14 bd bb 6d 8a 3d e5 6b aa 3c
       -0.13747638 -0.036297068 0.06759211 0.020803401
000060 a0 ce 57 3d ff 13 5d bd 64 7e 28 be 56 c6 7d bb
       0.052687287 -0.053974148 -0.16454464 -0.0038722954
000070 ce 58 08 bd 02 6f 04 be 83 61 f1 3c 78 74 b3 3d
       -0.033287816 -0.12932971 0.029465443 0.08762449
000080 28 9d 10 3d bd 3a cf bd da 6f 8e 3d 43 75 ce 3d
       0.035306126 -0.10118625 0.06954928 0.1008096
000090 6c 1a d1 3d 5c 07 b1 bd 50 8d 2d 3e 64 0f 22 3e
       0.10210118 -0.08643982 0.16948438 0.15826184
0000a0 fc 53 5e bd f3 99 98 3d 26 21 84 bc 7d bb fa bc
       -0.054279312 0.074512385 -0.016129088 -0.03060698
0000b0 76 8f 09 be 15 6e 42 bd 04 56 3c 3d 26 01 88 3d
       -0.13433632 -0.047468264 0.04598047 0.06640844
0000c0 e2 c9 03 be 9a 51 b1 bd e8 5f 23 be d9 53 80 bd
       -0.12869981 -0.086581424 -0.15954554 -0.06265993
0000d0 a8 05 d8 3d 44 41 b3 bc e7 37 0d bd e5 86 c4 3b
       0.10547954 -0.021881707 -0.03447714 0.005997526
0000e0 26 ea c6 3d f2 ed 52 3d 9f 14 7b 3d 73 ab c5 3d
       0.09712629 0.051496454 0.061298963 0.09651842
0000f0 75 38 0b 3e 54 c7 e5 3d 71 7e 55 bd b5 11 e2 bb
       0.13595755 0.112196594 -0.052122537 -0.0068990835
000100 ce 6f 35 3e b9 26 8e bd 39 ab 35 bd 7e ce 0e bc
       0.17718431 -0.069409795 -0.044352744 -0.008716224
000110 2b fd d5 bc 61 37 0b be 9c be a7 3d ff 90 f2 3d
       -0.026121696 -0.13595344 0.08190653 0.11844062
000120 4c d0 d5 bd 02 c9 5a 3c 9c 30 03 bd 34 58 e2 3c
       -0.1044012 0.013353588 -0.03202878 0.02762995
000130 46 9e 4b 3e 45 2e 02 3e 2f c0 15 be 97 1e ce bd
       0.19884595 0.12712963 -0.14624093 -0.10064428
000140 f0 8d 8a 3d 11 31 a0 3d 4c d8 e2 bd 6a e4 95 bc
       0.06765354 0.07821859 -0.110764116 -0.018297393
000150 b1 b7 17 3d 6c af 8d bd 8f 18 24 be 0e 23 40 bd
       0.037040416 -0.06918225 -0.16024993 -0.04690843
000160 cc ef a8 3c 62 4c 36 3e d3 76 4b bd 98 52 f4 bd
       0.020622157 0.17802575 -0.049673866 -0.11929816
000170 c2 bc 56 bd 12 c8 e8 3d a7 6a 02 3e 60 4b d3 bd
       -0.052426107 0.113662854 0.12735997 -0.10317111
000180 35 a3 b6 3c 5c fa 9e 3d ca e7 2c 3d 3b 9d 4f 3d
       0.02229462 0.07762596 0.04221324 0.050687056
000190 66 7a 2c 3e 3d 9e 16 bb a5 41 6d 3c 37 ad d9 bd
       0.16843566 -0.00229825 0.014480983 -0.10628741
0001a0 d1 fc c7 bd 1d 9b ef 3d e5 f3 87 bd 44 e9 32 bd
       -0.09765018 0.116995074 -0.06638316 -0.04367949
0001b0 72 b9 06 be cb 2b d6 bc 00 f7 aa 3c 01 5d 4b 3c
       -0.1315668 -0.026143929 0.020869732 0.012412311
0001c0 53 fe 6f be 9c e2 59 bd 26 02 1d 3e df 91 80 3d
       -0.2343686 -0.053194627 0.15332851 0.06277823
0001d0 aa f4 5b bd 27 43 a9 bd 7a e5 d3 3d be 3b 15 3d
       -0.053700127 -0.082647614 0.103465036 0.036433928
0001e0 48 62 f1 bd 54 b9 0d be b3 94 cb 3b d9 34 f5 bb
       -0.11786324 -0.13840228 0.0062127947 -0.0074831066
0001f0 1d 8f fa 3d 07 6f f6 3d 28 2e ff 3b 3b f6 63 bc
       0.12234328 0.120328955 0.0077874847 -0.013913686
000200 7f e2 bb bc dc 02 82 3d da 63 ae 3d d0 03 33 bd
       -0.02293515 0.06348202 0.08515139 -0.043704808
000210 ae 98 18 be 5d 33 b4 bd 96 62 a7 3d 5a ed 17 3c
       -0.14901993 -0.08798859 0.08173101 0.009272898
000220 74 83 4b bd fb b5 ca bc 40 ff d6 3c 22 95 4e bc
       -0.04968591 -0.024744978 0.02624476 -0.012608798
000230 26 4f 71 3d 88 34 27 bd ef 78 ef bd b2 8c 96 bc
       0.058913372 -0.040821582 -0.11692988 -0.018377636
000240 84 ec 82 3d d8 9d ee bd 0b 8f f5 3c 5f 8d ad bc
       0.06392768 -0.116512 0.029975435 -0.021185575
000250 d4 2d 15 3d 60 39 cc 3d 5b 2f ba 3d 38 19 56 3c
       0.03642066 0.09971881 0.090910636 0.013067536
000260 b9 5d ec 3d ca 41 d3 3d 2f c0 4a 3e 97 f6 f1 bd
       0.11541314 0.10315283 0.19799875 -0.118146114
000270 ae e0 28 bc 23 79 7e bd e4 c3 bb bd bc c0 7e 3d
       -0.010307474 -0.062127244 -0.091682225 0.062195525
000280 d8 b1 13 3e 8d b0 df bc 1f 44 d0 bd 6a eb 1d bd
       0.14423311 -0.027305866 -0.10169243 -0.038554586
000290 86 24 97 3d c0 b0 e2 3d a8 b0 94 3d b2 07 79 3d
       0.07380013 0.11068869 0.07260257 0.060798354
0002a0 1e 64 cc 3d 14 8a cf bd 88 e2 db 3c 36 13 06 3d
       0.09980033 -0.10133758 0.026841417 0.032733165
0002b0 75 60 b5 bd 31 43 01 bd c9 38 e4 bc 2a 75 ea bd
       -0.08856288 -0.03155822 -0.027859109 -0.114481285
0002c0 ec da c1 bd 02 bf 91 bd 43 ce a3 bc e4 30 cf 3b
       -0.09465584 -0.0711651 -0.019995814 0.006322967
0002d0 a1 20 03 bd 72 bd 2d be 23 db ae bb 5a 1b b0 3c
       -0.03201354 -0.16966799 -0.0053361817 0.021497417
0002e0 70 52 3c bd 0a 24 d4 bb c1 a5 b1 bd 44 b5 3e be
       -0.045977056 -0.0064740228 -0.08674193 -0.18623835
0002f0 18 26 11 be c2 52 9a bc 68 c0 82 3d 27 ea 08 3e
       -0.14174688 -0.01883829 0.06384355 0.13370572
000300 28 8e 0b 3d ed 4d 6b bd f6 5f c6 bd 1e 0e 91 3d
       0.034071118 -0.057447363 -0.09686272 0.07082771
000310 5c 8b b9 bc 9f 8a 26 bd 22 39 81 3d 90 ea 9e 3d
       -0.02264946 -0.040659543 0.06309725 0.07759583
000320 b6 b5 85 3c fb 69 df bc de 12 b7 bd bb e7 62 3d
       0.016321998 -0.027272215 -0.089391455 0.055396777
000330 a1 64 85 bb df 9e f6 bc 6b 67 d6 bd 13 74 54 be
       -0.004070834 -0.030105053 -0.10468944 -0.20747404
000340 f8 80 63 3d 41 70 18 bc bf 3b a2 3c fe 8f 44 bd
       0.055542916 -0.009304107 0.01980388 -0.047988884
000350 10 4a 2a be 2e 3d 1d be 45 bf fe bd 98 9c 27 3e
       -0.16629815 -0.1535537 -0.124388255 0.1636833
000360 ca 12 93 3d c7 21 62 b9 94 72 3a bd d8 f9 ad 3c
       0.07181318 -0.00021565623 -0.045519426 0.021237299
000370 72 8f a4 bc 95 3e 40 3c b5 4f dc 3d a6 50 da 3c
       -0.020087931 0.011733671 0.107573904 0.026649784
000380 8e da 9e bd 0f 34 e6 3c 6b 27 15 bd 08 a6 5b bd
       -0.0775653 0.028100995 -0.036414545 -0.053625137
000390 cc 24 2b bd 80 f9 0e 3e bf 9f 30 3d cb d0 04 be
       -0.04178314 0.13962364 0.043121096 -0.12970273
0003a0 75 f8 30 be 7b ec 06 be 94 cb 90 bd 45 9d 21 3d
       -0.17282279 -0.13176148 -0.070700794 0.039456625
0003b0 4c d4 14 be ae ba 1d be bb 19 ac 3b 86 9b a1 3d
       -0.1453411 -0.15403244 0.0052520907 0.07890992
0003c0 d3 aa fd 3d e1 02 d0 bc 3d 93 13 bd 56 5c be 3d
       0.12386098 -0.025391998 -0.03602909 0.092949554
0003d0 ae ef 15 bd 0e 07 51 3d a1 cd 56 3e 55 67 29 3e
       -0.03660553 0.05103212 0.20976879 0.16543324
0003e0 ce f3 8c bc d1 8d 9f 3d 78 6b ed 3c ee 21 35 3d
       -0.017206099 0.07790721 0.02898191 0.04422181
0003f0 8c 4d be bc 95 c0 08 3d 1f cb 38 3c e3 1a a7 3d
       -0.023230337 0.033386786 0.011278897 0.08159425

bias f4 [32]
000000 ff 19 01 be 24 e0 04 be 77 d5 cb bc 21 de 2e be
       -0.12607573 -0.12976128 -0.024882061 -0.17076923
000010 97 1b 13 be 69 b9 83 be f1 4f 8c be 6f 56 8a bd
       -0.14365993 -0.25727394 -0.2740474 -0.06754767
000020 20 8e 68 bd e4 58 87 be c0 f3 54 be 9f 59 f5 bd
       -0.056776166 -0.26435006 -0.20796108 -0.119799845
000030 7b b8 2a be 41 02 42 be a9 c7 ec ba 67 a1 b8 bd
       -0.16671936 -0.18946172 -0.0018064874 -0.0901516
000040 c9 d0 96 be 0f b6 b7 bd 22 7c 9b be ec d9 b9 bd
       -0.29456165 -0.08970272 -0.30368143 -0.090747684
000050 d3 d0 00 bd b1 b8 80 b9 6d 83 39 be 0f 18 a6 bc
       -0.03144915 -0.00024551668 -0.18116541 -0.020275144
000060 db cc cc bd 9d 0e 8f bc 9a 8e 3a be 86 7d 80 3c
       -0.100000106 -0.017463023 -0.1821846 0.015684854
000070 f9 a3 c5 bd cb 7d c9 3c a2 42 18 3d 95 20 e6 bd
       -0.09650416 0.024596116 0.03717292 -0.11236683

weight f4 [32]
000000 95 8c 34 3f de d1 01 3f 83 ae aa 3e 3d 77 b1 3e
       0.7052701 0.50710857 0.33336267 0.34661284
000010 71 39 b1 3e 32 16 c1 3e df 05 40 3f 10 0a 96 3e
       0.34614137 0.37712246 0.7500896 0.29304552
000020 ee d4 13 3e 6a db d2 3e 16 fb 1e 3f 2e c7 1b 3f
       0.14436695 0.41183025 0.62101877 0.608508
000030 4a c7 f8 3e 55 3f 42 3e 67 bb 3f 3f e7 19 20 3f
       0.48589545 0.18969472 0.7489533 0.62539524
000040 a4 b7 97 3e 69 64 48 3f 24 b5 bf 3d 6e 9d 72 3e
       0.29632294 0.78278214 0.09360722 0.23692867
000050 8d 86 56 3f 5c 37 2b 3f 81 a5 38 3f 1e be 84 3f
       0.8379906 0.66881347 0.7212754 1.0370519
000060 4e 4d 3a 3f 5b da 4b 3f cf 4c 3c 3f 53 a2 75 3e
       0.7277421 0.7963006 0.735547 0.23987703
000070 ac 2a 67 3f 81 a6 36 3e c9 b9 1a 3e 25 8a 80 3e
       0.9029949 0.17836954 0.15109934 0.25105396

bias f4 [32]
000000 f3 ec 35 be e7 32 d5 bd 69 49 a4 bd 6a 7e 62 bd
       -0.1776617 -0.104100995 -0.080218144 -0.05529634
000010 40 1b 30 be 6b a9 b5 be ba 75 54 be 9c 0d 23 be
       -0.17197895 -0.35480818 -0.20748034 -0.1592316
000020 74 21 16 be 45 12 17 be e0 ad b5 bd 17 5e 19 be
       -0.14661199 -0.14753063 -0.08871055 -0.14977299
000030 b2 3d 80 be 6a 6f 27 be 12 61 ae bd f1 b6 af bd
       -0.2504707 -0.16351095 -0.085146084 -0.08579815
000040 f1 b7 3a be 0b d2 91 bd 9c 81 32 be 93 b7 d0 bd
       -0.1823423 -0.07120141 -0.17432255 -0.10191264
000050 0a a1 17 be 07 ca 5d bd 7f e2 99 bd 0d 3c b0 bc
       -0.14807525 -0.054147746 -0.07513904 -0.02151301
000060 59 70 8f 3c 6b 3f 10 bd 98 1c 85 be 56 78 a0 bd
       0.017509626 -0.03521673 -0.25998378 -0.07835452
000070 66 59 00 be d1 d0 8f bd 21 ef 6c bd e3 9f c1 bd
       -0.12534103 -0.070222504 -0.05784524 -0.09454324

running_mean f4 [32]
000000 1d 4b eb bd 9f 5b 4a 3f 30 62 f0 3e b5 02 aa be
       -0.11488936 0.7904605 0.4694991 -0.3320519
000010 81 b8 33 be 45 59 fd be 6f 77 8d be c9 eb 2a be
       -0.17550851 -0.4948217 -0.27630183 -0.16691507
000020 d6 97 ca 3d 5e b6 2f 3d e8 cb 71 3e 91 bb ef 3d
       0.09892242 0.04289853 0.2361294 0.11705697
000030 e7 57 f4 be eb 44 4a bd 72 21 06 3f 78 6a f2 3e
       -0.47723314 -0.04938213 0.52394783 0.47346854
000040 29 27 34 be 32 48 78 3f f8 f5 c5 be 4c 1a 16 3e
       -0.17593063 0.9698516 -0.38664222 0.14658469
000050 de 1a 75 bd e5 a1 be bd 3a 64 a1 3e 7f c7 36 3f
       -0.059840076 -0.09308223 0.3152178 0.71398157
000060 58 4e d6 3e 18 31 eb 3e 60 0f fe bd 66 40 05 3f
       0.41856647 0.45935893 -0.12405276 0.5205139
000070 aa 2f b3 3f 07 22 02 3e f4 95 49 3f 19 37 11 3f
       1.3998921 0.12708293 0.78744435 0.567247

running_var f4 [32]
000000 13 25 25 3e ce ff 48 3f 47 4e 7b 3e 62 f4 77 3e
       0.16127424 0.78515327 0.24541579 0.24214318
000010 a4 57 01 3e 67 8a 80 3e a0 ad c6 3d 74 d8 fa 3d
       0.12631088 0.25105593 0.09701085 0.122483164
000020 60 64 54 3d c6 cc 3b 3e c2 25 75 3e cf 81 87 3d
       0.051853538 0.18339834 0.23940185 0.06616556
000030 32 36 c9 3e d1 13 00 3e 67 53 47 3e a2 b9 4e 3f
       0.3929916 0.1250756 0.19465409 0.80752003
000040 15 68 d2 3d da b4 41 3f 7c 35 f3 3d 15 b3 54 3d
       0.10273758 0.7566658 0.11875436 0.0519286
000050 58 e5 13 3f 6f 56 81 3e aa 2f a3 3e 5e 8c 26 3f
       0.57771826 0.25261256 0.31872302 0.65057933
000060 c6 fe cd 3e f2 6c 05 3f 8a de 8e 3d 6c c8 dd 3e
       0.4023344 0.5211936 0.0697604 0.43316972
000070 ac 50 9a 3f 81 bc 9f 3e d8 3d 9b 3e e3 91 97 3e
       1.2055869 0.31198505 0.3032062 0.2960349

weight f4 [32, 32, 5, 5]
000000 db 22 3a 3c 2c d7 a4 bc 59 a9 0d bd f3 a2 6a 3c
       0.011360849 -0.020122133 -0.03458533 0.014321077
000010 d6 26 8b 3d e4 d8 4e bc 66 3e f9 bc 09 f1 04 3d
       0.06794517 -0.012624953 -0.030425262 0.03245643
000020 2e 71 6c bd 23 af 12 bd c6 78 1e bd b5 6b a1 3c
       -0.057725124 -0.035811555 -0.038689397 0.019704679
000030 25 e5 2a bd 62 a2 83 bd 5a 42 c4 bc f2 91 96 bc
       -0.041722436 -0.064274564 -0.02395742 -0.018380139
000040 42 04 88 bd 5a d6 c4 bd 21 1c ad bd e2 d0 22 3d
       -0.06641437 -0.09611197 -0.08452631 0.039749987
000050 48 d8 b5 3d 9f 0e 0d 3d 76 96 7d 3d 93 3b 08 3d
       0.08879143 0.034437772 0.06191107 0.03325994
000060 7e 4b 99 bc 8e 06 7a 3c 2f a5 17 bd 49 45 b2 3c
       -0.018712755 0.015260352 -0.037022766 0.021761553
000070 9d 8d a1 bc 8b 16 dd bc 46 e1 96 3b b0 95 0d 3d
       -0.019720847 -0.026988288 0.0046044914 0.03456658
000080 14 8c ed 3c 6a e2 16 bc 3c a3 97 bc 4f 31 cd bc
       0.028997459 -0.009209255 -0.018510453 -0.025047926
000090 6c 20 13 bd ba a3 01 3d 9c bb 18 bd 5a 56 23 3d
       -0.03591959 0.031650282 -0.037288293 0.039877273
0000a0 ee 66 db bd b5 bc da 3c 0d 77 b5 bc 01 3d 35 3d
       -0.10712992 0.02670131 -0.022151494 0.04424763
0000b0 9b ab 2d 3b 1b 54 da bd c2 f6 ff bc a6 6b 43 bd
       0.002649999 -0.10660573 -0.031245593 -0.047710083
0000c0 5c 42 dd bc 2a 70 2c 3c aa 26 13 3d 95 e4 74 3d
       -0.027009182 0.010524789 0.035925545 0.059788305
0000d0 04 74 42 3d a8 3d 9f bc 30 f3 28 3d 7d 6d 4c 3c
       0.047473922 -0.01943858 0.041247547 0.012477276
0000e0 49 ac 35 bc d3 7f 96 bd a2 9e ca bc dc 3d 80 bd
       -0.011088439 -0.07348599 -0.024733845 -0.06261799
0000f0 34 f3 d2 3c 17 4b da bc b1 6e 8b bd 22 a6 5c bd
       0.025750734 -0.026647134 -0.06808222 -0.053869374
000100 c8 98 65 bd 37 8f df 3c a3 9c c0 bc 08 28 4d bb
       -0.056053907 0.02728997 -0.02351219 -0.0031304378
000110 21 3e f2 3c 33 74 cf bd ff cb 7b bd ed ff 8f bd
       0.029570641 -0.10129585 -0.061473843 -0.07031236
000120 33 8f 0a bd 40 23 1e bd 52 36 b5 bd ea 1e 36 3d
       -0.03382797 -0.038607836 -0.088482514 0.044463076
000130 f9 46 99 bd ae 88 9a bd 5f b5 1c be 54 ae 86 bd
       -0.0748424 -0.07545601 -0.15303563 -0.06576219
000140 90 b9 16 bd 97 b9 72 bd 9c 3a da bc 85 32 37 3c
       -0.03679806 -0.059259024 -0.026639275 0.011181478
000150 6c 1a 64 bd b1 ca 85 3d 4a a1 a0 3d 7d cb 19 3d
       -0.05568926 0.06532801 0.078432634 0.037547577
000160 f1 94 9b bd 54 d9 dd bd 82 fb 0c 3e 44 11 c4 3d
       -0.07596768 -0.10832468 0.13767818 0.09573606
000170 b4 7c 10 bd 4d 80 13 be 88 bc 42 be 4c 28 01 3e
       -0.035275176 -0.14404412 -0.19017231 0.12613028
000180 dd 22 82 bd d4 8d 83 bd 29 ea 73 bd 95 d2 2a bd
       -0.06354306 -0.06423536 -0.059549484 -0.041704733
000190 3d 0f 58 bc 46 f9 9e bc 69 23 8d bd 94 d0 06 be
       -0.013187227 -0.019405972 -0.068915196 -0.13165504
0001a0 2d a8 32 be bb 35 2a 3d a9 27 e3 3c cc e1 4c 3d
       -0.17446966 0.041555148 0.027728872 0.050020024
0001b0 18 46 91 3b a6 12 53 3d dc 45 56 bd 82 83 14 3d
       0.0044334047 0.051531456 -0.052312717 0.036258228
0001c0 30 cb cd 3d 79 a9 db 3d fd 0b 9f 3d 45 99 08 3d
       0.100485206 0.10725684 0.077659585 0.033349294
0001d0 df 96 f2 3d d4 ed 6b 3d b6 39 61 bc 24 2f ce bd
       0.118451826 0.057599857 -0.0137466695 -0.10067585
0001e0 9a 51 b1 3d ef 7f a8 3c 11 91 a9 bd 8f b9 03 be
       0.086581424 0.020568816 -0.08279622 -0.12863754
0001f0 c2 5b 41 be 5e 9f 89 bd da 11 84 bc 06 0b 8a 3d
       -0.18882659 -0.0671985 -0.016121794 0.06740384
000200 df e5 6f 3d 89 2b 6d 3d 1a e6 79 bd 00 d0 b8 bc
       0.05856883 0.057902846 -0.061010458 -0.02256012
000210 e4 16 92 bc de 08 5b bc 53 16 ae bc a5 45 23 3c
       -0.01783318 -0.013368813 -0.02125088 0.009965335
000220 88 09 bb bb 42 50 3b bd 0f b1 9e bc 84 37 80 bc
       -0.0057079233 -0.045730837 -0.019371537 -0.015651472
000230 b8 a6 2d 3c a3 a0 69 bd 17 a1 84 bd cb 6b d8 3c
       0.010598831 -0.05703796 -0.06476038 0.026418587
000240 b6 0d f4 3c 97 84 ee bc 35 11 1c bd d7 4a 28 3c
       0.029791694 -0.029115958 -0.038102347 0.010271749
000250 a9 63 02 bb 2d 81 4b 3c 41 ef 75 3c 38 1b 89 3d
       -0.0019895828 0.012420935 0.015010656 0.06694645
000260 79 d9 6b bb d4 e3 20 3c db 11 50 bd fa 92 5a bd
       -0.0035987778 0.009819943 -0.05079828 -0.053362824
000270 0c 96 23 bd 0d e7 28 be 6a 35 cb bd e6 0d 39 bd
       -0.039938018 -0.16494389 -0.09922297 -0.04517927
000280 e5 e1 4c bd aa 77 9d bd f8 2c 3b bc a0 9e ab 3d
       -0.050020117 -0.0768884 -0.011424296 0.08379865
000290 ed 04 1f bc d5 30 09 bc e2 2f 35 bd 82 27 98 3d
       -0.009705764 -0.008373459 -0.044235118 0.074294105
0002a0 8e b9 3c 3d c4 93 e1 bc 5e fa 5a 3d 6c 1c 10 bd
       0.046075396 -0.02753628 0.053461425 -0.035183355
0002b0 4a bf 6a bd 87 a5 64 bd be 6f c7 bd a7 b3 f4 3c
       -0.057311334 -0.05582192 -0.0973811 0.029870821
0002c0 fb 39 bd 3d d3 64 4a b9 57 f6 14 be 50 92 5e be
       0.092395745 -0.00019301781 -0.14547096 -0.21735501
0002d0 61 e4 4f 3d 5c c1 d4 bd 17 0e 12 be 57 ab 13 be
       0.05075491 -0.10388443 -0.14263187 -0.1442083
0002e0 0b 1a 73 bd 01 b2 d1 bd a7 2e 1c be f8 8d 53 3c
       -0.05935101 -0.1023903 -0.15252171 0.012912266
0002f0 08 83 a5 3d 6d 1b f2 3d 35 28 0a be ae 61 23 3d
       0.08081633 0.11821637 -0.134919 0.039888076
000300 f7 54 2d 3e 7f 93 05 3e ef 06 21 3d 0a 5b c4 3d
       0.16926943 0.13044547 0.039313253 0.09587677
000310 ea 96 38 3e eb 90 a6 3d 3c cb 05 bc 47 e8 bb bd
       0.18026319 0.0813311 -0.008166131 -0.09175163
000320 28 66 dd 3d 22 61 e2 3c a2 41 61 bb 2b 45 55 be
       0.108105004 0.027634207 -0.0034371396 -0.20827167
000330 51 a0 2b be 9f 9e f3 bc 14 e4 17 be fd d2 6a bd
       -0.16760375 -0.029738722 -0.14833099 -0.05733012
000340 46 ac cd bc c4 10 18 bc 8c 57 95 3d e4 af 11 3e
       -0.02510656 -0.009281341 0.07292089 0.14227253
000350 e6 d7 f0 3d d0 8e a0 bd 7a ce 5b bc 40 de 9d 3d
       0.11759929 -0.07839739 -0.013415927 0.077084064
000360 6a bb 88 3d 74 2c 8e 3d e3 e8 02 3b eb de ce bd
       0.066763714 0.069420725 0.0019975237 -0.10101112
000370 5b 0e b0 b9 26 3d ff 3c d5 8e 13 3c 68 29 a1 bc
       -0.00033580032 0.031157088 0.009006222 -0.019673064
000380 d2 94 9d bc 97 da 93 3d a4 92 28 3e 15 be 1e 3e
       -0.019236002 0.07219427 0.16462189 0.15502198
000390 72 1e 9e 3d c3 ce 14 be 56 5d ad 3d 4a da 9f 3d
       0.07720651 -0.14531998 0.08465068 0.07805307
0003a0 60 3b 4e bd 24 6c 31 bd b9 80 3c bd 13 14 af bb
       -0.050349593 -0.04331602 -0.046021197 -0.005342969
0003b0 e5 35 29 bd 8a 31 f2 bd da eb cf 3c ab e5 f1 bb
       -0.041311163 -0.11825855 0.025381017 -0.007382115
0003c0 94 d3 ca bd 9f 7b ad bd 0d 58 07 3c 76 e6 68 bc
       -0.099036366 -0.084708445 0.008260739 -0.014215102
0003d0 87 06 ba bc 66 e3 f1 bd 46 44 4c bc 30 dc ec 3c
       -0.02270819 -0.11810951 -0.0124674495 0.028913587
0003e0 d8 91 b9 3c 7e f9 37 3d 47 15 d2 bd 73 6e d9 bc
       0.022652552 0.04491567 -0.102579646 -0.026541924
0003f0 cb a5 c1 bc 3d ee 89 bd 43 92 d8 bd 43 b6 78 bd
       -0.023638627 -0.067348935 -0.10574772 -0.060720693

bias f4 [32]
000000 e7 80 75 3d c5 63 bb 3b d5 86 e6 bc 00 7a 5a bb
       0.059937384 0.0057186806 -0.028140465 -0.0033336878
000010 05 a9 95 bc ea 85 99 bd c7 45 1b bc ca de 53 bd
       -0.018269071 -0.07496245 -0.009477085 -0.05172614
000020 1f 9d 8e bd f4 1a d1 bc e4 c7 09 bd 98 1e 36 bc
       -0.06963562 -0.025525548 -0.033637896 -0.011115693
000030 75 f5 fa bc 85 6f cb bc a1 77 82 bd de c0 dc 3c
       -0.030634621 -0.02483345 -0.06370474 0.026947435
000040 3f 3f a0 bd 22 e8 38 bd ea 85 4c bd 96 2d 19 bc
       -0.07824563 -0.045143254 -0.049932398 -0.009349247
000050 e6 e2 45 bd 3c 90 85 bd 43 6f f6 bc 0b 85 f6 bc
       -0.04831209 -0.06521651 -0.03008235 -0.030092737
000060 df 91 a9 3b 86 7f ba bb 0f e9 09 bd 24 6d eb bc
       0.00517486 -0.0056914715 -0.033669528 -0.028738566
000070 22 51 cf bc 41 dd 3c 3c c7 aa 11 bc a9 07 06 3c
       -0.025307242 0.01152736 -0.008890814 0.008180537

weight f4 [32]
000000 3f df 0a 3f 3b 72 96 3e bc 01 06 3f 44 c0 06 3f
       0.54246897 0.29384026 0.52346396 0.52637124
000010 52 16 af 3d 92 e2 ad 3d f5 7c dc 3e 9e 28 07 3e
       0.08549179 0.084904805 0.43064085 0.13199088
000020 04 6f 0a 3f 43 e0 08 3f 91 b8 0b 3e 3d 77 24 3f
       0.54075646 0.53467196 0.13644625 0.64244443
000030 f5 b6 57 3e 24 b7 cc 3e 86 b6 a6 3e 35 e0 06 3f
       0.21065886 0.39983475 0.3256113 0.5268586
000040 6e f1 3d 3f de b0 e4 3e 38 ac a6 3e 6f 34 10 3e
       0.7419652 0.4466619 0.32553267 0.14082502
000050 6b 86 d8 3e da 6f 58 3f 89 3b a7 3e 4d 1d 46 3e
       0.42290053 0.8454567 0.3266261 0.19347115
000060 60 d1 d8 3e 5a 28 b1 3e b4 b3 80 3e 41 31 15 3f
       0.4234724 0.34601098 0.25137103 0.5827828
000070 7a 16 17 3f b7 8b 9b 3e d0 2a 94 3e fa 79 6f 3e
       0.5901867 0.3038003 0.28938913 0.23386374

bias f4 [32]
000000 ec aa ad bc f1 c8 e6 bb 58 1b 2c bd fb da ba bd
       -0.021199666 -0.007042997 -0.042018265 -0.091237985
000010 79 df dc bc 16 b0 78 bc 77 0b 96 bd 03 ae 26 bd
       -0.026962029 -0.015178701 -0.073264055 -0.040693294
000020 ea 64 42 bd a5 1a 3a bd 64 72 f6 bc 8e 1f 2e bd
       -0.04745952 -0.045435566 -0.030083843 -0.04251056
000030 a8 fc 87 bd 59 50 ef bd bf 30 91 bd 0b 9d a4 3b
       -0.06639987 -0.11685247 -0.07089376 0.005023604
000040 9e b8 5f bd 61 25 a5 bd b2 29 73 bd 47 99 a8 bd
       -0.054619424 -0.0806377 -0.059365936 -0.0823236
000050 53 58 85 bd 5c 0a 9d bc db 6a 26 bd 53 40 1f bd
       -0.06510987 -0.019169979 -0.04062925 -0.038879704
000060 a9 11 04 ba cc 8b cc bc 16 ec 9c bd 39 cd cb bc
       -0.0005038032 -0.024969004 -0.07662217 -0.024878131
000070 ea b6 93 bd 55 75 39 bd c7 0a 00 3c 80 14 33 bd
       -0.072126225 -0.045277912 0.0078150695 -0.043720722

running_mean f4 [32]
000000 17 7a 05 bf 9c c5 12 be 28 27 4f bf 7e 29 a5 be
       -0.5213942 -0.14333194 -0.8091912 -0.3225822
000010 f4 16 26 3e 51 01 eb be 07 d9 2a bf 55 93 00 be
       0.16219693 -0.45899442 -0.6673741 -0.12556203
000020 f2 4c 63 be 5c 03 69 3e 34 cc 6e bc ec 2f 94 bf
       -0.22197321 0.22755188 -0.014575053 -1.1577125
000030 a0 12 44 bf 14 90 91 bf 66 b3 42 3e ee a1 3e bf
       -0.7659092 -1.1372094 0.19013748 -0.74465835
000040 60 a9 6e bf 71 9a 97 bf 95 f9 9b bf 94 f2 eb 3e
       -0.93227196 -1.1844007 -1.2185541 0.4608351
000050 ae 49 c1 be 5a c5 fe be fe 36 14 3e ee c5 cf bd
       -0.37751526 -0.49759942 0.14474103 -0.10145174
000060 9d 05 19 3b 98 36 1a bf 5d 7e 3b be fb c2 ad bf
       0.0023349293 -0.60239553 -0.18309923 -1.3575128
000070 4d 8a a9 be 38 db 1a bf 70 ab 87 bf 80 b5 05 bf
       -0.33113328 -0.6049075 -1.0599194 -0.5223007

running_var f4 [32]
000000 05 03 1f 3f 41 66 c5 3f 0e a5 db 3e a1 3d 4d 3f
       0.6211398 1.542183 0.42899364 0.80172163
000010 10 d5 92 3f 85 04 07 3f 39 62 d5 3e eb 10 6d 3f
       1.1471272 0.5274127 0.416765 0.9260394
000020 7a 86 65 3f c7 ed b8 3f fe 51 26 3f 5e 41 49 3f
       0.8965832 1.4447564 0.6496886 0.7861537
000030 d8 5e 8c 3f 64 36 01 3f d9 04 63 3f 6b c5 d3 3f
       1.0966444 0.5047362 0.8867927 1.6544622
000040 ef f4 56 3f 86 74 0a 3f 21 43 82 3e ff 1e 30 3f
       0.8396749 0.5408405 0.2544184 0.68797296
000050 85 9c 61 3f 54 13 5a 3f f7 42 76 3f ec 2e 1e 3f
       0.88129455 0.8518574 0.9619593 0.6179035
000060 28 87 a0 3f e0 05 10 3f 6e a0 3a 3f 93 b0 23 3f
       1.2541246 0.56258965 0.72901046 0.63941306
000070 6c 5e 3a 3f c7 32 0f 3f ea c9 1e 3f fe 75 a2 3f
       0.72800326 0.55936855 0.62026846 1.2692258

weight f4 [64, 32, 3, 3]
000000 e3 c3 98 3c 6f 1a 7a bd 9a 8a 82 bd b7 93 f4 bd
       0.018648094 -0.061060365 -0.063740924 -0.11942237
000010 27 c8 4e bd 12 e0 e5 bd 24 17 c1 3d ed ba c0 3b
       -0.05048385 -0.11224379 0.09428242 0.0058816583
000020 bd 2d 58 bd 07 68 77 bd 9e d5 0e 3e e1 a8 b9 3d
       -0.052777994 -0.060401943 0.13948676 0.09065414
000030 da 19 e2 bd 50 25 84 39 48 82 aa 3d d7 69 54 bd
       -0.11040087 0.00025204802 0.083256304 -0.05185875
000040 7d 9a 9f bd a8 5e 31 be fc 6e 8e bd d2 18 0b be
       -0.07793138 -0.17321265 -0.06954762 -0.13583687
000050 77 43 53 be 8e cc 87 3d d2 c1 82 3d 40 fb a9 bd
       -0.20631205 0.066308126 0.063846245 -0.08299875
000060 9a b1 fa bc f0 ff 1d bd 59 31 7e 3d cc a9 d2 bd
       -0.030602265 -0.03857416 0.06205878 -0.102862924
000070 de f5 ea 3d 2d 45 ae 3d a3 34 71 bd 9f 35 ac 3b
       0.11472677 0.08509288 -0.05888809 0.0052554156
000080 07 5c fb 3c a6 79 63 bb 20 2f 87 3d 93 29 99 3d
       0.03068353 -0.003470996 0.06600785 0.07478633
000090 0a 16 a5 3c 5b 4a 04 3e fc f7 ce bd 37 24 b6 bd
       0.02015211 0.1291899 -0.10105893 -0.08893626
0000a0 d3 c0 f9 3d e7 18 03 3e 37 5e 25 bd 02 67 21 be
       0.121949814 0.12802468 -0.040373053 -0.1576195
0000b0 c0 97 1a be 36 fd 7c 3d e8 2c 9f bc a0 57 48 3d
       -0.1509695 0.06176492 -0.019430593 0.04891169
0000c0 bf be d8 3d 1c 75 fa 3d cb ad 66 bc 9e 68 86 bc
       0.10583257 0.12229368 -0.014079521 -0.016407307
0000d0 d1 eb 9c bc a9 f3 59 bd 5d 24 62 bd f7 7a 5b bd
       -0.019155415 -0.053210888 -0.05521046 -0.053584065
0000e0 65 ef 86 3d 07 9a 08 3d 18 2a 85 bc 4d a3 be bd
       0.0658863 0.033350017 -0.016255423 -0.09308491
0000f0 c5 3f 25 3e 8c 17 c0 3c 95 f7 ad bd dd a6 48 be
       0.16137607 0.023448728 -0.08494488 -0.19594903
000100 27 46 76 bd 8a 0c 19 be 88 d1 50 be 9a 51 fc bd
       -0.060125496 -0.1494619 -0.2039243 -0.12320252
000110 92 8d 0a bc ea 4d 93 3d 36 a5 e1 bd cb 69 2a be
       -0.008456605 0.07192595 -0.110178396 -0.1664192
000120 62 b2 04 3c 22 be a1 3d 47 98 0a bd 26 7c 80 bd
       0.00809917 0.07897593 -0.03383663 -0.062736794
000130 c9 d0 2f 3e f3 b6 0d 3d 4e 6a 99 bd 90 4c 97 bd
       0.17169489 0.034598302 -0.07490979 -0.0738765
000140 31 f4 be bd a8 e7 85 bd 11 72 7d bc a9 3b 6c 3d
       -0.093239196 -0.065383255 -0.01546909 0.057674084
000150 fb 80 2d 3b f4 67 ac bc 7c d0 16 be 17 1a 16 bd
       0.0026474583 -0.021045662 -0.14727968 -0.036645975
000160 fe 84 c7 bb 8e 09 46 bd 12 2d 16 be a7 4b 98 3d
       -0.006088852 -0.048348956 -0.1466563 0.074363045
000170 d6 33 b5 3d bf 8d bc bc ca 3a 54 3d 9a 25 bc 3e
       0.088477775 -0.023016809 0.051813878 0.36747438
000180 2b 4a db 3c fb 4a cb bd cd b0 7c bc b3 73 a5 bd
       0.026768764 -0.09926411 -0.015423012 -0.080787085
000190 85 28 af bb c2 80 f6 bd 1a 84 68 3c 8c b7 92 3d
       -0.0053454065 -0.12036277 0.014191652 0.07163915
0001a0 8b 85 43 3a 40 b6 1b 3d 17 29 09 3e f7 48 a2 3c
       0.0007458559 0.038015604 0.13394581 0.019810183
0001b0 75 1c 01 bd 0e 5b 12 bd c4 60 fd bd ff 9b 91 bd
       -0.03152128 -0.035731368 -0.12371972 -0.07109832
0001c0 d0 28 e9 3d c1 d9 23 3e 93 ae 89 bd 96 cc a6 3c
       0.113847375 0.16001035 -0.067227505 0.020361226
0001d0 72 1c 05 3e dc 49 f7 bd 41 d0 eb 3c 06 a6 82 bc
       0.12999132 -0.120746344 0.028785827 -0.015948307
0001e0 37 72 bb 3d 04 d3 5f 3e d0 84 38 bc d2 95 ae 3d
       0.09152644 0.2185784 -0.011262134 0.0852467
0001f0 85 ed c4 3c ef 6c 90 3d 4e 48 72 be 00 cf 16 be
       0.02403904 0.070520274 -0.23660395 -0.14727402
000200 0a 22 63 bd 40 57 b2 bb bc fb 80 bd 74 24 34 3d
       -0.055452384 -0.00544253 -0.062980145 0.043980077
000210 eb de 8c bd 3b 1c 83 bd 23 93 8d bc cd 30 0e bd
       -0.06878456 -0.06401869 -0.017282074 -0.03471451
000220 3c 8c 38 bc 74 52 a1 3d 69 2a b8 bd 5d 5b 44 bd
       -0.011263903 0.07877055 -0.08992464 -0.047938693
000230 d8 ab ca bd 7b 0a e9 bd d2 61 b0 3d 65 86 14 bd
       -0.09896058 -0.11378952 0.08612408 -0.03626098
000240 39 9b 10 3d bc fd 83 3d 5f c6 17 be a0 da 63 bd
       0.03530428 0.0644488 -0.14821766 -0.05562842
000250 0e e4 02 be eb 3f 51 be d6 0b ab bd e1 12 28 3c
       -0.12782308 -0.20434539 -0.08351867 0.010258407
000260 63 ce eb bd 00 88 de bd 35 ba 69 bd bf f8 30 be
       -0.115139745 -0.10865784 -0.057062346 -0.17282389
000270 49 38 50 bd 71 71 07 3e 34 4d d5 3d 64 43 c9 bc
       -0.050834928 0.13226868 0.10415116 -0.024568267
000280 a2 b6 2b 3d 22 ff bf 3d 10 4c 38 3d cd 43 fa 3c
       0.04192222 0.093748346 0.044994414 0.030549908
000290 2d b2 27 bd d2 0d 9b 3d 97 49 5a bd 9a 78 ff 3c
       -0.040941406 0.075709954 -0.053292837 0.031185437
0002a0 f8 b3 bd 3c e5 79 8b bd e9 11 e5 3c 2e c6 75 3d
       0.023157105 -0.06810359 0.027962642 0.060003452
0002b0 0e 5c 9a 3c 1f 4b 35 be d4 00 43 bd 4b e3 71 bd
       0.018842723 -0.17704438 -0.04760821 -0.059054654
0002c0 fb 57 b9 bc 6a 63 e6 bc 09 81 99 bc 19 5c 43 3c
       -0.02262496 -0.028123576 -0.018738287 0.011923813
0002d0 74 46 8e bd 2e a6 88 3d 79 7b ef bc 3a c2 a4 bd
       -0.069470316 0.06672321 -0.029233681 -0.08044858
0002e0 c4 75 59 bc f3 7e c7 bd 19 5c 76 3d 39 c2 13 3e
       -0.013272706 -0.097410105 0.060146425 0.14429559
0002f0 f5 aa c9 3c 1a 7c 7e 3c 5b 67 29 3c 82 11 02 be
       0.024617651 0.015532518 0.010339583 -0.12701991
000300 9f ce f5 bd 05 0f 5c bd 61 af de bb ab 21 dd bd
       -0.120023005 -0.05372526 -0.006795809 -0.10797437
000310 fc 3a 8c bc 96 68 da 3d c4 51 eb bd 42 67 82 bd
       -0.01711797 0.106644794 -0.11490205 -0.06367351
000320 42 54 af bc 7a 40 0d 3d ca 5f ca bd fb d3 ad 3d
       -0.021402482 0.034485318 -0.098815516 0.08487698
000330 38 e5 e7 3b cc a4 00 3e 85 69 aa 3d 98 eb 7d bd
       0.0070768856 0.12562865 0.083209075 -0.061992258
000340 ed 84 ed 3d 49 d8 b8 bd b4 15 2c bd f7 19 8d 3e
       0.11597619 -0.09025628 -0.042012885 0.27558872
000350 0a 9c 08 3e 22 65 bc 3c 01 28 50 3d 9c c6 fe bc
       0.13340774 0.022997443 0.0508194 -0.031100564
000360 13 3e cf bb 78 13 16 be 62 30 05 3c 1d 92 bf bc
       -0.0063245385 -0.14655864 0.008129211 -0.023385102
000370 2c a8 b6 3d 8b 27 23 3d 2d 79 80 3d ef 84 25 3d
       0.08918795 0.039832633 0.062731124 0.04040998
000380 53 b4 e2 bc 63 81 67 3c 40 6b 96 3b 69 1f 16 bd
       -0.027673876 0.014129969 0.004590422 -0.03665105
000390 1f 4b 50 3d d0 e9 02 3d 05 26 8f 3d 2b 8c 7a 3d
       0.05085289 0.031961262 0.069896735 0.06116883
0003a0 90 af e3 3c 53 44 47 3d 97 03 5c bc 89 68 d3 bd
       0.027793676 0.048649143 -0.01342859 -0.10322673
0003b0 9e 08 14 bd a0 b8 4a be 04 ac f2 bd df 22 e6 3d
       -0.03614103 -0.19796991 -0.118492156 0.1123712
0003c0 c2 fe fb 3d 24 3f 86 3c b7 98 c8 3d eb 1e 95 bc
       0.123044506 0.01638753 0.09794753 -0.01820322
0003d0 9e c2 17 bd a9 10 9c bd 0f ff e4 3c d5 75 dd 3d
       -0.037050836 -0.07620365 0.027953653 0.1081349
0003e0 90 20 4a bd 23 67 64 3d 26 a6 c6 3d eb 38 1c be
       -0.04934746 0.05576242 0.09699659 -0.15256087
0003f0 e2 a6 a4 bb a7 18 33 3e ee 11 c8 bc 56 86 bf bd
       -0.005024777 0.17489873 -0.024422612 -0.093517944

bias f4 [64]
000000 2e 27 7e 3d aa d3 a4 bd 85 31 92 bd cf ee b9 bd
       0.062049083 -0.08048184 -0.07138351 -0.09078752
000010 fb b8 e2 bc 72 65 6b 3c c7 08 20 bd 28 08 9d bc
       -0.027676096 0.014367448 -0.03907087 -0.019168928
000020 67 73 88 3c a6 eb a5 bd 1e 09 e3 bc 70 89 e1 3c
       0.01665659 -0.08101587 -0.027714308 0.027531356
000030 f6 56 5f bd b0 3a 8b bd 40 af ad bd c7 5d 8c bd
       -0.05452629 -0.06798303 -0.08480692 -0.06853824
000040 6d bf 15 bc 1e 8e d5 bc 4a 83 c2 bd 4c ce ac bd
       -0.009139878 -0.026068743 -0.09497698 -0.084377855
000050 0f 04 09 be dc 2b ee 3a 02 f5 ec bd 22 ed 9a bd
       -0.13380454 0.001817103 -0.11570169 -0.07564761
000060 54 54 3e 3d cc 9e e6 bd 2d 45 fd bc 40 17 d2 3b
       0.04646714 -0.11260757 -0.030916775 0.006411463
000070 61 7d dd 3b 42 bf 8c bd b9 6b 4b 3c 37 85 d4 bd
       0.006759331 -0.06872417 0.01241582 -0.10376971
000080 48 82 c7 bc 27 0b 1b bd 53 e4 53 bd 2d fe 9f 3d
       -0.024354115 -0.037852433 -0.05173142 0.07812152
000090 d8 38 03 3d d8 4d 40 bc 63 c9 d3 3c 1a fb 77 bc
       0.032036632 -0.011737309 0.025852865 -0.015135551
0000a0 43 55 52 bc 7c eb a2 bd aa 37 a3 bd ff ba c2 bc
       -0.012837711 -0.07955071 -0.079696015 -0.023770807
0000b0 c0 6a 14 be db 95 b3 bd 7e fa 8f 3b 6e 01 54 bd
       -0.14493847 -0.08768817 0.0043938747 -0.051759176
0000c0 cc 3a 0e bd 18 8f 1e bd e3 8b 71 bc 40 66 5d bd
       -0.03472404 -0.038710684 -0.014742824 -0.05405259
0000d0 d2 42 f7 bd 0b 46 a9 bd 81 66 a3 3d 86 ef e0 bd
       -0.12073292 -0.08265313 0.079785354 -0.109831855
0000e0 09 a4 d6 3b 6a 88 f9 3b f2 3c 25 3d 15 26 98 3d
       0.0065503162 0.007615139 0.040341325 0.074291386
0000f0 4d 6e 7a bb 76 bd 3b 3d 29 bc 05 bb 07 f6 05 3e
       -0.0038212717 0.04583498 -0.0020406342 0.13082133

weight f4 [64]
000000 d8 33 2e 3f 54 d4 29 3e 4e a2 59 3e c7 6f 55 3e
       0.6804786 0.16584903 0.2125332 0.20843421
000010 24 17 0f 3f d0 14 fe 3e 63 d3 20 3f e8 83 49 3f
       0.55894685 0.49625254 0.6282255 0.787169
000020 2a 61 b1 3e 07 3c 61 3f 25 a6 ab 3e b8 d8 0a 3f
       0.34644443 0.8798222 0.33525196 0.54236937
000030 aa 73 d1 3e d2 0c 34 3f e3 be 34 3f ca 64 f6 3e
       0.40908557 0.7033206 0.7060377 0.4812377
000040 46 ac 1c 3f 20 7e 03 3f 73 f7 2e 3f 03 d8 13 3f
       0.6120037 0.51364326 0.6834633 0.5775148
000050 03 df 04 3f 67 3a 69 3f 14 86 e6 3d fa f0 17 3f
       0.5190279 0.9110474 0.11256042 0.59352076
000060 77 d5 72 3f bf 7a 80 3e fa 79 63 3e 05 00 5d 3f
       0.9485697 0.25093648 0.22214499 0.86328155
000070 78 00 19 3f 50 7e 50 3f 54 fd c2 3e b3 52 19 3f
       0.5976634 0.8144274 0.380839 0.59891814
000080 d0 78 38 3f c9 08 7b 3e ee c1 b7 3e 54 9e 10 3f
       0.72059345 0.2451507 0.35890144 0.5649159
000090 18 60 b9 3e ef 08 6d 3e 7c 20 f6 3e 70 78 59 3f
       0.36206126 0.23147939 0.4807166 0.849494
0000a0 a8 1b 6e 3e 74 3f 3e 3f 8d b3 98 3e f7 e9 8a 3e
       0.23252738 0.7431557 0.29824486 0.27131626
0000b0 a3 42 14 3f cd 21 b2 3e b6 37 a4 3e 24 49 34 3f
       0.5791418 0.34791413 0.32073754 0.70424104
0000c0 fe 1f 24 3f 64 9a 5a 3f ce 43 f4 3e 30 e8 3b 3f
       0.64111316 0.8539183 0.4770798 0.73401165
0000d0 8d 7a 3d 3f aa fb 08 3f 89 36 55 3f b0 e2 20 3f
       0.7401512 0.5350901 0.8328634 0.628459
0000e0 32 16 75 3f 4a 36 44 3f f8 e1 ff 3e 87 34 01 3e
       0.9573699 0.7664534 0.49977088 0.12617694
0000f0 06 25 de 3d a4 21 27 3f f8 9c 30 3f e0 63 76 3e
       0.108469054 0.65285707 0.68989515 0.24061537

bias f4 [64]
000000 08 f7 a2 3c 07 16 17 bd 22 92 be bd 51 60 18 be
       0.019893184 -0.03688624 -0.09305216 -0.14880492
000010 95 e0 14 bd 42 5f 0f bd 11 78 97 bd 2c 9f 45 bc
       -0.03634699 -0.035002954 -0.07395948 -0.012061875
000020 99 06 ed bb 67 a4 0e bd 22 dd 0a bd 43 46 e1 3c
       -0.0072334525 -0.034824755 -0.033902295 0.027499324
000030 92 d9 8b bd 6a f7 ce bd 77 f2 c0 bd 19 64 6a bd
       -0.068286076 -0.10105784 -0.094212465 -0.057224367
000040 8a cb 26 3c 2a ef d0 bd 95 0d 32 bd 0f 7d 89 bd
       0.010180363 -0.10201867 -0.043469984 -0.06713306
000050 0d e2 12 be 41 56 8d 3c 8a ae 88 bd 8d 64 10 be
       -0.14344044 0.017253043 -0.06673916 -0.14100857
000060 43 6b 56 3c 48 a5 a3 bd 0e f6 1b 3d b9 36 cd bc
       0.013087097 -0.07990509 0.038076453 -0.025050508
000070 3f e9 d7 bc 5d 16 d6 bd 4e 9f 00 bd 3a a8 0b bd
       -0.026356338 -0.10453484 -0.031401925 -0.03409598
000080 ba ed dc bd 56 54 8e bd 50 81 5b bd 48 04 fe 3c
       -0.1078753 -0.069496796 -0.05359012 0.0310079
000090 68 ac b7 3c c3 8d 8e 3c 63 9a 1a bb 1c 1a 9d 3c
       0.022421077 0.017401582 -0.0023590557 0.019177489
0000a0 f9 ea 39 bd 99 e1 f3 bd a8 ab 60 bd 8e f5 86 bd
       -0.045390103 -0.11908264 -0.054851204 -0.065898046
0000b0 46 ec c5 bd b2 13 09 be 9d 96 0a bd 34 b9 08 be
       -0.09664206 -0.1338642 -0.033835042 -0.133519
0000c0 fa 4c b5 bd 2e 8f 7c 3c bc d5 59 bd 0e 41 a4 bd
       -0.08852573 0.015414996 -0.05318235 -0.08020221
0000d0 20 9a 13 be 9b a1 aa bd b7 38 03 bd c3 47 fb bd
       -0.14414263 -0.08331605 -0.03203651 -0.12269547
0000e0 33 c1 1c bd a9 30 e3 3c 1b 07 f8 bb 7b 48 f2 3c
       -0.038270187 0.027733164 -0.0075692064 0.029575577
0000f0 e5 db aa bb c6 71 db 3a 3d 9a ac 3c f8 8c 72 3d
       -0.0052142018 0.0016742281 0.02106964 0.05921647

running_mean f4 [64]
000000 58 d0 82 bd 2c 8d b9 bd 1d d4 ae 3e 01 a7 e6 3e
       -0.06387395 -0.090601295 0.34146205 0.4504929
000010 95 15 69 bd d1 6a a6 3d 80 97 33 3e 06 33 32 bd
       -0.056905348 0.08125842 0.17538261 -0.04350569
000020 07 3f be bd 73 71 ba be 14 98 85 3e 41 45 97 be
       -0.09289365 -0.3641468 0.2609259 -0.29545024
000030 34 67 46 3e d2 f2 18 be f9 a8 73 bc 46 eb 16 3e
       0.19375306 -0.14936379 -0.014871829 0.14738187
000040 84 63 56 be 72 e5 00 3f ee be a3 be 10 ea 05 be
       -0.209364 0.50350106 -0.31981605 -0.13077569
000050 dc 97 8c 3e e8 47 8b be 4c a8 f6 3c ee b1 f3 3d
       0.2745961 -0.27203298 0.030109547 0.11899172
000060 6c 72 c0 be 5e a4 10 3e 6a e1 d9 bd 75 54 a2 be
       -0.37587297 0.14125201 -0.106386974 -0.3170506
000070 99 b1 bb bd 49 df 88 3d a0 26 ae 3d d8 eb 5b be
       -0.091647334 0.06683213 0.08503461 -0.21476686
000080 e7 5a 37 3e c8 1e 11 3d 1f 2a 2e bd a1 d6 29 be
       0.1790577 0.035429746 -0.04252064 -0.1658578
000090 9d 76 23 be 9c 6c e0 3d a6 e1 ed 3d 9b fd 6d be
       -0.15963216 0.109582156 0.11615305 -0.23241274
0000a0 56 6f df bd a2 4c f3 3e 08 28 f2 bc ae c6 95 3e
       -0.109099075 0.47519404 -0.029560104 0.29253143
0000b0 a6 a0 d5 3d 03 69 ea 3e 80 ea 80 be 69 0f 7a 3e
       0.10431032 0.45783243 -0.2517891 0.24419941
0000c0 7c 56 d1 3e 11 49 49 bf 47 a8 06 3e 70 a1 e3 bb
       0.40886295 -0.78627115 0.1315013 -0.006946735
0000d0 8f 02 fc 3d 21 e6 c8 bc 0c cd 3b bf 4a a3 8b be
       0.123051755 -0.024523797 -0.7335975 -0.27273017
0000e0 e4 03 e6 be 1e 2e 1b bf 57 19 0a be 5b f8 24 be
       -0.44924843 -0.60617244 -0.13486229 -0.16110365
0000f0 f5 73 3c bd 7a f5 83 bd 8d 8b 82 be d5 1d 30 bf
       -0.046009023 -0.06443305 -0.25497094 -0.6879552

running_var f4 [64]
000000 3e 3e 01 3e f6 34 0d 3e 93 c5 0f 3e 1f 82 39 3e
       0.126214 0.13789734 0.14040212 0.18116044
000010 e9 2d ed 3d 27 12 df 3d 81 75 08 3e 83 0d e7 3d
       0.11581022 0.10892134 0.13326074 0.11281874
000020 8d b1 a8 3d dd bb 66 3e ed e9 5d 3e 35 81 19 3e
       0.0823699 0.22532602 0.21671267 0.14990695
000030 d7 9d 1b 3e c1 28 3a 3e cb 55 83 3e 31 01 1d 3e
       0.1519693 0.18179609 0.25651392 0.15332486
000040 a6 90 22 3e b3 b9 27 3e 0b 11 05 3e c5 da b4 3d
       0.15875491 0.16379432 0.12994783 0.088307895
000050 03 14 1e 3e d6 cc 31 3e 56 a8 04 3e ce a1 21 3e
       0.15437321 0.17363295 0.1295484 0.1578438
000060 77 6a 4c 3e 00 94 de 3d 64 a8 52 3e 14 eb 6f 3e
       0.19962488 0.108680725 0.20572048 0.23429519
000070 99 a8 3c 3e 46 96 0d 3e a4 28 f6 3d 48 22 27 3e
       0.1842369 0.13826856 0.1201947 0.16321671
000080 a7 f8 04 3e 06 66 a9 3d 23 db 18 3e e6 46 6d 3e
       0.12985478 0.082714126 0.14927344 0.23171577
000090 6e c6 10 3e 94 f4 92 3d 05 b8 81 3e 05 e1 26 3e
       0.14138195 0.07175556 0.25335708 0.16296776
0000a0 5e 8a 2d 3e 8c 8c 89 3e e3 78 2e 3e 5e fc cc 3d
       0.16947314 0.2686504 0.17038302 0.10009073
0000b0 14 6c 0f 3e d2 84 5c 3e 2d 29 28 3e 33 04 81 3e
       0.14006072 0.21535042 0.16421957 0.25198516
0000c0 c7 bc 4f 3e a7 55 d0 3e 7f 7b d0 3d fc 2f 14 3e
       0.20286857 0.40690348 0.10179805 0.1447143
0000d0 58 54 bd 3d 4d 96 28 3e 12 69 07 3f 74 a7 02 3e
       0.09244603 0.16463585 0.528947 0.12759191
0000e0 0b 5b 8b 3e 42 de 49 3e 67 05 03 3e d2 2b 1b 3e
       0.27217898 0.19713691 0.1279503 0.15153435
0000f0 5a db cb 3d 2e d8 0d 3e df de 59 3e 2f 02 b4 3e
       0.09953947 0.13851997 0.21276425 0.35157916

weight f4 [64, 64, 3, 3]
000000 f9 b3 d2 bd 21 cd b4 bc b2 ac 1f be dc 34 4f bc
       -0.10288233 -0.02207047 -0.15593222 -0.01264688
000010 93 77 87 3d bc f8 8d 3c ea 5b 03 be 1e e0 2a 3d
       0.06614604 0.01733052 -0.12828031 0.04171764
000020 9c 7c a3 3b 22 43 45 bd b0 0d 40 be 1c e0 d5 bd
       0.00498922 -0.048159726 -0.18755221 -0.10443136
000030 a3 75 0f 3e a8 ed 9c 3d d4 6c d8 bd be d9 29 3e
       0.14009719 0.07662517 -0.10567632 0.16586968
000040 5d 6e 98 3c 26 b8 10 bd fe 6f d9 bd 95 2e ba 3d
       0.018607313 -0.035331868 -0.10617064 0.09090916
000050 eb 79 f0 bd 19 c0 1e bd 81 12 db 3c 47 7a 0f be
       -0.11742004 -0.038757417 0.026742222 -0.14011489
000060 33 ab 35 bd a4 f6 ae bd a2 6a 91 3d 3f f7 02 be
       -0.04435272 -0.08543137 0.07100417 -0.1278963
000070 31 7f e0 bd 0c 1b 41 bc b6 79 a5 bb ae 00 55 bd
       -0.1096176 -0.011786234 -0.0050499095 -0.0520026
000080 08 a4 a3 3d b9 2b d9 bc f7 e6 ab bc 09 91 cf 3d
       0.07990271 -0.026510106 -0.020984156 0.10135085
000090 aa ea e1 bd 6e 60 4d 3c aa e8 fc 3d e8 85 6b 3d
       -0.11031087 0.012535198 0.12349065 0.05750075
0000a0 c9 8a d3 bc 43 83 bb 3d a4 95 ae 3c 90 6d c7 3c
       -0.025823014 0.091558956 0.021311589 0.024344236
0000b0 39 97 02 be 98 a3 6f bc 95 33 e5 3d 31 41 fd bd
       -0.12753 -0.014626406 0.11191479 -0.1236595
0000c0 43 60 3f bd 28 22 c0 bd 66 41 d0 bc e9 45 32 bd
       -0.04672266 -0.09381515 -0.02542181 -0.043523703
0000d0 e5 69 00 bd f0 9e 8b 3d dd ad 13 bd 5b 89 b9 bd
       -0.03135099 0.06817424 -0.03605448 -0.090594016
0000e0 2d 14 28 bd 4e 23 38 3d f0 56 ac 3d 19 65 6f bd
       -0.041034866 0.044955544 0.084150195 -0.058446024
0000f0 00 73 5e 3d 1e ff 0b 3d 6f d5 65 3d 5f b0 ec bc
       0.05430889 0.034178846 0.05611175 -0.028892694
000100 c7 e2 13 bd 85 67 05 3d af 2f 2e be 83 3c 3e bd
       -0.036104944 0.032569427 -0.17010377 -0.046444427
000110 e0 d7 89 3c 3e 62 6c 3d 23 88 54 bc f0 2a 63 3d
       0.01682657 0.05771088 -0.012971911 0.05546087
000120 8d 8e b5 bd a1 40 07 3d 8d ae ee 39 2a 4c 1f 3c
       -0.0886508 0.03302062 0.00045524948 0.009722749
000130 6c 36 8b 3d f7 8c 3f bd 33 15 3f be df 51 8c 3d
       0.067974895 -0.046765294 -0.1866043 0.06851553
000140 c8 e4 a3 bc 53 19 93 bd 2b 6d cf bd ef 71 da 3d
       -0.020006552 -0.071825646 -0.10128244 0.10666262
000150 19 68 33 bd 50 a6 7f 3c fc 73 d5 3c 9d b3 ac bd
       -0.043800447 0.015603617 0.026056282 -0.08432696
000160 46 9d d9 bd 36 ba 80 bd 7b 1e f9 bb d0 57 b4 bb
       -0.10625701 -0.06285517 -0.0076025105 -0.005503632
000170 81 d8 e6 3d 92 db 80 bc 73 eb 4e bd d7 3c 0a 3c
       0.112717636 -0.0157297 -0.05051751 0.008437357
000180 0d 97 87 bd ea ff 0f bd 58 0a 17 3d 7c 24 1c bd
       -0.066206075 -0.035156168 0.0368751 -0.03812073
000190 5b d9 db bd f5 54 5f 3c e5 89 4c bb 7a d7 45 bd
       -0.10734817 0.013631095 -0.0031210121 -0.048301198
0001a0 73 9d ab bd 12 31 16 bd 88 70 57 bd 10 69 93 3d
       -0.083796404 -0.03666789 -0.052597553 0.071977735
0001b0 fe 21 f2 bd 84 0b 01 3d 7e 5a 08 bb 80 db 8f 3c
       -0.1182289 0.031505123 -0.002080589 0.01756072
0001c0 59 38 a3 3c 24 80 84 3d a8 8f fa 3c 4e f1 95 bc
       0.01992433 0.064697534 0.030586079 -0.01830354
0001d0 d1 e0 36 3c 06 cd 7c bd 49 86 a1 bd 97 5e 14 be
       0.011161999 -0.061718963 -0.07886941 -0.14489208
0001e0 3c 81 9c 3c db 75 63 3d 02 ca f8 3c 26 46 9c 3d
       0.019104593 0.055532318 0.030369762 0.07630567
0001f0 eb 81 bc 3d 3f e5 02 be e6 64 a7 3d 7b b4 37 3d
       0.092044674 -0.12782763 0.08173542 0.044849854
000200 c0 29 73 3c d1 88 a1 3c f9 e9 59 3d 59 22 73 3d
       0.014841497 0.01971856 0.05320165 0.05935893
000210 31 50 95 bc d9 49 4c 39 a7 7f 9f bd 42 30 0f 3d
       -0.018226715 0.00019482466 -0.077880196 0.03495813
000220 44 a9 4a bd 76 cf 8a bd 12 90 c7 bc 4d e2 f0 bd
       -0.04947783 -0.06777851 -0.02436069 -0.117619134
000230 9d 07 8d 38 8c 84 ad bc e2 34 cf bd 16 d0 a3 bd
       6.724822e-05 -0.021181367 -0.101175085 -0.079986736
000240 4a 19 84 bc 84 ae e0 3d 88 8e 27 bd 96 52 07 3c
       -0.01612534 0.10970786 -0.040907413 0.008259436
000250 e7 2e 0c bd b2 3e d2 3d e9 a4 7c 3b e8 8d cf bd
       -0.034224417 0.102658644 0.0038550443 -0.10134488
000260 44 06 2b bd 95 29 1c bd f5 76 0b bc 96 84 09 3e
       -0.041754022 -0.038125593 -0.008512248 0.13429484
000270 42 c4 6d bd a4 96 38 bd 12 60 6a 3d 36 ac 38 3d
       -0.058048494 -0.045065537 0.057220526 0.04508611
000280 61 fc d7 bc b0 97 83 bd aa ec e7 3c a8 cd ad bd
       -0.02636546 -0.064254165 0.028311092 -0.084864914
000290 99 46 0c be b8 24 96 bd 55 6e 9f bc bb 56 2b 3d
       -0.13698806 -0.07331222 -0.01946179 0.04183076
0002a0 07 f4 1f 3c 6d d1 5d 3d b4 70 4f 3d 5f 1e 6b bd
       0.0097627705 0.054154802 0.05064459 -0.05740201
0002b0 ed 29 8f 3d bc 79 ff 3d 29 31 9d bd d7 81 c2 bb
       0.069904186 0.12474391 -0.07675392 -0.0059358883
0002c0 dd 38 ca 3c d4 c0 2e 3d dc 26 a7 3d 5e fb 61 bb
       0.024685318 0.042664364 0.08161709 -0.0034482102
0002d0 d5 8c 88 3b 25 52 d7 3d 79 bc 64 3d 24 43 4a bd
       0.004167179 0.10513715 0.055843804 -0.049380437
0002e0 17 31 10 be b0 fa 35 bc e3 52 c3 3c 90 64 b6 bd
       -0.14081226 -0.011107132 0.023843234 -0.089058995
0002f0 e6 fa a8 3a bd 25 43 bd 3e 06 08 3c c5 4a d5 3b
       0.0012892156 -0.047643412 0.0083022695 0.0065091574
000300 74 28 95 bd de e4 b8 bd 65 40 39 be 99 5e 7a 3b
       -0.072831064 -0.09028028 -0.18090971 0.0038203357
000310 ea 91 2b 3e d0 73 d9 3d 1c f4 8d bd be 10 02 3e
       0.1675488 0.106177926 -0.06931326 0.12701699
000320 f0 f3 29 3d e0 fd d5 3d 35 27 65 bd 12 d6 01 bd
       0.041492403 0.104488134 -0.055945594 -0.031698294
000330 94 a6 a9 3c 67 51 59 bd 8b 89 61 3d eb 5d 83 3d
       0.020709313 -0.053056147 0.05506281 0.06414398
000340 64 a4 77 3c 77 8e 35 bd f2 71 46 bb a1 fe 6d 3b
       0.015114877 -0.04432532 -0.003028032 0.00363151
000350 f1 3e 6a bd e5 1c 84 3d 59 c4 88 3b a7 48 60 bd
       -0.05718893 0.06450824 0.004173797 -0.054756787
000360 4b 3c b0 3d e7 93 ac 3c 90 59 e7 bc c1 cf fa bd
       0.0860525 0.02106662 -0.028240949 -0.12246657
000370 41 41 0f be a3 25 12 3d 95 12 2f be 97 8d a9 bd
       -0.13989736 0.035680424 -0.17096932 -0.08278959
000380 bd 62 0c bd cb 98 94 bd 0d df da 3d 51 5a 5c bd
       -0.03427385 -0.072557054 0.10687075 -0.05379707
000390 e3 3f cd bd b0 7d ca bd e9 fe a9 3b 6f ac 24 3d
       -0.10021951 -0.09887254 0.0051878584 0.040203508
0003a0 05 d3 81 3b a7 ee 57 3d 8d 4b b2 bd 72 76 60 3c
       0.003961923 0.05271783 -0.087058164 0.013700115
0003b0 0e e9 ac 3b 3a 73 2f bd 31 d7 80 be f3 4a 01 be
       0.0052768057 -0.042834498 -0.25164178 -0.12626247
0003c0 f1 32 9f bd 98 00 2b 3d 21 02 e0 bc 19 d7 30 3a
       -0.07773388 0.041748613 -0.027344765 0.0006745919
0003d0 b6 15 d6 bc 95 e7 16 3d c8 4e 8b 3b 40 8a 09 be
       -0.0261334 0.036841948 0.004251335 -0.13431644
0003e0 de b0 81 3d aa 84 ef 3a 6c 82 3b be f0 6c 55 bd
       0.06332563 0.001827379 -0.18311471 -0.052105844
0003f0 76 38 84 bd b8 e3 30 be 49 56 df bd e7 91 11 3d
       -0.064560816 -0.17274368 -0.109051295 0.035539534

bias f4 [64]
000000 f7 28 be bd 7f ee 75 bc e3 4a a6 bd ea fa ab bd
       -0.09285157 -0.015010475 -0.08119752 -0.083974674
000010 58 a0 0c 3b b9 45 85 bc 87 2b 6f bd 39 70 95 bc
       0.0021457877 -0.016268598 -0.05839112 -0.018241988
000020 75 ea 89 bc 8e 72 85 bd a7 5f 9d bc 71 c9 80 bd
       -0.01683543 -0.0651599 -0.01921065 -0.06288422
000030 e0 21 92 bd d5 02 e8 bc af 44 53 bd 07 75 2c bd
       -0.071353674 -0.028321663 -0.051579174 -0.042103793
000040 cf 28 b6 bd 4a 52 6b bd 23 20 91 bd 42 64 9d bd
       -0.08894502 -0.057451524 -0.07086208 -0.07685138
000050 57 fc 93 bd 48 7f 2b bc fa 33 b3 bd ea c4 c5 bd
       -0.072258644 -0.010467358 -0.08750148 -0.09656699
000060 16 a8 bd bd b5 c9 9e bd bc 93 3b bd cd ff 24 bd
       -0.092605755 -0.07753316 -0.045795187 -0.040283013
000070 dd 01 d5 bd f9 7c ff bd 9b 7a e6 bd c1 45 cf bc
       -0.10400746 -0.124750085 -0.11253854 -0.025301816
000080 af 8c 70 bc 98 35 86 bd 37 f1 83 bd 5b bc 86 bd
       -0.014681979 -0.06553191 -0.064424925 -0.06578895
000090 bc 47 e3 bc 51 62 b0 bd 11 2d 69 bd a0 41 b8 bd
       -0.027744167 -0.08612502 -0.056927744 -0.08996892
0000a0 c4 25 95 bd fa c0 19 bd 98 e2 8d bd 39 6a 88 bd
       -0.07282594 -0.037537552 -0.06927985 -0.06660885
0000b0 72 e1 d1 bd 21 66 16 bd 78 d2 7b bd 80 be 8f bd
       -0.102480784 -0.03671849 -0.061480016 -0.07018757
0000c0 89 e8 a0 bd e5 7e 9c bd 00 a4 95 bd 07 2e 56 bd
       -0.078568526 -0.07641391 -0.07306671 -0.05228999
0000d0 5e 9e 37 3b cb 70 73 bd 30 4a 16 bc 43 9d 4b bd
       0.0028017978 -0.05943374 -0.009172961 -0.049710523
0000e0 14 c1 3c bd b0 ef 44 bd 8c 59 8d bd 8a b2 14 3c
       -0.04608257 -0.048080146 -0.06901845 0.00907577
0000f0 f9 2f aa bd de 4f 37 bd 18 ad 1b bd 87 d4 3e 3d
       -0.08309931 -0.0447539 -0.038006872 0.0465894

weight f4 [64]
000000 de 4b 28 3f 7e 2f c8 3e 0c 57 58 3f 11 f8 29 3f
       0.65740764 0.39098734 0.84507823 0.66394144
000010 97 3c d5 3e b2 7e 1b 3f e9 93 f4 3e f8 be 88 3e
       0.4164779 0.60740197 0.47769096 0.26708198
000020 78 06 10 3f 97 49 8a 3e 85 51 29 3f 2f 90 30 3f
       0.5625987 0.2700927 0.66140014 0.68970007
000030 f0 bd 1b 3f f1 9f 19 3f 0a 1c 29 3f a5 a3 70 3e
       0.60836697 0.60009676 0.6605841 0.23499925
000040 2a 82 7a 3e 14 07 fb 3e 57 b9 14 3f 2b e6 94 3e
       0.24463716 0.49028838 0.58095306 0.29081854
000050 2c bf e6 3e db 45 00 3f db e4 e1 3d a7 b0 2d 3e
       0.45067728 0.5010659 0.11029979 0.16961919
000060 8b d3 b0 3e 79 15 a5 3e 40 d4 55 3e 24 7c 65 3f
       0.34536394 0.32242945 0.20881748 0.8964255
000070 67 b3 58 3f ff 57 1d 3e 17 ef 1a 3f e4 ea ea 3e
       0.84648746 0.15365599 0.6052107 0.45882332
000080 0e 62 99 3d d9 a4 f7 3e 7d a1 a3 3e 40 66 1c 3f
       0.074894056 0.48367956 0.31959143 0.6109352
000090 7c 10 1f 3f fd 62 03 3f 4d a1 8a 3e a3 29 48 3f
       0.6213453 0.5132292 0.27076188 0.7818853
0000a0 5e 84 c1 3e 88 6c 9f 3e a1 72 35 3f b6 8a c4 3e
       0.377963 0.3113749 0.70878035 0.38387078
0000b0 c5 b8 ee 3e 13 1a 5f 3f c1 17 68 3e cd 94 c8 3e
       0.46625343 0.8714916 0.22665311 0.39176026
0000c0 db c1 42 3f d7 8d c9 3e 17 74 0e 3f 7c 9a 03 3f
       0.7607705 0.39366028 0.5564589 0.514076
0000d0 4e 42 bc 3e 2d d2 3f 3f e7 49 53 3f 6c 49 2b 3e
       0.36769336 0.7493008 0.8253464 0.16727227
0000e0 61 0b a8 3e 47 cf f4 3e 47 9f af 3e b0 06 92 3e
       0.3282118 0.4781439 0.34301206 0.28520727
0000f0 e4 cc 8d 3e 71 09 7f 3e 99 19 65 3f 0c 60 fb 3e
       0.27695382 0.24905945 0.89492184 0.49096715
