1epochs_0.0007learingrate_16batchsize.pt (torch_old, 712668 bytes, 34 tensors)

weight f4 [32, 3, 5, 5]
-0.07299011 0.03378547 0.04945199 -0.011276687 -0.10526153 -0.044089943 0.090685986 0.14059891
0.14018871 0.031590167 -0.13917156 0.059964422 -0.011437153 0.0135844955 -0.020121245 -0.038914777
-0.18669786 -0.10088052 0.033929445 -0.09032439 0.1252818 0.04143497 0.10770376 -0.075577475
-0.005863304 0.030735321 0.006503169 0.07677299 0.003963422 0.022225572 -0.037467416 -0.05422163
-0.042890564 -0.042756278 0.059648104 -0.14091407 -0.07554155 0.011995727 0.005890133 0.057129268
-0.12778114 -0.17820458 -0.06518094 0.036100503 0.065992355 0.00086329563 -0.07402729 -0.08767326
-0.122496225 -0.08339761 0.07674276 0.08103822 -0.06328038 -0.05847596 0.020668672 -0.096234374
0.09624838 -0.06759992 -0.0709439 0.08107672 -0.09551178 0.08583517 0.068026766 -0.010508102
-0.007620463 0.010171638 -0.11111182 -0.067286976 0.020621855 0.005263437 0.115414076 0.063341655
-0.0794795 -0.06986075 -0.1620874 -0.060592532 0.018973181 0.018032048 0.085688524 0.003020438
0.06534879 0.01648542 -0.054717343 -0.048504457 -0.026339596 -0.05389856 0.061036225 -0.008659558
0.017201014 -0.018358706 -0.09145697 -0.018365629 0.07674318 0.053626478 -0.072891325 -0.07940968
-0.012510562 0.009248747 -0.06701057 -0.0298073 -0.039737865 -0.011800548 0.0044329893 0.12572707
-0.04593779 0.10430551 0.06372086 0.01557723 -0.01609933 -0.119943455 0.091835365 0.10789412
-0.09884966 -0.095658556 -0.082060225 -0.11917182 -0.07844401 0.090161376 -0.03516485 -0.042909604
0.0640015 -0.08176328 -0.018111767 0.061129525 -0.047260057 -0.06676863 -0.024900984 0.1183327
0.13478386 0.021037927 -0.09251668 0.022038987 0.09658469 -0.09411319 0.037110493 0.06283354
0.04283588 -0.068696566 -0.033616763 -0.016443625 -0.090757705 0.10047943 0.067304425 -0.02875379
-0.07974404 0.01202554 0.04367056 0.031731244 -0.031729493 0.049749684 -0.08508325 -0.06550021
-0.11413359 0.0034577611 -0.03639448 0.102456324 -0.084618084 -0.089838035 -0.03707837 0.14717309
-0.075035244 -0.04866848 -0.059280876 0.05828178 0.07425426 0.0506671 0.047124855 -0.02137562
0.11861682 0.121722795 0.060235526 0.109082446 0.03192417 0.07240604 0.07509748 -0.09620472
0.017197298 0.032455705 -0.11090712 0.09243173 -0.11996088 -0.046744753 -0.12170185 0.036373142
0.026349245 -0.06179181 0.042236626 -0.0051444434 0.14304784 0.1818892 0.0742704 0.034256577
0.07139201 0.093207985 -0.0045217555 -0.10546083 0.00323725 -0.056873504 -0.090975106 -0.059861694
0.031555377 0.03778834 0.035009257 -0.050706137 0.0068401415 0.047330234 0.01857118 0.046370164
0.10137233 0.00096823875 -0.071866564 0.0077567953 -0.06859432 0.14531219 0.11663813 0.06769367
-0.04580462 -0.087651625 -0.019482713 0.029216385 0.07420029 0.07554495 -0.021379178 0.045253117
0.05647451 0.049474835 -0.017151227 -0.07282173 -0.032289833 0.0021297946 0.08358139 0.05131939
-0.031714413 0.07123514 -0.057484638 0.0368456 0.0363799 0.03847537 0.091327734 0.08968697
-0.023748286 0.060728356 -0.04532575 -0.07872654 0.028090216 -0.13046612 -0.15975489 -0.13452275
-0.10373668 0.04286612 0.034555227 -0.05493972 -0.014245433 0.06152237 -0.10954473 0.11433184
00000000: d77b 95bd a262 0a3d 2b8e 4a3d dac1 38bc
00000010: 5b93 d7bd a897 34bd 93b9 b93d 29f9 0f3e
00000020: a18d 0f3e b164 013d fd82 0ebe 419d 753d
00000030: e662 3bbc 8191 5e3c 4fd5 a4bc 1a65 1fbd
00000040: b92d 3fbe 729a cebd 9af9 0a3d fefb b8bd
00000050: df49 003e b7b7 293d ca93 dc3d 5dc8 9abd
00000060: f520 c0bb a4c8 fb3c 8918 d53b 283b 9d3d
00000070: 98df 813b 6712 b63c 6f77 19bd 8017 5ebd
00000080: 04ae 2fbd 3521 2fbd 9251 743d c74b 10be
00000090: 87b5 9abd ba89 443c 0402 c13b 6100 6a3d
000000a0: 0fd9 02be 437b 36be 967d 85bd 1fde 133d
000000b0: 0027 873d ca4e 623a 9f9b 97bd 0a8e b3bd
000000c0: 4ddf fabd 5ecc aabd 4f2b 9d3d 5ef7 a53d
000000d0: 2599 81bd 7d84 6fbd 5951 a93c 8716 c5bd
000000e0: df1d c53d d471 8abd 094b 91bd 8d0b a63d
000000f0: ae9b c3bd 59ca af3d 9e51 8b3d 2d2a 2cbc
00000100: 14b5 f9bb f1a6 263c 988e e3bd c1cd 89bd
00000110: 2aef a83c e978 ac3b 375e ec3d 45b9 813d
00000120: 26c6 a2bd 2713 8fbd 3dfa 25be e02f 78bd
00000130: a56d 9b3c f2b7 933c 777d af3d 8af2 453b
00000140: 96d5 853d 6e0c 873c 4b1f 60bd 9cac 46bd
00000150: 23c6 d7bc bdc4 5cbd 1f01 7a3d d2e0 0dbc
00000160: 24e9 8c3c ff64 96bc cb4d bbbd 8473 96bc
00000170: 872b 9d3d 70a7 5b3d 0c48 95bd 8ba1 a2bd
00000180: 1af9 4cbc 0e88 173c d63c 89bd 702e f4bc
00000190: 2cc4 22bd 1657 41bc 9c42 913b 99be 003e
000001a0: 4429 3cbd 219e d53d 1580 823d a337 7f3c
000001b0: bee2 83bc eaa4 f5bd 2e14 bc3d 98f7 dc3d
000001c0: b171 cabd a2e8 c3bd 310f a8bd 5b10 f4bd
000001d0: 41a7 a0bd 87a6 b83d 0509 10bd fbc1 2fbd
000001e0: 3813 833d 8273 a7bd 215f 94bc f462 7a3d
000001f0: c393 41bd febd 88bd 26fd cbbc 6a58 f23d
00000200: c804 0a3e bb57 ac3c 6379 bdbd 1b8b b43c
00000210: 32ce c53d 6bbe c0bd 2c01 183d dfae 803d
00000220: ad74 2f3d c9b0 8cbd bbb1 09bd c8b4 86bc
00000230: 2ddf b9bd 29c8 cd3d e7d6 893d 118d ebbc
00000240: d850 a3bd c506 453c e7df 323d 9ff8 013d
00000250: c9f6 01bd 53c6 4b3d 2140 aebd f924 86bd
00000260: dfbe e9bd 9b9b 623b 6112 15bd 9fd4 d13d
00000270: 3f4c adbd 01fd b7bd 7ddf 17bd 8bb4 163e
00000280: 14ac 99bd 9a58 47bd 81d0 72bd e0b8 6e3d
00000290: 9e12 983d 4e88 4f3d fe05 413d ed1b afbc
000002a0: 60ed f23d cd49 f93d 87b9 763d 9e66 df3d
000002b0: ebc2 023d 9e49 943d b5cc 993d fb06 c5bd
000002c0: 59e1 8c3c 46f0 043d 4623 e3bd d94c bd3d
000002d0: 0dae f5bd 6d77 3fbd d23e f9bd 01fc 143d
000002e0: 5fda d73c 6919 7dbd 5000 2d3d b892 a8bb
000002f0: 227b 123e 2a41 3a3e 141b 983d a050 0c3d
00000300: f935 923d d4e3 be3d 3c2b 94bb d9fb d7bd
00000310: 0b28 543b 31f4 68bd 2851 babd 8931 75bd
00000320: 3640 013d f2c7 1a3d de65 0f3d 3db1 4fbd
00000330: 4423 e03b 59dd 413d 9622 983c a4ee 3d3d
00000340: 4c9c cf3d 67d1 7d3a c72e 93bd b72c fe3b
00000350: 2e7b 8cbd b8cc 143e f9df ee3d fba2 8a3d
00000360: a09d 3bbd b282 b3bd 369a 9fbc 3357 ef3c
00000370: 52f6 973d 50b7 9a3d 6323 afbc 555b 393d
00000380: d151 673d 20a6 4a3d bb80 8cbc 8f23 95bd
00000390: 5842 04bd 0694 0b3b b82c ab3d 4834 523d
000003a0: f9e6 01bd bbe3 913d 0375 6bbd 69eb 163d
000003b0: 1703 153d 5998 1d3d 090a bb3d cdad b73d
000003c0: c48b c2bc 4cbe 783d 7ea7 39bd 613b a1bd
000003d0: 741d e63c e998 05be c996 23be 55c0 09be
000003e0: e573 d4bd 6294 2f3d c889 0d3d 7908 61bd
000003f0: ad65 69bc e1fe 7b3d fd58 e0bd d026 ea3d

bias f4 [32]
-0.037554182 -0.061741002 0.06890181 -0.077288136 -0.14391036 0.08010491 -0.10733454 -0.007894262
-0.09477716 -0.15131204 0.083097525 0.01642349 -0.08246499 0.03064385 0.02912598 -0.09360139
0.042890333 -0.08370105 -0.09619408 0.122805424 0.053446714 0.06872751 0.022512883 0.07040293
0.041854523 0.10138351 -0.030602802 0.04901322 -0.053526103 -0.08970337 -0.02622995 -0.016880993
00000000: 6ad2 19bd 22e4 7cbd 641c 8d3d 3e49 9ebd
00000010: 3d5d 13be 0b0e a43d 36d2 dbbd ef56 01bc
00000020: 871a c2bd 8bf1 1abe 092f aa3d 8e8a 863c
00000030: 68e3 a8bd d008 fb3c 9b99 ee3c 16b2 bfbd
00000040: c6ad 2f3d 756b abbd 6701 c5bd 6981 fb3d
00000050: f1ea 5a3d 02c1 8c3d f06c b83c 692f 903d
00000060: a66f 2b3d 28a2 cf3d bab2 fabc 16c2 483d
00000070: 303e 5bbd 67b6 b7bd 31e0 d6bc 024a 8abc

weight f4 [32]
0.4305946 0.78816533 0.682823 0.28293717 0.2515678 0.50061846 0.0015796467 0.61109835
0.40621284 0.17925273 0.24291117 0.17220706 0.45030576 0.86217934 0.27776864 0.43819192
0.06634586 0.33121872 0.006014182 0.28846884 0.8808271 0.616683 0.19452535 0.105543405
0.43954495 0.12838037 0.9782213 0.12829733 0.29489356 0.4971349 0.3203335 0.4087426
00000000: e576 dc3e 34c5 493f 7dcd 2e3f 24dd 903e
00000010: 7fcd 803e 8828 003f 260c cf3a f170 1c3f
00000020: 21fb cf3e 078e 373e b5bd 783e 0c57 303e
00000030: 7a8e e63e c9b7 5c3f b137 8e3e b15a e03e
00000040: 57e0 873d 8095 a93e 9e12 c53b 30b2 933e
00000050: e37d 613f f0de 1d3f a731 473e 2427 d83d
00000060: 090c e13e 2576 033e b66c 7a3f 6060 033e
00000070: 4afc 963e 7788 fe3e c102 a43e b646 d13e

bias f4 [32]
-0.0033842095 -0.07065265 -0.0808403 -0.018597398 -0.098695345 -0.02523959 -0.012914639 -0.029270487
-0.031089997 -0.022663342 0.0070482325 -0.008954697 -0.0556285 -0.016087955 -0.02810841 -0.04114615
-0.022735812 -0.04720854 -0.015824346 -0.04792337 -0.07129146 -0.018496409 0.03007449 -0.016447466
0.016926685 -0.01178579 -0.038411528 -0.020281378 0.013787526 -0.02386694 0.0048615243 -0.03903262
00000000: 9dc9 5dbb 56b2 90bd 998f a5bd 9259 98bc
00000010: c920 cabd 42c3 cebc ec97 53bc a9c8 efbc
00000020: 73b0 febc 79a8 b9bc dcf4 e63b b9b6 12bc
00000030: b6da 63bd e3ca 83bc 9c43 e6bc de88 28bd
00000040: 7440 babc be5d 41bd 0fa2 81bc 4c4b 44bd
00000050: 4201 92bd c885 97bc c75e f63c d6bc 86bc
00000060: d5a9 8a3c 3019 41bc 6855 1dbd 2225 a6bc
00000070: 13e5 613c 9a84 c3bc 6c4d 9f3b abe0 1fbd

running_mean f4 [32]
0.6477947 0.046083473 -0.5496088 0.0021596507 0.34267098 -0.006074167 -0.47996217 0.7588737
0.48512837 0.3288447 0.81967694 -0.06463224 -0.16822395 0.83978695 1.0205114 0.5909144
0.17821972 -0.49164826 0.77976066 -0.043902427 1.0498328 0.92589676 0.26091433 0.33030748
0.6286625 0.36635083 0.7758292 0.82329834 0.08177302 0.61956865 -0.038950417 0.28922683
00000000: e0d5 253f 06c2 3c3d 2ab3 0cbf ed88 0d3b
00000010: 9272 af3e ce09 c7bb 9abd f5be 8c45 423f
00000020: bf62 f83e 555e a83e 59d6 513f e85d 84bd
00000030: e642 2cbe 47fc 563f 1ea0 823f 2b46 173f
00000040: 3b7f 363e 52b9 fbbe 659e 473f 08d3 33bd
00000050: ec60 863f 9207 6d3f 9096 853e 101e a93e
00000060: 07f0 203f 5692 bb3e be9c 463f aec3 523f
00000070: 9d78 a73d 0d9c 1e3f 798a 1fbd 8a15 943e

running_var f4 [32]
0.41108313 0.16016273 0.64526623 0.20436037 0.37156126 0.13296738 0.10666551 0.8408318
0.67270666 0.23053779 0.8914495 0.410299 0.18952855 0.8737003 1.2624329 0.56408894
0.108725 0.4708309 0.40045825 0.42127627 0.8122585 0.7709854 0.17010956 0.17726046
0.7099843 0.30090323 0.57430995 0.70517784 0.335749 0.68603516 0.1931264 0.19415033
00000000: 7d79 d23e b301 243e 2b30 253f d843 513e
00000010: 473d be3e 9a28 083e 7273 da3d c140 573f
00000020: 8136 2c3f 1912 6c3e 0936 643f b612 d23e
00000030: c613 423e d3aa 5f3f 6797 a13f 2268 103f
00000040: 36ab de3d bf10 f13e dd08 cd3e 86b1 d73e
00000050: 2cf0 4f3f 4d5f 453f 3331 2e3e c483 353e
00000060: 88c1 353f fd0f 9a3e fa05 133f 8986 343f
00000070: 4be7 ab3e 00a0 2f3f edc2 453e 58cf 463e

weight f4 [32, 32, 5, 5]
0.07799508 0.023710508 -0.04399946 -0.031143144 -0.058910158 0.002855959 0.054452706 0.020422764
-0.03158392 -0.09708555 0.049341213 0.018606389 -0.0058130184 -0.05969989 -0.12933639 0.037964437
0.03793822 0.015002605 -0.051466208 -0.1378558 0.014180714 -0.019833043 -0.03241791 -0.064365275
-0.08293597 -0.041554883 0.0036213927 -0.05145726 -0.038555715 0.057464767 0.025307667 0.011595194
-0.046558727 -0.049208295 0.0045751915 0.027398221 -0.054922342 -0.024217948 -0.0040414496 0.046671923
-0.059383646 -0.03858443 -0.024338365 -0.018749358 0.062978104 -0.0055141007 0.002806814 -0.033649772
-0.027875403 -0.015665073 0.007837342 0.04147369 0.013751488 0.04343967 0.011891148 -0.011448125
-0.00012611222 0.021642555 0.043241914 0.014654022 0.007078419 0.0014306096 0.05603023 0.08133474
-0.004920927 0.012769323 -0.0056635933 0.0564486 0.009937469 -0.016374236 -0.015171664 -0.0013430943
-0.002814735 0.012971601 0.030306673 0.012373445 0.024815157 0.038653873 -0.03176558 -0.028836498
-0.036484502 -0.024345476 -0.04015743 -0.020107059 -0.007454686 0.043040916 0.010821098 0.00338681
-0.027564365 0.0072208755 -0.019076044 0.0011939667 0.019305393 0.029451896 -0.024003852 0.004445298
-0.00784813 0.054514304 0.023502337 -0.0037275404 0.010613789 -7.01692e-05 0.02417237 0.044611167
0.006762073 0.03764175 0.018486269 0.026023472 -0.018677678 -0.008444157 0.0035529127 -0.032080073
0.016670562 -0.019341193 0.042599536 0.030544244 -0.00016016485 -0.0073939124 0.041629948 -0.008882355
0.014281024 -0.000820332 0.0045121466 0.060420137 0.022359265 -0.03744035 -0.0071350094 -0.014290518
0.025258573 0.048240334 -0.013411359 -0.026847705 -0.04037247 0.030388981 0.019906402 -0.01633592
0.0011924558 -0.029804112 -0.030711867 0.016741728 -0.048805352 -0.021519966 -0.062196683 -0.05759514
-0.020204684 -0.028865492 -0.0063466053 -0.05907388 0.0075635994 -0.0005185482 -0.0048137107 0.034664713
0.055542797 0.046948288 0.023930935 -0.032031167 -0.017837526 0.01249307 0.02645409 -0.0048923907
-0.020493494 -0.01354549 0.034392696 0.0065927296 -0.004294468 -0.006863625 -0.03667394 -0.014300426
0.007840199 0.031982824 -0.002719341 -0.027141193 -0.011353929 0.022184404 -0.0057300483 0.003603266
0.025554307 0.03200381 0.011549641 -0.007775384 0.031321514 0.004863227 0.039149843 0.02206226
0.0019838428 0.027295133 0.0149702905 0.008655308 -0.018826427 -0.032395735 -0.018403292 0.058862705
0.05890026 0.0056924927 0.00983211 0.0067995037 0.049049426 0.020270964 0.0049532675 0.01996324
0.017956568 0.017595774 0.038477518 0.0387817 0.021028003 -0.028298091 0.020126753 0.0024348544
0.058437843 -0.026902849 0.018519532 0.026195638 0.02354656 0.024022216 -0.011606665 0.027833624
0.04770347 0.0140947085 0.0048193485 0.0207083 0.010906863 0.04687861 0.019882701 0.015492088
-0.047657497 -0.04056195 -0.026978223 -0.06604054 -0.010162601 -0.016377175 -0.034493763 -0.03881286
-0.0043697753 -0.034929387 -0.046339665 -0.038564466 -0.015213032 0.0062647252 -0.031168621 -0.01646454
-0.020972487 -0.028515162 -0.0046521146 -0.019343628 -0.035399478 0.036822412 -0.013926208 -0.0591339
-0.010878704 -0.0017082894 -0.0512564 -0.014212642 -0.04175515 -0.018720975 -0.026109789 -0.00041846975
00000000: e2bb 9f3d 8a3c c23c c738 34bd e81f ffbc
00000010: c74b 71bd 0b2b 3b3b cd09 5f3d a44d a73c
00000020: 245e 01bd cad4 c6bd 031a 4a3d 6d6c 983c
00000030: 227b bebb df87 74bd c270 04be 9980 1b3d
00000040: 1b65 1b3d 7ccd 753c 3bce 52bd 122a 0dbe
00000050: 3a56 683c e878 a2bc a4c8 04bd f1d1 83bd
00000060: 55da a9bd 7435 2abd e354 6d3b d9c4 52bd
00000070: 99ec 1dbd 2d60 6b3d 0652 cf3c c5f9 3d3c
00000080: 5db4 3ebd a38e 49bd 7deb 953b 3c72 e03c
00000090: 40f6 60bd b864 c6bc 236e 84bb 0f2b 3f3d
000000a0: 443c 73bd b50a 1ebd 4061 c7bc 4198 99bc
000000b0: aafa 803d a1af b4bb 86f2 373b 58d4 09bd
000000c0: f55a e4bc 0a54 80bc 3268 003c 51e0 293d
000000d0: ec4d 613c cced 313d 17d3 423c eb90 3bbc
000000e0: fe3c 04b9 ba4b b13c 6f1e 313d 6c17 703c
000000f0: 15f2 e73b 4b83 bb3a f47f 653d d492 a63d
00000100: ba3f a1bb 6c36 513c aa95 b9bb a636 673d
00000110: c4d0 223c 4323 86bc 9292 78bc c40a b0ba
00000120: 6b77 38bb d786 543c b345 f83c fdb9 4a3c
00000130: 2849 cb3c 8653 1e3d a01c 02bd 853a ecbc
00000140: c670 15bd 2a70 c7bc 1e7c 24bd 8fb7 a4bc
00000150: 7046 f4bb ac4b 303d fa4a 313c 3ef5 5d3b
00000160: aace e1bc 189d ec3b 5d45 9cbc e07e 9c3a
00000170: 5826 9e3c 1a45 f13c baa3 c4bc dda9 913b
00000180: 7195 00bc 644a 5f3d f987 c03c c049 74bb
00000190: 75e5 2d3c cd27 93b8 2205 c63c 33ba 363d
000001a0: 6194 dd3b 3c2e 1a3d 8470 973c 2d2f d53c
000001b0: ee01 99bc 5d59 0abc fcd7 683b 6566 03bd
000001c0: b490 883c 6c71 9ebc da7c 2e3d ec37 fa3c
000001d0: edf1 27b9 a248 f2bb 2a84 2a3d 4c87 11bc
000001e0: f5fa 693c 8c0b 57ba a1da 933b 1b7b 773d
000001f0: c72a b73c 0d5b 19bd cccc e9bb c722 6abc
00000200: 11eb ce3c a897 453d 51bb 5bbc b8ef dbbc
00000210: 9a5d 25bd 50f2 f83c c012 a33c e8d2 85bc
00000220: 2d4c 9c3a c127 f4bc 7497 fbbc f325 893c
00000230: 1fe8 47bd a44a b0bc f3c1 7ebd e2e8 6bbd
00000240: 4b84 a5bc 5377 ecbc 2ff7 cfbb 74f7 71bd
00000250: 12d8 f73b 2eef 07ba 55bc 9dbb 96fc 0d3d
00000260: d880 633d d94c 403d cf0a c43c 1d33 03bd
00000270: 0120 92bc bcaf 4c3c 3fb6 d83c 5950 a0bb
00000280: f9e1 a7bc e7ed 5dbc 5bdf 0c3d d307 d83b
00000290: 9cb8 8cbb 42e8 e0bb 6a37 16bd 554c 6abc
000002a0: 2e74 003c 6c00 033d f936 32bb 3557 debc
000002b0: d405 3abc 11bc b53c 21c3 bbbb c624 6c3b
000002c0: 4457 d13c 6d16 033d b53a 3d3c a6c8 febb
000002d0: fd4a 003d b45b 9f3b 965b 203d eabb b43c
000002e0: 5c03 023b 0b9a df3c f345 753c fece 0d3c
000002f0: e139 9abc 64b1 04bd 80c2 96bc 051a 713d
00000300: 6641 713d 1788 ba3b dc16 213c 5fce de3b
00000310: 0de8 483d 4b0f a63c 054f a23b f389 a33c
00000320: a719 933c 0325 903c 9a9a 1d3d 8fd9 1e3d
00000330: eb42 ac3c 66d1 e7bc dce0 a43c 1492 1f3b
00000340: 855c 6f3d 5d63 dcbc 46b6 973c 3c98 d63c
00000350: b7e4 c03c 3dca c43c e229 3ebc 5703 e43c
00000360: b764 433d 7eed 663c a0eb 9d3b 74a4 a93c
00000370: b3b2 323c c903 403d 0ce1 a23c 87d2 7d3c
00000380: 8234 43bd 4a24 26bd 6f01 ddbc 4340 87bd
00000390: 0a81 26bc 6d29 86bc 5549 0dbd 3cfa 1ebd
000003a0: 5530 8fbb 1e12 0fbd a9ce 3dbd c6f5 1dbd
000003b0: 1540 79bc 5348 cd3b 5655 ffbc a5e0 86bc
000003c0: 7ece abbc a198 e9bc c470 98bb 8776 9ebc
000003d0: 0bff 10bd 19d3 163d c02a 64bc 6336 72bd
000003e0: 973c 32bc aee8 dfba 3bf2 51bd 24dc 68bc
000003f0: 7307 2bbd bb5c 99bc 32e4 d5bc 0f66 dbb9

bias f4 [32]
-0.0023849427 -0.043059446 -0.02647855 -0.024381109 -0.03584501 0.017831737 0.0739584 -0.00428426
0.034200512 0.05913316 -0.014324153 0.020801784 -0.013383194 -0.004432628 -0.02014871 -0.045871425
0.004047565 -0.066921234 -0.03964774 -0.03652354 0.039660525 -0.02626383 0.0020290026 0.020848751
0.03801862 0.011983272 0.03522438 -0.01397258 0.007870874 -0.028044816 -0.029535413 0.032831803
00000000: b34c 1cbb 1a5f 30bd 8be9 d8bc e4ba c7bc
00000010: 38d2 12bd dd13 923c 8077 973d fa62 8cbb
00000020: d615 0c3d 9d35 723d daaf 6abc 8168 aa3c
00000030: 2f45 5bbc 943f 91bb e80e a5bc ade3 3bbd
00000040: 70a1 843b 000e 89bd ab65 22bd b599 15bd
00000050: 1373 223d 3e27 d7bc 04f9 043b 00cb aa3c
00000060: 6ab9 1b3d 7c55 443c 7147 103d 40ed 64bc
00000070: d7f4 003c 3ebe e5bc 40f4 f1bc a47a 063d

weight f4 [32]
0.54967827 0.51682276 0.44802195 0.077563025 0.15913963 0.20644009 0.69880944 0.20279163
0.06511513 0.8876263 0.41273978 0.16836545 0.20121646 0.883369 0.34859785 0.8890686
0.56498134 0.5038228 0.9691319 0.6070197 0.15293428 0.20750152 0.2370519 0.8518323
0.67409 0.8647702 0.32302526 0.6952045 0.48780507 0.24816409 0.8018308 0.8337029
00000000: b7b7 0c3f 7f4e 043f 2263 e53e 5dd9 9e3d
00000010: 80f5 223e 0865 533e 2de5 323f 9ca8 4f3e
00000020: 155b 853d 7a3b 633f a152 d33e fe67 2c3e
00000030: b00b 4e3e 7924 623f 6b7b b23e 009a 633f
00000040: 9ea2 103f 88fa 003f 0719 783f a565 1b3f
00000050: ce9a 1c3e 477b 543e bcbd 723e ae11 5a3f
00000060: 2a91 2c3f 9461 5d3f 9163 a53e ecf8 313f
00000070: 96c1 f93e ba1e 7e3e c944 4d3f 8e6d 553f

bias f4 [32]
-0.08330041 -0.07193033 -0.10848307 -0.06479766 -0.059650827 -0.056103684 -0.053723577 -0.053019755
-0.048471417 -0.05780435 -0.05133259 -0.05978795 -0.07645919 -0.1145706 -0.067259304 -0.06751602
-0.10035896 -0.039429374 -0.07333601 -0.027934747 -0.066192515 -0.031058203 -0.0888712 -0.08518464
-0.08631478 -0.06856461 -0.09435926 -0.05331613 -0.0107220495 -0.051096693 -0.014548315 -0.0454137
00000000: 6899 aabd 3550 93bd 5f2c debd a3b4 84bd
00000010: 6d54 74bd facc 65bd 410d 5cbd 3e2b 59bd
00000020: f789 46bd 41c4 6cbd 1f42 52bd 36e4 74bd
00000030: a396 9cbd fea3 eabd 3fbf 89bd d745 8abd
00000040: 0089 cdbd b280 21bd 3131 96bd 69d7 e4bc
00000050: f18f 87bd c66d febc 1b02 b6bd 4975 aebd
00000060: cec5 b0bd 9a6b 8cbd 6d3f c1bd 0462 5abd
00000070: 89ab 2fbc c44a 51bd 0e5c 6ebc b703 3abd

running_mean f4 [32]
0.036564715 0.14937781 -1.2125264 -0.079790354 0.18928842 -0.2673492 0.13180444 -0.4826124
-0.16486844 -0.8722466 0.3146251 -0.6995868 -0.8390645 -0.617332 -0.2730596 -0.6674801
-0.77121305 -0.67382205 0.14654888 -0.28060815 -0.94902986 0.36899933 0.0981539 -0.5823821
-0.98095435 0.07324624 -0.67968553 -0.63546044 0.27512538 -0.6340858 -1.1984836 0.34574383
00000000: e2c4 153d 7ff6 183e 1134 9bbf 2069 a3bd
00000010: d3d4 413e ffe1 88be bef7 063e f918 f7be
00000020: 46d3 28be 8e4b 5fbf 8b16 a13e 1f18 33bf
00000030: eecc 56bf 7809 1ebf 78ce 8bbe fadf 2abf
00000040: 386e 45bf 9a7f 2cbf e910 163e dfab 8fbe
00000050: 9ff3 72bf 7bed bc3e e904 c93d fe16 15bf
00000060: d31f 7bbf 2002 963d dfff 2dbf 89ad 22bf
00000070: 3cdd 8c3e 7253 22bf e967 99bf 5605 b13e

running_var f4 [32]
0.9251803 0.3001735 0.568805 0.23722236 0.41454807 0.62142277 0.70978004 0.28689992
0.5864042 0.3151085 0.59641355 0.4880387 0.3756217 0.57334584 0.27922642 0.5929465
0.28255638 0.5932797 0.5555735 0.6052292 0.31509134 0.9063004 0.3402188 0.37185022
0.36168185 0.3677076 0.36295632 0.44869065 0.7461688 0.45980763 0.5425941 0.75018364
00000000: 9ed8 6c3f 57b0 993e 349d 113f 6bea 723e
00000010: a53f d43e 9015 1f3f 25b4 353f 8ce4 923e
00000020: 961e 163f e755 a13e 8fae 183f 35e0 f93e
00000030: 7d51 c03e cbc6 123f c4f6 8e3e 58cb 173f
00000040: 3bab 903e 2ee1 173f 113a 0e3f 4df0 1a3f
00000050: a753 a13e 4e03 683f 2931 ae3e 2763 be3e
00000060: 5d2e b93e 2c44 bc3e 69d5 b93e c8ba e53e
00000070: eb04 3f3f e86b eb3e 72e7 0a3f 090c 403f

weight f4 [64, 32, 3, 3]
0.06056192 0.008481681 -0.036675338 0.06741055 -0.025302112 -0.021830786 0.060299758 0.004904546
-0.030846102 -0.01371013 0.006917342 -0.04513679 0.024727162 -0.027846858 0.02663536 -0.060547374
-0.05309219 0.0069095297 0.014183149 0.04668417 -0.07631435 0.010100518 0.0014024595 0.0032730955
-0.044256933 0.06625395 0.0034450707 0.09132784 -0.08378609 -0.09242633 -0.06721257 0.031521387
0.03416134 0.07339156 0.05417971 0.009052687 -0.050155528 -0.035848856 -0.090083234 -0.028178595
-0.058416206 0.062941596 -0.0640224 0.0045646983 -0.038027126 -0.014796307 -0.033277698 -0.08522679
-0.120205805 -0.0672724 -0.022305947 0.03646379 0.07117206 0.069146775 0.049713306 0.040804926
-0.03180746 -0.005704095 -0.03810081 -0.019595185 -0.048238624 0.0014805828 -0.07327528 -0.010637561
-0.036221486 -0.057021897 0.027011126 0.0147207435 -0.024329284 -0.07621218 -0.05152737 -0.0037674257
-0.026052907 -0.023189288 -0.043293674 -0.0062229754 -0.012471493 0.08847686 0.06373462 0.06065738
-0.043312214 0.066132985 -0.03149481 -0.01476513 0.036207177 -0.048829596 0.056065924 0.04462039
0.0012757982 0.048470452 -0.055363324 -0.018483093 0.009067249 0.0115673635 0.047652278 -0.007762629
0.011422667 -0.03947788 -0.020047348 0.04778786 -0.044761904 0.014371676 -0.07946973 -0.01473839
-0.014549886 0.010780969 0.036623254 -0.06356596 0.018331453 0.058382455 -0.041597713 0.05012853
-0.082020566 -0.0073469896 -0.067306206 0.017674372 -0.026068242 -0.006549827 -0.008479211 -0.080369584
0.03726184 0.0127699245 0.05675067 0.047767986 0.03649796 0.014588526 0.016955672 0.05911041
0.04302235 -0.053821728 -0.03712362 -0.048100058 -0.006799178 0.031794533 -0.046415158 0.047543954
-0.06633003 -0.04363787 -0.06766453 -0.028197674 -0.014430465 0.009204536 0.008399594 0.07157007
-0.016135775 -0.020874193 -0.04809715 -0.029664831 -0.05872438 0.034767475 -0.052134916 -0.048315458
0.029379867 -0.022858378 0.041567482 -0.05678673 0.066798426 0.0032323124 -0.0856008 -0.044901364
-0.014376443 -0.004778712 0.012668499 -0.015219401 0.039266497 -0.020401914 -0.05055678 -0.04343307
0.12502332 0.0462702 0.06603962 0.0614656 -0.041533027 -0.05229557 -0.0027671615 0.006818658
-0.0380304 -0.074301265 0.03919884 -0.085646324 -0.01960418 -0.064816415 -0.049474373 -0.063159294
0.018522019 -0.0029746678 -0.05227905 0.0606406 0.07841902 0.030240957 -0.0077335294 -0.00191863
0.043237563 0.06626403 -0.037284385 0.01822525 0.030934198 -0.04937364 -0.02021031 0.032097142
-0.07732034 -0.033182375 0.020127129 -0.059513286 -0.056992304 -0.1138566 -0.052686486 0.05094022
0.046993565 -0.05758382 -0.06182762 -0.0026075086 0.009372993 -0.025257608 -0.0042955633 -0.016168237
-0.051381186 -0.038551304 -0.017988363 -0.06473332 -0.05983046 0.026374258 -0.04270771 0.04118329
-0.02482325 0.033074837 0.0039456566 -0.0010627354 0.006762576 0.046043072 -0.0072884425 -0.009765874
0.015731296 0.02722738 0.061417352 -0.015345375 -0.022176508 0.035520844 -0.030602917 -0.06675366
-0.049701996 0.07214208 -0.06081083 -0.011190793 -0.023821365 -0.051799208 -0.101713635 -0.010038262
0.007758674 0.0025157651 0.020403987 0.069615446 0.06660576 0.009483951 0.032950744 -0.02827797
00000000: c70f 783d c0f6 0a3c e138 16bd 8b0e 8a3d
00000010: 6046 cfbc 7ad6 b2bc e1fc 763d 50b6 a03b
00000020: f7b0 fcbc 74a0 60bc dfaa e23b 5be1 38bd
00000030: 9e90 ca3c 181f e4bc 6632 da3c 8600 78bd
00000040: 3277 59bd 5669 e23b 7060 683c e637 3f3d
00000050: b34a 9cbd a57c 253c bbd2 b73a 6e81 563b
00000060: c246 35bd 27b0 873d b2c6 613b 170a bb3d
00000070: 0b98 abbd 044a bdbd bea6 89bd 921c 013d
00000080: c3ec 0b3d 504e 963d 8beb 5d3d b951 143c
00000090: e26f 4dbd 40d6 12bd 8f7d b8bd ccd6 e6bc
000000a0: d545 6fbd 86e7 803d 2d1e 83bd 7793 953b
000000b0: 55c2 1bbd 366c 72bc 324e 08bd 628b aebd
000000c0: 762e f6bd 1dc6 89bd f6ba b6bc 0e5b 153d
000000d0: a8c2 913d d39c 8d3d 2ea0 4b3d 1123 273d
000000e0: 8a48 02bd 6be9 babb 980f 1cbd 1586 a0bc
000000f0: dd95 45bd 1d10 c23a 5a11 96bd 2a49 2ebc
00000100: fb5c 14bd cb8f 69bd 7046 dd3c 462f 713c
00000110: 354e c7bc 2215 9cbd 5d0e 53bd eae6 76bb
00000120: e86c d5bc 76f7 bdbc b554 31bd 1aea cbbb
00000130: 3c55 4cbc 5b33 b53d 4c87 823d df73 783d
00000140: 2668 31bd bb70 873d b400 01bd 72e9 71bc
00000150: fa4d 143d 8b01 48bd 62a5 653d dfc3 363d
00000160: af38 a73a f488 463d a7c4 62bd db69 97bc
00000170: cc8e 143c 0a85 3d3c 092f 433d a75d febb
00000180: 2326 3b3c 8fb3 21bd 563a a4bc 34bd 433d
00000190: 4258 37bd 2e77 6b3c 07c1 a2bd 4a79 71bc
000001a0: a562 6ebc a9a2 303c 4402 163d df2e 82bd
000001b0: d82b 963c 7122 6f3d 5d62 2abd 9353 4d3d
000001c0: 66fa a7bd 04bf f0bb d6d7 89bd d8c9 903c
000001d0: 118d d5bc ee9f d6bb 63ec 0abc cf98 a4bd
000001e0: df9f 183d f238 513c 6473 683d 5da8 433d
000001f0: e37e 153d b704 6f3c 9fe6 8a3c c21d 723d
00000200: 3438 303d 2c74 5cbd f00e 18bd 9104 45bd
00000210: a4cb debb fc3a 023d d21d 3ebd 73bd 423d
00000220: 0ad8 87bd a0bd 32bd b393 8abd cffe e6bc
00000230: c26d 6cbc 9fce 163c 739e 093c 5493 923d
00000240: 2c2f 84bc 5b00 abbc 8401 45bd a903 f3bc
00000250: fa88 70bd 5768 0e3d 6c8b 55bd 6ee6 45bd
00000260: 0cae f03c 7e41 bbbc aa42 2a3d 3499 68bd
00000270: 9dcd 883d 34d5 533b 794f afbd 7eea 37bd
00000280: 2c8b 6bbc be96 9cbb 898f 4f3c cb5a 79bc
00000290: e8d5 203d ea21 a7bc a014 4fbd e0e6 31bd
000002a0: 1d06 003e d285 3d3d c83f 873d 5ac3 7b3d
000002b0: 891e 2abd e133 56bd 4459 35bb 0d6f df3b
000002c0: c4c5 1bbd 432b 98bd f68e 203d 5767 afbd
000002d0: f298 a0bc 78be 84bd a4a5 4abd a959 81bd
000002e0: 7dbb 973c a5f2 42bb 8f22 56bd 4762 783d
000002f0: 279a a03d e2bb f73c 8c69 fdbb 8a7a fbba
00000300: df19 313d 70b5 873d 83b7 18bd 1f4d 953c
00000310: b769 fd3c 043c 4abd 1890 a5bc 4b78 033d
00000320: 205a 9ebd 3eea 07bd a6e1 a43c 34c4 73bd
00000330: c370 69bd a62d e9bd c9cd 57bd b1a6 503d
00000340: 537c 403d 03dd 6bbd f53e 7dbd bce2 2abb
00000350: 2f91 193c 0be9 cebc ccc1 8cbb 4073 84bc
00000360: 1475 52bd f9e7 1dbd 555c 93bc e792 84bd
00000370: c910 75bd d40e d83c 48ee 2ebd cfaf 283d
00000380: 215a cbbc 7b79 073d 914a 813b 7c4b 8bba
00000390: 9998 dd3b a997 3c3d e3d3 eebb 0b01 20bc
000003a0: ebde 803c f40b df3c c390 7b3d 2b6b 7bbc
000003b0: 82ab b5bc 4e7e 113d f8b2 fabc 25b6 88bd
000003c0: 5294 4bbd 3abf 933d c714 79bd 9659 37bc
000003d0: 0625 c3bc 682b 54bd 3d4f d0bd 8677 24bc
000003e0: 7a3c fe3b 89df 243b 4326 a73c 8b92 8e3d
000003f0: 9a68 883d 9362 1b3c 5cf7 063d 34a7 e7bc

bias f4 [64]
-0.009436034 0.043283448 -0.04090406 -0.036016 0.002689234 -0.0034716325 -0.040545195 0.035547182
0.062322933 -0.032822005 0.0040874737 -0.03243935 0.033163857 -0.056885596 -0.027775107 -0.022588786
0.013778963 -0.036841385 -0.02188957 -0.013213902 0.01955956 0.034723666 -0.012097941 -0.01489477
-0.011225203 -0.020571515 0.015851906 -0.05550526 0.0054814685 -0.015749684 -0.0048490004 0.047158327
0.019217947 -0.028552625 0.056185868 -0.013712241 -0.041693162 -0.0676783 -0.055201568 0.045326293
0.04359233 0.0072296993 -0.04200826 -0.012688905 0.019819768 0.025971847 -0.0140087465 -0.05222784
0.049183894 -0.03855638 -0.006480619 -0.023789989 -0.0061322674 0.011668058 -0.011980542 -0.055440634
0.029332185 0.0048688767 -0.021205716 -0.022457838 -0.011039906 0.041564804 0.023680126 0.009369654
00000000: 9899 1abc fc49 313d 048b 27bd 8385 13bd
00000010: dc3d 303b 5484 63bb b812 26bd ec99 113d
00000020: 5546 7f3d 5e70 06bd 37f0 853b 20df 04bd
00000030: d3d6 073d df00 69bd 9f88 e3bc 1e0c b9bc
00000040: 29c1 613c fee6 16bd c151 b3bc 1f7f 58bc
00000050: 5f3b a03c 673a 0e3d 7136 46bc 3209 74bc
00000060: eae9 37bc 9885 a8bc dbdb 813c 7c59 63bd
00000070: e49d b33b 7b05 81bc 5de4 9ebb 1729 413d
00000080: f56e 9d3c 32e7 e9bc 2723 663d 4fa9 60bc
00000090: 73c6 2abd ec9a 8abd 0a1b 62bd 10a8 393d
000000a0: df8d 323d 1de7 ec3b da10 2cbd 20e5 4fbc
000000b0: 115d a23c e9c2 d43c f184 65bc dcec 55bd
000000c0: 0d75 493d 4bed 1dbd 5f5b d4bb 39e3 c2bc
000000d0: 30f1 c8bb 622b 3f3c 094a 44bc b815 63bd
000000e0: 0d4a f03c 198b 9f3b 9cb7 adbc 80f9 b7bc
000000f0: b9e0 34bc db3f 2a3d d3fc c13c 2d83 193c

weight f4 [64]
0.45067978 0.3264157 0.5050574 0.106276706 0.20964363 0.5099661 0.13074207 0.36817914
0.17529346 0.70591784 0.45935157 0.28592366 0.20126547 0.6555945 0.9433779 0.49474865
0.18077299 0.15750095 0.6057955 0.8142714 0.70186174 0.17088924 0.26188207 0.594692
0.21972318 0.32958367 0.89823556 0.41777426 0.9310804 0.098267384 0.53372896 0.29453626
0.29495853 0.3865028 0.32646444 0.71642333 0.7834541 0.567576 0.58919615 0.42466646
0.23787868 0.0035028271 0.25122827 0.41742057 0.7037943 0.31328112 0.5565848 0.30723426
0.30024853 0.45485398 0.8916596 0.26956102 0.2861708 0.27983367 0.7923118 0.6782403
0.44202098 0.7770146 0.7880945 0.18813092 0.96098715 0.24751922 0.561737 0.35181478
00000000: 80bf e63e f51f a73e 714b 013f 9aa7 d93d
00000010: d2ac 563e 238d 023f 40e1 053e fa81 bc3e
00000020: 2180 333e 08b7 343f 2130 eb3e 9664 923e
00000030: 8918 4e3e 0bd5 273f 3781 713f b24f fd3e
00000040: 8e1c 393e ee47 213e 6a15 1b3f 1774 503f
00000050: 36ad 333f 97fd 2e3e 6815 863e bc3d 183f
00000060: 1dff 603e 31bf a83e c4f2 653f 82e6 d53e
00000070: 495b 6e3f 6940 c93d 76a2 083f 75cd 963e
00000080: ce04 973e b2e3 c53e 5926 a73e 8567 373f
00000090: 7390 483f a94c 113f 8fd5 163f e26d d93e
000000a0: 7896 733e b08f 653b fea0 803e 26b8 d53e
000000b0: dd2b 343f 6266 a03e 577c 0e3f cf4d 9d3e
000000c0: 2dba 993e 9fe2 e83e ce43 643f e703 8a3e
000000d0: fb84 923e 5c46 8f3e f2d4 4a3f 28a1 2d3f
000000e0: 9350 e23e 6eea 463f 90c0 493f 64a5 403e
000000f0: 4103 763f ae75 7d3e ffcd 0f3f 1121 b43e

bias f4 [64]
-0.022558073 -0.015577522 -0.10962607 -0.023896795 -0.043647166 -0.02215363 0.0046948385 -0.018036349
-0.038939793 0.0052772416 -0.02631981 0.013039651 0.004369354 -0.07921925 -0.03213577 -0.03390172
-0.01400562 -0.031616405 -0.06948602 -0.04125997 -0.078745596 -0.036030106 -0.047981195 -0.047374573
-0.006244473 -0.002182096 -0.075819306 0.00078328274 0.007043181 -0.068490565 0.024441935 -0.030625297
-0.049934536 -0.076056235 -0.036434427 -0.048371363 -0.046668727 -0.027753819 -0.020508053 -0.03222998
-0.035214495 -0.011554408 -0.013004304 -0.07928804 -0.021429814 -0.057780214 -0.074029535 -0.0049717505
-0.037097856 -0.08251644 -0.011955164 -0.056544304 -0.047176447 -0.050307944 -0.022521641 -0.027724177
-0.034150735 0.0033847662 -0.026061287 -0.05169511 -0.053438928 -0.00981438 -0.085466236 0.016542412
00000000: b5cb b8bc dd38 7fbc a283 e0bd 36c3 c3bc
00000010: 5fc7 32bd 887b b5bc 29d7 993b f7c0 93bc
00000020: 557f 1fbd b6ec ac3b a49c d7bc 43a4 553c
00000030: cc2c 8f3b b43d a2bd cca0 03bd 88dc 0abd
00000040: d477 65bc 3480 01bd b04e 8ebd 3700 29bd
00000050: 5f45 a1bd 4e94 13bd ee87 44bd d70b 42bd
00000060: 709e ccbb 7f01 0fbb 2747 9bbd 3755 4d3a
00000070: 7cca e63b c844 8cbd 743a c83c e7e1 fabc
00000080: 2888 4cbd 5fc3 9bbd 443c 15bd 0d21 46bd
00000090: b527 3fbd fa5b e3bc 8100 a8bc 9503 04bd
000000a0: 133d 10bd b34e 3dbc 0110 55bc c561 a2bd
000000b0: 948d afbc f2aa 6cbd cc9c 97bd 11ea a2bb
000000c0: ecf3 17bd 61fe a8bd 98df 43bc 009b 67bd
000000d0: 173c 41bd b40f 4ebd 4e7f b8bc d01d e3bc
000000e0: a4e1 0bbd f4d2 5d3b 7b7e d5bc 40be 53bd
000000f0: c7e2 5abd 7ecc 20bc ec08 afbd f483 873c

running_mean f4 [64]
-0.39854938 -0.13925378 0.7026265 0.13905998 -0.14715236 -0.20562197 -0.0018787676 -0.62277794
0.2597118 -0.87450516 0.5336252 -0.16421005 -0.032276127 -0.31575602 -0.11528022 -0.25195006
0.05716128 0.07086874 -0.07867425 0.197145 -0.6128636 0.18225655 0.25692612 0.26357895
-0.6431866 -0.40918282 -0.6746543 -0.50865877 -0.44056323 -0.0045223855 0.060139827 -0.10758563
0.35105333 0.061539784 -0.5087857 0.11135825 -0.20638803 0.030424526 0.14241117 -0.17620097
-0.19602501 -0.34925675 -0.32148603 0.27104393 -0.2990975 0.2618019 0.51680434 -0.22456379
-0.52548957 0.45089963 -0.3402883 -0.3665638 0.14233024 0.100041404 -0.7251234 -0.17860337
-0.0789689 -0.2935315 -0.09294856 0.6559918 0.010436032 -0.31453252 0.526882 -0.58481646
00000000: aa0e ccbe 8b98 0ebe 55df 333f bd65 0e3e
00000010: 1caf 16be 918e 52be fb40 f6ba 606e 1fbf
00000020: f2f8 843e 92df 5fbf a99b 083f ae26 28be
00000030: f933 04bd c6aa a1be 0918 ecbd 99ff 80be
00000040: f221 6a3d a123 913d f71f a1bd 61e0 493e
00000050: a1e4 1cbf 76a1 3a3e d28b 833e d2f3 863e
00000060: e1a7 24bf 6980 d1be 25b6 2cbf 7637 02bf
00000070: 8191 e1be 8530 94bb 2e55 763d db55 dcbd
00000080: 43bd b33e 2411 7c3d c83f 02bf cb0f e43d
00000090: 6257 53be db3c f93c 3cd4 113e 076e 34be
000000a0: c8ba 48be c8d1 b2be d199 a4be 45c6 8a3e
000000b0: 4f23 99be e60a 863e 4a4d 043f 0df4 65be
000000c0: 7c86 06bf 51dc e63e 453a aebe 40ae bbbe
000000d0: 05bf 113e 82e2 cc3d b0a1 39bf cde3 36be
000000e0: 72ba a1bd c349 96be d15b bebd 14ef 273f
000000f0: e4fb 2a3c 680a a1be bde1 063f 88b6 15bf

running_var f4 [64]
0.3937879 0.43411347 0.5677189 0.23247452 0.18065804 0.25239512 0.26337132 0.58272904
0.18873048 0.50847375 0.28256968 0.20835687 0.22195363 0.28073862 0.39525086 0.33338216
0.34692183 0.17770572 0.24357764 0.3675495 0.6519654 0.1742892 0.24731472 0.25926813
0.62083304 0.29962784 0.5612209 0.4005169 0.46075347 0.30876124 0.2605588 0.25604463
0.32263908 0.34623536 0.46195817 0.27567655 0.16388549 0.34426272 0.27672204 0.52362514
0.4265972 0.12757711 0.32569188 0.341322 0.2522601 0.23692255 0.4279833 0.36918017
0.47449687 0.50913316 0.33104303 0.4442791 0.26448816 0.19157006 0.751228 0.4271679
0.24307442 0.34930858 0.3180588 0.34380716 0.2838351 0.30530244 0.4550867 0.7238542
00000000: 919e c93e 1f44 de3e 0756 113f cd0d 6e3e
00000010: 6cfe 383e ef39 813e 9bd8 863e bb2d 153f
00000020: 9042 413e 562b 023f f9ac 903e 815b 553e
00000030: d047 633e f9bc 8f3e 525e ca3e 11b1 aa3e
00000040: bd9f b13e 7df8 353e 6b6c 793e 732f bc3e
00000050: 34e7 263f de78 323e 1240 7d3e cbbe 843e
00000060: eaee 1e3f d268 993e 2cac 0f3f 8d10 cd3e
00000070: e1e7 eb3e f415 9e3e f767 853e 4818 833e
00000080: f330 a53e c345 b13e c885 ec3e 7a25 8d3e
00000090: 99d1 273e 3443 b03e 83ae 8d3e 4c0c 063f
000000a0: f36a da3e 93a3 023e 16c1 a63e c2c1 ae3e
000000b0: 3c28 813e d39b 723e a120 db3e 2f05 bd3e
000000c0: 41f1 f23e 8d56 023f 797e a93e 8d78 e33e
000000d0: fe6a 873e f12a 443e 7a50 403f c0b5 da3e
000000e0: 80e8 783e 93d8 b23e 9ad8 a23e 7e07 b03e
000000f0: d652 913e 9a50 9c3e 2001 e93e 824e 393f

weight f4 [64, 64, 3, 3]
0.048998393 -0.0406434 0.0029352508 0.066113256 0.020225853 0.036239356 -0.027839629 -0.0043529533
0.08118636 -0.0111263925 0.022113288 0.07246633 -0.05683848 -0.03297893 -0.0063267956 -0.072663456
0.030180622 0.05129353 0.023617303 0.041956607 0.041354332 -0.01675939 -0.010170224 0.031379078
-0.035100356 -0.057904936 -0.022442346 -0.012338447 0.005861882 -0.023331646 0.004065324 -0.0051945327
0.010920418 -0.02826151 0.013095113 -0.07115533 0.04472472 -0.041688006 0.041416246 -0.029109105
-0.054283004 0.05546458 0.012875966 -0.055019923 0.0038810289 0.056464233 0.101371884 0.05116047
-0.07235208 -0.007893722 0.06368875 -0.01570114 0.07364507 0.13792025 -0.04431123 0.007785429
-0.08603296 -0.0062215817 0.0589526 0.08056404 -0.026298704 -0.04334008 -0.06486244 0.02760536
-0.019285206 0.06692825 -0.07810145 -0.008891935 -0.017731043 0.05471999 -0.062427994 0.026507089
-0.037283465 0.030719902 -0.031698227 -0.023266345 -0.00580392 0.0129282465 -0.021448433 0.028992578
-0.032132164 -0.02921356 -0.10570709 -0.01476242 -0.05484218 -0.051430777 -0.029010573 -0.014459271
-0.04232902 0.04646263 0.009615409 -0.005398022 -0.024685355 -0.04796506 -0.02026726 0.03281419
-0.01462429 -0.035959933 -0.011127275 -0.038362943 0.014194556 0.053107042 -0.029832492 -0.009990823
0.069353305 0.028423414 0.03404457 0.013158371 -0.07019543 -0.005340931 0.027046103 -0.04264246
0.03012788 -0.0023564694 0.10765574 0.09730367 0.016383175 0.014024391 0.042491153 0.04738345
0.041070543 0.037193477 -0.06558543 -0.012649284 0.026520323 -0.009244982 0.016889116 0.014952204
-0.06689986 -0.08388566 -0.032461826 -0.0094419485 0.032343347 0.009236236 0.03803794 0.020745803
0.029212924 0.03214927 -0.08380402 -0.034485925 0.005824436 -0.015348425 -0.008500718 -0.0038368625
0.012602629 0.039967064 0.0051952554 0.11335295 0.070657775 -0.005906368 0.004872809 -0.0109155895
0.044700023 0.0077614137 0.021130444 -0.032390654 -0.06526229 -0.014833507 -0.039211396 0.0015097861
-0.047390804 0.017971383 0.004153428 0.014439087 -0.05264277 -0.017660486 0.020294882 -0.03773052
0.018124292 0.00429323 -0.02907731 0.050848354 -0.0050816764 0.0039977855 -0.027716827 0.0047565782
0.009981957 0.06401969 0.028072441 -0.0047070566 -0.045892246 -0.017935833 -0.03319407 -0.03627823
0.031364806 0.011937749 0.007396328 0.023954112 -0.023441177 0.13195388 0.0699802 -0.0662497
-0.040151346 -0.004910381 -0.019855585 -0.012516011 0.08690574 0.11160814 0.041161217 0.03092321
-0.001330222 0.049840707 -0.024195394 0.004696445 -0.0039058668 -0.0008721788 0.053361632 0.051318992
-0.017259628 -0.051511273 -0.005323341 -0.09857655 0.02985741 0.0016879137 -0.047066934 0.11197998
-0.03997238 -0.0033080212 -0.045377865 -0.050814625 -0.076408476 -0.07512189 0.13593267 -0.01675376
-0.04439772 -0.04127628 -0.0562331 0.08018936 -0.039532345 0.008198525 0.027976118 -0.12044956
0.007417893 -0.050609183 0.01150577 0.06738194 0.050776154 -0.005072914 -0.015224865 0.018066604
0.0010963783 0.005940217 0.008454797 0.090146765 0.012564883 -0.0039613624 0.011845715 -0.028257784
-0.04087752 0.018180298 0.0028315207 0.040999223 -0.012966672 0.0033030743 0.060915608 0.07796235
00000000: 8ab2 483d b279 26bd 565d 403b 6366 873d
00000010: b0b0 a53c b86f 143d ef0f e4bc 38a3 8ebb
00000020: 0945 a63d 794b 36bc ed26 b53c 3a69 943d
00000030: 77cf 68bd ea14 07bd 0251 cfbb 94d0 94bd
00000040: 5a3d f73c 2a19 523d 1379 c13c b1da 2b3d
00000050: 2963 293d fd4a 89bc 03a1 26bc 5987 003d
00000060: 64c5 0fbd ba2d 6dbd 03d9 b7bc 3327 4abc
00000070: 0815 c03b 0222 bfbc 6936 853b e636 aabb
00000080: 8eeb 323c af84 e7bc e38c 563c e3b9 91bd
00000090: 4531 373d 0bc1 2abd 15a4 293d 3876 eebc
000000a0: db57 5ebd d42e 633d b7f5 523c 925c 61bd
000000b0: dc58 7e3b 0a47 673d 109c cf3d a48d 513d
000000c0: 542d 94bd ab54 01bc 3f6f 823d ad9f 80bc
000000d0: 3ad3 963d f73a 0d3e b17f 35bd e91c ff3b
000000e0: 0c32 b0bd 69de cbbb 4878 713d c2fe a43d
000000f0: 6170 d7bc 5e85 31bd 99d6 84bd a324 e23c
00000100: 02fc 9dbc ae11 893d a7f3 9fbd 7baf 11bc
00000110: b140 91bc 1122 603d 7fb4 7fbd 6525 d93c
00000120: 8cb6 18bd 4ea8 fb3c 00d6 01bd 1099 bebc
00000130: cf2e bebb ffd0 533c a0b4 afbc d881 ed3c
00000140: 049d 03bd 4751 efbc f57c d8bd 14de 71bc
00000150: 32a2 60bd 14a9 52bd 95a7 edbc 94e6 6cbc
00000160: 3261 2dbd 994f 3e3d f389 1d3c e4e1 b0bb
00000170: f138 cabc 0377 44bd 8607 a6bc 2c68 063d
00000180: b89a 6fbc b94a 13bd 2d4f 36bc 7622 1dbd
00000190: 4890 683c c586 593d 4563 f4bc 8db0 23bc
000001a0: 1b09 8e3d 38d8 e83c 5272 0b3d 3596 573c
000001b0: 9fc2 8fbd fa02 afbb ca8f dd3c dca9 2ebd
000001c0: bece f63c ff6e 1abb 9d7a dc3d 2647 c73d
000001d0: 0236 863c 8fc6 653c 340b 2e3d 2615 423d
000001e0: 9639 283d 3058 183d a751 86bd f13e 4fbc
000001f0: 2641 d93c 4478 17bc 0b5b 8a3c 17fa 743c
00000200: cb02 89bd 3fcc abbd b1f6 04bd 67b2 1abc
00000210: 757a 043d 9553 173c accd 1b3d 1af3 a93c
00000220: f14f ef3c f4ae 033d 71a1 abbd 1d41 0dbd
00000230: e9da be3b f677 7bbc 9846 0bbc df73 7bbb
00000240: 427b 4e3c 81b4 233d f63c aa3b 9725 e83d
00000250: 06b5 903d 358a c1bb 16ac 9f3b 4dd7 32bc
00000260: 5f17 373d 7553 fe3b c119 ad3c 10ac 04bd
00000270: 3ca8 85bd 3d08 73bc 219c 20bd 04e4 c53a
00000280: dc1c 42bd b938 933c 7b19 883b ec91 6c3c
00000290: f29f 57bd b9ac 90bc 7441 a63c 518b 1abd
000002a0: 6579 943c 39ae 8c3b 8a33 eebc 5d46 503d
000002b0: 3184 a6bb dbff 823b 660e e3bc 12dd 9b3b
000002c0: 5d8b 233c c11c 833d 2df8 e53c a73d 9abb
000002d0: 82f9 3bbd 2bee 92bc 81f6 07bd 7b98 14bd
000002e0: 6278 003d 8c96 433c e55c f23b 6a3b c43c
000002f0: b607 c0bc eb1e 073e c751 8f3d ecad 87bd
00000300: bd75 24bd 43e7 a0bb 2ea8 a2bc f40f 4dbc
00000310: a3fb b13d cf92 e43d aa98 283d ac52 fd3c
00000320: d85a aeba c525 4c3d 6b35 c6bc a3e4 993b
00000330: 92f9 7fbb eea2 64ba ba91 5a3d dd33 523d
00000340: 1064 8dbc 7cfd 52bd 6c6f aebb 81e2 c9bd
00000350: 8797 f43c fc3c dd3a 42c9 40bd c255 e53d
00000360: 14ba 23bd 63cb 58bb 24de 39bd ff22 50bd
00000370: 0c7c 9cbd 81d9 99bd ef31 0b3e 2e3f 89bc
00000380: 62da 35bd 5111 29bd ae54 66bd 523a a43d
00000390: abec 21bd 1b53 063c 2c2e e53c 42ae f6bd
000003a0: cc11 f33b 934b 4fbd b282 3c3c 8bff 893d
000003b0: a8fa 4f3d b03a a6bb b671 79bc 6a00 943c
000003c0: 5ab4 8f3a 27a6 c23b fd85 0a3c de9e b83d
000003d0: f0dc 4d3c 51ce 81bb 8814 423c de7c e7bc
000003e0: 306f 27bd d9ee 943c 0991 393b cdee 273d
000003f0: 2a72 54bc 6478 583b a582 793d b9aa 9f3d

bias f4 [64]
-0.01832496 -0.04893651 0.009560025 -0.006432301 -0.03492636 -0.016312875 -0.010141871 0.02999989
0.04630243 -0.012651059 0.006036613 -0.017636487 -0.032799613 -0.006563457 -0.015471253 0.010372118
9.08784e-05 -0.030726306 -0.008048376 0.031091042 -0.015825056 0.015949603 -0.015811557 -0.005552754
0.0035892292 0.004108957 -0.031314332 -0.023507588 -0.015461425 -0.05645694 -0.0037526195 0.018534472
0.042752724 -0.017583463 -0.00057167 -0.019864632 0.014725873 0.0062166164 -0.026459832 0.016299337
-0.028041065 0.011676218 0.013521853 -0.06020862 -0.011246816 -0.01893158 -0.008705041 0.044652827
0.015630458 -0.018281447 0.032560684 -0.008657273 -0.013446455 0.02554805 -0.0490026 8.299461e-05
0.05828616 0.026297752 -0.008360186 0.015321619 0.029504888 0.021587642 0.0207283 0.045227513
00000000: 3a1e 96bc a671 48bd a7a1 1c3c 0dc6 d2bb
00000010: f10e 0fbd 94a2 85bc 172a 26bc 54c2 f53c
00000020: 9ea7 3d3d 6346 4fbc c8ce c53b 657a 90bc
00000030: e358 06bd 4512 d7bb 237b 7dbc d1ef 293c
00000040: f895 be38 bcb5 fbbc 56dd 03bc a4b2 fe3c
00000050: 8ca3 81bc bea8 823c 3d87 81bc e0f3 b5bb
00000060: 4639 6b3b 6ea4 863b 7543 00bd fc92 c0bc
00000070: eb51 7dbc 643f 67bd 82ee 75bb 9bd5 973c
00000080: 7b1d 2f3d 320b 90bc 20dc 15ba 27bb a2bc
00000090: ca44 713c c2b4 cb3b 4ac2 d8bc 3086 853c
000000a0: 60b6 e5bc 9c4d 3f3c c38a 5d3c 509d 76bd
000000b0: 9144 38bc 6716 9bbc 979f 0ebc e2e5 363d
000000c0: 720b 803c f9c2 95bc 5a5e 053d 3cd7 0dbc
000000d0: 854e 5cbc 254a d13c f3b6 48bd 640d ae38
000000e0: 78bd 6e3d 626e d73c 29f9 08bc 8707 7b3c
000000f0: 3cb4 f13c 91d8 b03c 65ce a93c 7c40 393d

weight f4 [64]
0.26785785 0.9104695 0.30815256 0.6990215 0.6116727 0.2183507 0.36393508 0.11457841
0.40222946 0.6179438 0.63018996 0.2723107 0.6309574 0.3642955 0.6511997 0.8372997
0.35276 0.68731666 0.36242053 0.5333136 0.42370838 0.27534854 0.6828123 0.5460789
0.254104 0.1754878 0.02069949 0.10706501 0.83734775 0.8980003 0.9101521 0.4529788
0.58206964 0.80583405 0.3626683 0.661275 0.49321648 0.37772003 0.2016538 0.22127232
0.80413306 0.4719387 0.043261643 0.67809844 0.59519756 0.19777828 0.3484663 0.8284787
0.11483354 0.4561001 0.090193324 0.8144646 0.2034595 0.74887764 0.23499833 0.8589527
0.4652852 0.8990705 0.22583197 0.7487378 0.36807603 0.9235693 0.17114514 0.15142512
00000000: aa24 893e 8714 693f 2cc6 9d3e 13f3 323f
00000010: 9596 1c3f 5397 5f3e b355 ba3e 16a8 ea3d
00000020: 05f1 cd3e 9131 1e3f 2154 213f 4f6c 8b3e
00000030: 6d86 213f f184 ba3e 06b5 263f 4659 563f
00000040: f59c b43e fcf3 2f3f 2f8f b93e 3d87 083f
00000050: 4ef0 d83e 7cfa 8c3e c9cc 2e3f d4cb 0b3f
00000060: eb19 823e 13b3 333e fa91 a93c e644 db3d
00000070: 6c5c 563f 59e3 653f baff 683f d6ec e73e
00000080: 8402 153f 244b 4e3f a9af b93e 5249 293f
00000090: df86 fc3e 8564 c13e 557e 4e3e 3695 623e
000000a0: aadb 4d3f f3a1 f13e 1f33 313d dc97 2d3f
000000b0: de5e 183f 6486 4a3e 2d6a b23e 2e17 543f
000000c0: d92d eb3d f485 e93e 47b7 b83d c180 503f
000000d0: b057 503e 72b6 3f3f 67a3 703e 53e4 5b3f
000000e0: dd39 ee3e 7c29 663f 7f40 673e 48ad 3f3f
000000f0: 7674 bc3e 0a6f 6c3f ac40 2f3e 300f 1b3e

bias f4 [64]
-0.09231486 -0.11394336 -0.12503254 -0.12576148 -0.08679158 -0.08956346 -0.106784776 -0.092482604
-0.11519454 -0.124091536 -0.20486909 -0.07414128 -0.1988711 -0.124006234 -0.17644379 -0.14399922
-0.14078948 -0.14308624 -0.13427089 -0.1726137 -0.14966285 -0.13213043 -0.12081384 -0.13981633
-0.092804894 -0.11920832 -0.02906614 -0.07646215 -0.20937353 -0.13940066 -0.16202904 -0.15756664
-0.12655652 -0.11672021 -0.106904104 -0.09875862 -0.18710402 -0.13904527 -0.101294875 -0.11032043
-0.16203342 -0.121692695 -0.037926067 -0.17279057 -0.1416361 -0.104252845 -0.14605127 -0.12108693
-0.061372243 -0.11547453 -0.08904086 -0.15501612 -0.103293166 -0.1426962 -0.10852485 -0.11735121
-0.094864905 -0.16382279 -0.13749558 -0.19707319 -0.12526041 -0.15640867 -0.11328933 -0.0757495
00000000: 930f bdbd 235b e9bd 8808 00be 9ec7 00be
00000010: c9bf b1bd 0c6d b7bd fab1 dabd 8567 bdbd
00000020: 1deb ebbd b423 febd 34c9 51be 62d7 97bd
00000030: dea4 4bbe fbf6 fdbd aead 34be 8874 13be
00000040: 1e2b 10be 3385 12be 4f7e 09be a5c1 30be
00000050: 3841 19be 334d 07be 3f6d f7bd 032c 0fbe
00000060: 7e10 bebd 7e23 f4bd 1d1c eebc 3098 9cbd
00000070: 0466 56be 0cbf 0ebe f1ea 25be 2659 21be
00000080: 0898 01be 010b efbd 8af0 dabd f641 cabd
00000090: 3298 3fbe e261 0ebe b073 cfbd adef e1bd
000000a0: 17ec 25be 053a f9bd 5d58 1bbd 03f0 30be
000000b0: 0e09 11be 8482 d5bd 778e 15be 6dfc f7bd
000000c0: 7661 7bbd e97d ecbd 0e5b b6bd 8cbc 1ebe
000000d0: 5e8b d3bd f41e 12be 4742 debd d555 f0bd
000000e0: 8848 c2bd 29c1 27be a4cb 0cbe 8ecd 49be
000000f0: 4444 00be 9829 20be 3c04 e8bd 8e22 9bbd

running_mean f4 [64]
0.036304887 -0.24157113 -0.2723615 -0.23172946 -0.07704666 -0.3347432 -0.02991244 0.14467975
-0.09068089 -0.031576548 -0.027304662 -0.020772062 -0.3184572 -0.12314499 -0.10836307 -0.31072864
-0.18861653 -0.44734156 -0.04398208 -0.28238475 -0.17429788 0.0022323043 -0.20650655 -0.29453188
-0.21305269 -0.040911462 -0.45788637 0.021047397 -0.54357123 -0.21128325 -0.20777467 -0.18826352
-0.08905294 -0.29911956 0.06352695 -0.08934444 -0.26195094 -0.12410908 -0.28319508 -0.13725278
-0.2975882 -0.046136834 -0.16526675 -0.09305205 -0.28327778 -0.027508179 0.15061636 -0.37405416
-0.0049095913 -0.2641376 -0.11206228 -0.43411765 -0.04938202 -0.3341472 -0.24747771 -0.2904393
-0.11886651 -0.16409497 -0.15920429 -0.07956233 -0.019216778 -0.25147218 0.05963392 -0.14491189
00000000: 6fb4 143d 6c5e 77be f772 8bbe 7d4a 6dbe
00000010: a4ca 9dbd 7663 abbe ef0a f5bc ee26 143e
00000020: e7b6 b9bd 6956 01bd 07ae dfbc 2c2a aabc
00000030: d20c a3be 7133 fcbd 75ed ddbd d317 9fbe
00000040: b124 41be f409 e5be 8e26 34bd bc94 90be
00000050: 257b 32be da4b 123b 7476 53be e2cc 96be
00000060: 7c2a 5abe c792 27bd 1570 eabe 976b ac3c
00000070: 7c27 0bbf a35a 58be e2c2 54be 27c8 40be
00000080: 6361 b6bd 3326 99be 6b1a 823d 38fa b6bd
00000090: 6f1e 86be e72c febd f2fe 90be fe8b 0cbe
000000a0: 7b5d 98be faf9 3cbd b03b 29be 1392 bebd
000000b0: c909 91be d558 e1bc 2d3b 1a3e 0784 bfbe
000000c0: a3e0 a0bb 0b3d 87be e980 e5bd ab44 debe
000000d0: cd44 4abd 5815 abbe cc6a 7dbe 76b4 94be
000000e0: 4970 f3bd 8308 28be 7306 23be 93f1 a2bd
000000f0: 816c 9dbc f6c0 80be b342 743d c863 14be

running_var f4 [64]
0.12102971 0.15459162 0.15081857 0.16396533 0.16872779 0.15945591 0.17946984 0.15268679
0.17333668 0.12305726 0.121750176 0.1009012 0.16849305 0.1505874 0.14346854 0.19605887
0.15057279 0.25740355 0.15300642 0.22012495 0.14725149 0.09956452 0.15336645 0.13664477
0.14594989 0.15435752 0.18670082 0.18002698 0.26042035 0.2137065 0.19983867 0.15908085
0.13653265 0.20976523 0.13800025 0.14207797 0.246023 0.16126668 0.14362618 0.13318679
0.24254605 0.18550318 0.21961024 0.14201675 0.18996768 0.12839632 0.13094519 0.2900547
0.16470233 0.15781707 0.1729174 0.27863285 0.20402536 0.24699433 0.13012253 0.16392586
0.117810376 0.13188389 0.16759863 0.14236991 0.12034461 0.20544529 0.12460982 0.18173322
00000000: 6dde f73d 444d 1e3e 2f70 1a3e 87e6 273e
00000010: fac6 2c3e 6948 233e f1c6 373e ed59 1c3e
00000020: 2c7f 313e 7205 fc3d 2858 f93d 4aa5 ce3d
00000030: 7189 2c3e 9533 1a3e 6be9 123e a8c3 483e
00000040: c12f 1a3e 66ca 833e b7ad 1c3e 6f68 613e
00000050: 18c9 163e 7ce8 cb3d 180c 1d3e 9bec 0b3e
00000060: e373 153e e60f 1e3e 802e 3f3e fe58 383e
00000070: d155 853e e0d5 5a3e 82a2 4c3e 17e6 223e
00000080: 37cf 0b3e b2cc 563e f04f 0d3e e37c 113e
00000090: 74ed 7b3e 1823 253e be12 133e 1e62 083e
000000a0: fe5d 783e 8cf4 3d3e 82e1 603e d76c 113e
000000b0: e386 423e 537a 033e 7f16 063e 0d82 943e
000000c0: baa7 283e cc9a 213e 4211 313e f7a8 8e3e
000000d0: 06ec 503e 15ec 7c3e d73e 053e 2edc 273e
000000e0: 9146 f13d 920c 073e fa9e 2b3e 6bc9 113e
000000f0: 3c77 f63d 4060 523e 6f33 ff3d 4618 3a3e
