1epochs_0.0007learingrate_32batchsize.pt (torch_old, 712668 bytes, 34 tensors)

weight f4 [32, 3, 5, 5]
000000 3c 26 5d 3d c1 25 11 bd 7e 9c aa bd f8 f0 7d 3d
       0.05399154 -0.035436396 -0.0833063 0.061997384
000010 e4 d5 e9 3c d6 cf 8e bd 2c b5 35 3d 28 93 da 3c
       0.028544374 -0.06973235 0.044362232 0.026681498
000020 f6 25 ee 3d 46 3a fe 3d c2 7e 9f 3d 68 15 35 3d
       0.11628334 0.124134585 0.07787849 0.044209868
000030 c6 2e ae 3d 00 05 d4 3d 98 ac bb 3d 2e c7 b4 bd
       0.08505015 0.10352516 0.09163779 -0.08827053
000040 91 1b aa ba 66 4e c6 bd 3c b3 95 bc 7f 79 f2 bd
       -0.0012978186 -0.09682922 -0.018273942 -0.1183958
000050 b4 41 8c 3c 66 21 00 3e d7 cf 4d 3d 67 39 a6 bd
       0.017121173 0.1251274 0.05024704 -0.081164174
000060 c1 03 68 bb 9c b1 28 3c 07 e4 ce bb 60 f1 9e 3d
       -0.0035402628 0.010296252 -0.006313804 0.077608824
000070 85 f4 2f bd 18 4c e4 3d 9e 53 ed bd 80 2b 10 be
       -0.0429578 0.11147326 -0.11588214 -0.14079094
000080 0e b4 9d bd 5a a0 07 bc e7 70 f8 3c a6 9e 70 bd
       -0.07700358 -0.008277977 0.030327274 -0.05874505
000090 2e c4 48 bd 6a b2 d8 3c fb 5e 73 3d 93 7c d1 bd
       -0.049015217 0.026452262 0.059416752 -0.10228839
0000a0 a8 bf 8c bd bf 59 6b bd b0 19 bd 3d 18 20 9e 3b
       -0.06872493 -0.057458635 0.09233415 0.004825603
0000b0 b0 fb 80 3d a6 b6 ab 3b 26 34 93 3d 6f ab c8 3d
       0.062980056 0.0052402792 0.07187681 0.09798323
0000c0 d8 6b 12 3d 34 69 20 bd df 5e c5 bd 66 20 90 bd
       0.03574738 -0.03916283 -0.09637236 -0.070374295
0000d0 ff 00 ee bd c2 1e 5a bc cc c9 fc 3d 7e e5 4d 3d
       -0.11621284 -0.013312997 0.12343177 0.05026769
0000e0 af ea a0 bd 68 83 50 3c b4 2b 8b 3c ad 41 cc 3d
       -0.07857262 0.012726642 0.016988613 0.09973464
0000f0 22 39 8a 3d c3 0f b7 3b b2 b1 96 bd bf 1e 5e 3d
       0.067491785 0.0055865957 -0.073581114 0.05422854
000100 0e ca b1 bd 7c 23 ac 3d 77 c9 5e 3d 5c 42 fd 3d
       -0.08681117 0.084052056 0.05439135 0.12366173
000110 b0 5d 51 bd a5 c9 8e 3c bf ae c0 3d 2e 0e c6 3c
       -0.051114738 0.017430136 0.0940833 0.024176683
000120 91 62 71 3d c1 a7 6f bc 66 f2 84 3d 8b 7a ce bc
       0.05893189 -0.014627398 0.06491546 -0.025204917
000130 81 3b bb 3d 1f e7 1b bd ce 71 83 3d ec 07 9d bd
       0.09142209 -0.03806221 0.06418191 -0.076675266
000140 3c c1 37 3d 77 cb 8d 3d 1f fd 33 3d c9 0f e3 3d
       0.044862017 0.069235735 0.043942567 0.11086995
000150 cf 7f e2 3d 30 ce ce bd 7e 38 15 be 91 d2 46 3d
       0.11059534 -0.10097921 -0.14572331 0.048540656
000160 77 ec 2a bd 9f 64 f0 bc f1 4b 57 3c 02 2b 68 bd
       -0.041729417 -0.029344855 0.013140664 -0.05668164
000170 51 88 16 3d 0c 1f d7 b9 7b 11 7a 3d 49 3e 9f 3d
       0.036751095 -0.00041031127 0.061051827 0.07775552
000180 29 d1 22 bd aa 96 a4 bc 01 9f b0 bd 4b a2 53 bd
       -0.039750252 -0.020091373 -0.086240776 -0.051668447
000190 67 c2 f5 3d e7 23 be bd ad 82 54 3d 00 62 b4 3c
       0.1199997 -0.092841916 0.051882435 0.022019386
0001a0 60 c3 9b bd 7c 43 59 bc 9c 19 3a bd 90 14 a4 3d
       -0.07605624 -0.013260718 -0.04543458 0.080117345
0001b0 1d fc 8b bd 2c d0 a8 3d 80 aa b1 3d 69 3c c5 bd
       -0.06835196 0.08242831 0.086750984 -0.09630663
0001c0 d3 9e cd bd 59 60 15 3d 70 cd c2 3d 96 7b f1 bd
       -0.10040059 0.036468837 0.0951184 -0.1179115
0001d0 a0 73 a8 bd 80 84 48 bd 63 2d f7 3c 9c 9c 95 bd
       -0.08225179 -0.048954487 0.03017301 -0.073052615
0001e0 d0 eb 12 3e fc b3 97 39 56 45 32 bd d9 7a e3 3c
       0.14347768 0.00028935063 -0.043523155 0.02776854
0001f0 17 e3 11 be bd 2d 9f bd 0b 13 b4 3d 2a 4a 65 bc
       -0.14246784 -0.07772396 0.08792695 -0.013994733
000200 39 db 6e bd 36 27 b3 bc 7f 40 94 bd a2 c1 f8 3c
       -0.058314536 -0.021869283 -0.07238864 0.030365769
000210 0b 26 62 3d 87 2b 12 3d ec 94 3e 3d e3 c5 97 bd
       0.05521206 0.035686042 0.04652874 -0.07410791
000220 6c 2d 62 bd 33 86 a9 3d 23 6b b4 bd 5a 1b a6 bd
       -0.0552191 0.082775496 -0.08809497 -0.08110686
000230 34 b6 d1 bc 28 01 e9 bd 70 0a 6d bd b8 04 ba bd
       -0.025599577 -0.11377174 -0.057871282 -0.09082931
000240 d9 87 ee bd f1 37 d2 3d e8 c0 86 bd 6e 80 6f bd
       -0.11647005 0.10264576 -0.06579763 -0.05847209
000250 73 e2 b0 bd 6b 6e 12 3d 5c 4d 99 3d 42 3c 94 bd
       -0.08636942 0.035749834 0.07485458 -0.07238056
000260 1b 2d 4e 3d c1 eb be 3d aa ee 54 bd dd 19 6e bc
       0.050335985 0.0932231 -0.05198542 -0.0145325335
000270 f4 5d 9f bd 69 6b e3 bd 18 2f bb 3d 9d 08 d6 bd
       -0.07781592 -0.11104471 0.09139842 -0.104508616
000280 8d 3c 74 3d be 4e 9a bd d6 b6 b0 3d 0c 22 46 bd
       0.05962806 -0.0753455 0.08628623 -0.048372313
000290 c6 97 3d bc 29 9a 26 3d a8 50 f0 3d be 84 44 bd
       -0.01157183 0.040674362 0.11734134 -0.047978155
0002a0 3a 3c c0 bd 7d 71 54 bd 78 5c c1 3d 52 f3 e6 bb
       -0.09386487 -0.051866043 0.09441465 -0.007048049
0002b0 94 ff f2 3d 7b 45 cc 3d 6c 64 82 bd 64 b7 92 bd
       0.11865154 0.0997419 -0.0636681 -0.07163885
0002c0 10 61 a4 38 0a ee b6 3d 70 62 9f 3b 19 70 8b bd
       7.838209e-05 0.08932121 0.0048640296 -0.0680849
0002d0 bd 16 80 3d 16 7b 6c bd e3 9f 94 bd 5a 32 d4 3d
       0.06254337 -0.05773457 -0.072570585 0.10361166
0002e0 c2 bc 15 3d f9 53 92 bd 5b 2c a0 3c eb 4d cd bd
       0.036556967 -0.07144923 0.0195524 -0.10024627
0002f0 e8 fc 39 3d a8 6b 12 bd d0 61 9f bc 74 69 db 3d
       0.045407206 -0.0357472 -0.01945582 0.10713473
000300 1f a8 02 3e 7a 77 bc bd 47 66 b0 bd e7 fa 05 3e
       0.12759446 -0.09202476 -0.08613258 0.13083993
000310 85 80 27 3d 42 57 06 bd 20 36 d4 3b 8f 69 79 3d
       0.04089405 -0.03279806 0.0064761788 0.060891684
000320 4a ff b7 bd 86 6f 01 be bc d6 20 3c 29 61 d8 bd
       -0.089842394 -0.12640199 0.009816822 -0.10565407
000330 af 12 90 bd ae 64 d8 bd dd 86 7a 3b 36 76 bd bc
       -0.070348136 -0.10566078 0.0038227357 -0.023127656
000340 22 9a 0c bd 1d 8b a2 3c 49 b1 44 3d 83 26 4a bd
       -0.03432668 0.019841725 0.048020635 -0.049353134
000350 5a cc 60 3d 84 ba 0a 3d 7c 5d 5c 3d 99 d7 0d bd
       0.054882385 0.03386928 0.05380009 -0.034629438
000360 1a a8 a8 3d 50 2d 94 3d d0 08 9c 3d a0 f8 05 3d
       0.08235188 0.07235205 0.07618868 0.03270781
000370 26 35 15 3d eb 1f b8 bc f4 30 3d 3d d2 66 6f bd
       0.03642764 -0.022476157 0.046189263 -0.058447666
000380 5d 85 9b 3d a9 86 14 bd c7 62 e0 3b 16 7f 03 be
       0.075937964 -0.036261234 0.0068477127 -0.12841448
000390 d9 77 ab 3c 68 64 e6 bd 1f f4 6d 3b 1a a7 1d 3d
       0.020931171 -0.1124962 0.0036308838 0.03848944
0003a0 da b4 1d bd 9a 3f b6 3d 51 5d 90 bd 55 8c a6 bb
       -0.03850255 0.0889885 -0.07049049 -0.005082647
0003b0 91 38 fb bc b3 49 00 3e 6b ec 2c 3d 33 5c 91 3d
       -0.030666621 0.12528114 0.042217653 0.07097664
0003c0 b8 e4 d5 3d 30 40 a5 3d b5 91 8a 3d 81 b9 fc 3c
       0.10444015 0.080688834 0.06766073 0.030850174
0003d0 15 3b 9c 3d 4a b7 83 3d 6a 88 f5 bd fa d0 5a 3d
       0.076284565 0.06431444 -0.119889095 0.05342195
0003e0 9b ba 87 bd 51 5c d6 3b 1e 23 07 3d 4a 1e 85 bd
       -0.06627389 0.0065417667 0.032992475 -0.06499918
0003f0 91 61 01 be d3 eb 76 3c 3f e4 8e bd 72 45 61 3d
       -0.12634875 0.015070873 -0.06977128 0.05499787

bias f4 [32]
000000 98 48 23 bd 13 89 7d ba 71 f0 1a bd 55 52 db bd
       -0.039864153 -0.000967161 -0.03782696 -0.10709063
000010 0d 1a a3 3c a3 ac eb 3d 7a a5 2a bd 75 2b b5 3d
       0.019909883 0.11507537 -0.041661717 0.088461794
000020 d7 f6 cc 3c ec 7b 51 bd d1 95 82 bd 77 4f 0d bd
       0.025020046 -0.05114357 -0.063762315 -0.03449961
000030 13 e4 ae 3d 2f 3b 91 3d c4 e0 46 3d 61 0a f8 3c
       0.085395955 0.070913665 0.048554197 0.030278387
000040 d1 9d b3 bd 95 6c 77 3b 21 01 02 bc 3d 7d d9 3d
       -0.087703355 0.003775393 -0.007934839 0.106195904
000050 7c ba e3 bd 07 c5 6e bd 7d cf e9 3d 69 39 c9 bc
       -0.111195534 -0.05829337 0.114165284 -0.024563508
000060 24 8a b0 bd cd fc 83 3d b5 17 09 bc a1 86 bc 3d
       -0.08620098 0.06444702 -0.008367469 0.09205366
000070 52 53 9e 3d 5c 7e cd bd 3d f9 d8 3c 84 15 bf bd
       0.07730736 -0.10033867 0.026486034 -0.09330276

weight f4 [32]
000000 27 ff 5f 3f 2c bc b9 3e 5e ff e2 3e e1 f4 00 3f
       0.87498707 0.36276376 0.44335455 0.50373656
000010 2d b9 a2 3d c4 e2 51 3e 6a b1 a4 3e 6a ec fe 3e
       0.07945476 0.2049666 0.32166606 0.49789745
000020 8a 01 d0 3e 71 d8 21 3f 9a 9a fe 3e 8c c1 29 3f
       0.40626174 0.6322089 0.49727327 0.66310954
000030 43 7f cc 3e be 5b 72 3f c5 23 14 3f c5 bb 3f 3f
       0.39940843 0.9467124 0.5786708 0.7489589
000040 25 b5 59 3e 13 72 a1 3e 87 83 74 3d ff d8 3a 3f
       0.21260507 0.31532344 0.059695747 0.7298736
000050 ce 56 9e 3d 2b bc 09 3f 9c c8 06 3e 10 05 da 3e
       0.077314004 0.53802747 0.13162464 0.42581987
000060 9d 00 5f 3f 4a ff 1f 3e ca 13 7a 3e a9 c3 97 3e
       0.8711031 0.15624729 0.24421611 0.29641464
000070 7e e5 bd 3e b8 f5 3e 3f 50 01 bb 3e be 97 04 3f
       0.3708915 0.7459369 0.3652444 0.5179404

bias f4 [32]
000000 ae 29 47 bd 8b 5a 63 bc 48 70 85 3c c8 f6 d1 bc
       -0.048623733 -0.013876568 0.016288891 -0.02563037
000010 3f 16 ec 3b 08 08 6a bc 56 48 e7 bc c2 00 a4 3c
       0.0072048004 -0.014284141 -0.028232735 0.020019893
000020 56 a7 d2 3b 2d 46 3a bc 73 ad 96 bb 1f e0 3d bd
       0.0064286394 -0.01136927 -0.0045983135 -0.046356317
000030 98 f5 40 3c bc a5 8c bd 8e ab 8a bd bb 16 05 bd
       0.011777304 -0.06867549 -0.06771003 -0.03249238
000040 02 5e 3e bb 73 e6 55 3c 7a 59 7b 3a 92 11 3a 3d
       -0.0029047732 0.013055432 0.0009588223 0.045426913
000050 44 3e 35 bd 54 58 de bc 8d 7d dc bc 7d 1e 9c bd
       -0.044248834 -0.027141728 -0.026915336 -0.07623003
000060 67 c2 4d 3c a9 ab 00 bd 92 c0 22 bd 2c 41 f4 bc
       0.012558556 -0.031413708 -0.03973443 -0.029816233
000070 32 8b 06 bc 63 1f 4c bd b5 1d 2d bc 0b c5 60 bd
       -0.008211898 -0.04983462 -0.010566165 -0.054875415

running_mean f4 [32]
000000 bd 3a ea be ec e0 16 3f 89 94 98 bd b1 62 98 bd
       -0.4574794 0.58936954 -0.07450206 -0.07440699
000010 a3 8a a2 3e 4a 92 cf 3e 19 93 17 bf 31 5a 05 3e
       0.31746396 0.40541297 -0.5920883 0.13022687
000020 e2 c9 89 3d 92 6a 09 3d 58 ac 84 3e aa 00 9d be
       0.06727959 0.0335489 0.25912738 -0.3066457
000030 cd 53 12 3f e3 5e 13 3f 13 0c 01 bf 15 65 0e 3f
       0.5715912 0.5756666 -0.5040905 0.5562299
000040 ae 3e 36 be a6 8f c6 3e b9 a3 37 3e 4a 94 50 3e
       -0.17797348 0.3878147 0.17933549 0.20369068
000050 17 42 d5 be 08 57 37 3e b2 18 cb 3e 98 fd f9 bd
       -0.41651985 0.17904294 0.3966728 -0.12206572
000060 7e f6 0e 3f 3f e6 16 3d 12 85 55 3d 1e db dd 3e
       0.5584487 0.036840674 0.05212886 0.43331236
000070 f8 ea 17 be cb 6b c0 be 5d 52 72 3f a8 16 9a 3e
       -0.14835727 -0.3758224 0.94656926 0.3009541

running_var f4 [32]
000000 58 01 b3 3e f2 03 b0 3e a0 51 50 3e d7 9e 26 3e
       0.34961963 0.3437801 0.20343637 0.1627153
000010 50 07 94 3e dd 56 54 3e 0c fa bc 3e 59 62 cb 3d
       0.2891183 0.2073626 0.3690952 0.09930868
000020 bb 90 3c 3e be bb 80 3d f0 0b ce 3e 2f 71 25 3e
       0.18414585 0.06285809 0.40243483 0.16156457
000030 53 40 80 3e 5e d6 5e 3e 71 b3 9a 3e 1c 3a c7 3e
       0.25049075 0.21761462 0.30215028 0.3891152
000040 f2 17 70 3e 23 4e 26 3e 1c 2a 72 3e 0b ee ad 3e
       0.23446634 0.16240744 0.23648876 0.33970675
000050 16 ef 43 3e 92 0c 81 3e 60 0f 2b 3e 2c 05 4f 3e
       0.19134173 0.25204903 0.16705084 0.20216817
000060 31 32 16 3f 12 62 2d 3e 4f 70 8c 3e b2 74 8a 3e
       0.58670336 0.16931942 0.27429435 0.27042156
000070 c3 5f 05 3e 18 6b 06 3e 36 bf 39 3f b8 93 89 3e
       0.13024811 0.1312679 0.7255739 0.26870513

weight f4 [32, 32, 5, 5]
000000 b9 42 a7 3c 69 99 93 bc 2a b2 12 3c 1a 98 95 bc
       0.020417558 -0.018017488 0.00895361 -0.018261004
000010 cb 6d da 3b 76 0c bb bb ac 51 bf bc 66 62 05 bd
       0.0066659204 -0.0057082726 -0.023354374 -0.032564543
000020 60 82 2e bd 18 9d 05 ba 22 87 1e bd 10 7f c7 bc
       -0.042604804 -0.0005096956 -0.03870309 -0.02435258
000030 cb c1 ef 3b cd 92 83 3a f6 91 1c bd 59 df a9 3c
       0.007316803 0.0010038257 -0.038225137 0.020736383
000040 a0 30 ec 3c ce ae ff 3c 73 7a 1c 3d 22 30 b7 3a
       0.02883178 0.031211283 0.038202714 0.0013976137
000050 39 38 bd bc 74 40 70 bc c1 ac 90 3d f6 01 4f 3d
       -0.023098098 -0.014663804 0.070642 0.05053898
000060 9c 69 9a 3c c7 a3 d0 ba 1c 75 3d bd 42 e3 ab bb
       0.018849187 -0.001591795 -0.046254262 -0.005245597
000070 b9 40 e7 3c 14 32 53 3c e8 8b ac 3b 23 73 a6 3c
       0.028229104 0.0128903575 0.0052657016 0.020318573
000080 db 72 3b 3c a0 c3 8e bb 82 09 68 3c f9 b1 b8 bc
       0.011440958 -0.0043568164 0.014162423 -0.022545801
000090 d9 ef ea 3c 5f 76 50 bc b8 cb 85 bd f9 bc ab bd
       0.028678821 -0.012723534 -0.06532997 -0.08385653
0000a0 ac 1e fd b9 0c 77 66 3b 17 4a 5d bd d6 7a b5 bd
       -0.00048278773 0.0035166172 -0.054025736 -0.0886132
0000b0 c7 48 bf bd 90 ba 64 b9 b9 78 00 bd 31 38 3d bd
       -0.09340053 -0.00021813274 -0.03136513 -0.046196166
0000c0 e9 f5 5e bd 95 36 1a bd b9 30 1b 3d 89 f9 82 bc
       -0.054433737 -0.03764971 0.037888262 -0.015988128
0000d0 36 ee be 3b 7e 6d 9c bc 0f 90 c5 3c 81 e9 8a bc
       0.005826737 -0.019095179 0.024116544 -0.016957046
0000e0 dc 3e c6 3b de a6 80 bc 3d 6d 32 bd 35 b2 e0 3b
       0.006049974 -0.015704568 -0.04356121 0.0068571814
0000f0 9d 5d a3 bc 82 28 2e 3b e6 c9 25 bd 8c ed ae bc
       -0.0199421 0.0026574438 -0.04047575 -0.021353506
000100 99 f3 83 bc 35 03 5d bd 66 6c dd 3b 2d 03 ff 3b
       -0.016107367 -0.053958137 0.006757307 0.007782361
000110 fa 20 6c ba 89 80 90 3c 63 f3 01 3c 59 20 c2 3a
       -0.00090075994 0.017639415 0.007931563 0.0014810666
000120 a0 12 7d 37 80 c1 5c bc 98 9f ce 3b 4e 29 63 bc
       1.5084312e-05 -0.013473868 0.006305646 -0.013864828
000130 04 8f 5d 3c 90 91 bd 3c 9c f9 6e 3c 93 eb 68 3c
       0.013522867 0.023140699 0.014585879 0.0142163215
000140 0a 7c 7c ba 6d 86 37 3b 1a 18 fe 3c f2 cc 16 bd
       -0.00096315204 0.0028003708 0.031017352 -0.036816545
000150 1b 42 a2 3a 65 7e 1f bd df b8 b5 bb c7 20 e7 bc
       0.001237932 -0.0389389 -0.00554572 -0.028213872
000160 67 83 39 bd e9 2d 11 3b 6a 16 2e bd a9 55 d4 bb
       -0.04529133 0.0022152609 -0.042501844 -0.006479938
000170 fe d5 af bc d0 dd e3 ba 53 c2 c2 bc 32 fb 87 bc
       -0.021464344 -0.0017384831 -0.023774302 -0.016599271
000180 c5 32 ac 3a 81 07 33 bd 01 04 d1 3c a2 eb b3 bc
       0.0013137689 -0.04370833 0.025514605 -0.021962944
000190 3f b6 29 3c 1c a5 f7 3b b9 de 93 3c 59 30 17 bc
       0.010358392 0.0075575244 0.018050538 -0.009227836
0001a0 50 4d e3 bb 98 dd 78 bc 4e d7 ac 3b 8d eb 78 bc
       -0.0069367066 -0.015189551 0.0052746898 -0.015192878
0001b0 91 24 d3 bc 88 f3 1b bd bb a6 ad 3b 11 cc 82 3c
       -0.025774272 -0.038074046 0.005299417 0.015966447
0001c0 4a b3 46 3b 70 a8 18 bd df 2d 8f 3c 70 df f9 3c
       0.0030319267 -0.03727001 0.017477928 0.030502051
0001d0 3f e5 82 bc 0c 90 dc 3c 2e b0 0d bd 1c ac d4 bc
       -0.015978454 0.026924156 -0.034591846 -0.025960974
0001e0 c5 cc 61 3b 62 62 b2 3c 3e 19 93 3c 23 fd e2 bc
       0.0034454328 0.021775428 0.017956372 -0.027708596
0001f0 90 41 ff 3b ad 3a 3c bd ac 79 ed 3c ec d9 33 bc
       0.007789798 -0.045954395 0.028988682 -0.01097725
000200 3d 57 89 3c af d9 06 ba 1c 86 1d 3b c1 79 87 bb
       0.016765231 -0.0005144132 0.0024036234 -0.0041343872
000210 7f bd 51 bc 31 00 84 3c 76 6a 1a bb cb 37 7c 3c
       -0.012801527 0.016113373 -0.002356199 0.015394161
000220 62 03 ae bb 2c 28 35 bc 1e 67 5a 3c e3 f8 9d 3c
       -0.005310462 -0.011056941 0.013330249 0.019283717
000230 0a fa f7 3a 3f 9a 83 bc da c8 80 3b 74 76 04 b9
       0.0018919122 -0.016064761 0.0039301934 -0.00012632628
000240 fa 28 28 3d 2d b3 e3 3b 95 0e 22 bd e2 62 0f bd
       0.041054703 0.0069488497 -0.039564688 -0.03500641
000250 c4 97 d0 3c 64 36 03 3c e9 83 0d 3d fc 35 55 b9
       0.025462992 0.008008573 0.034549627 -0.00020333374
000260 df f2 4f 3c ba 85 3d bd 30 c8 62 bc a2 d0 0a 3c
       0.012692182 -0.04627011 -0.013841674 0.0084725935
000270 ac 61 90 3c 3a 3e 92 3d 4a 4b c4 ba c1 79 31 3d
       0.017624699 0.07140775 -0.0014976051 0.043329004
000280 7b b1 14 3c 1b 1d 0f 3d ba eb e1 3c be 15 09 3d
       0.009075518 0.034939867 0.027578223 0.033468
000290 fe a7 2a 3a c7 a5 b5 bb 55 3d 2c bd 90 93 2e 3d
       0.0006510018 -0.005543444 -0.04205068 0.042621195
0002a0 33 e7 8e 3c a1 e9 e2 3b 0e c7 be bb 55 3c 1d bd
       0.017444229 0.0069248234 -0.005822069 -0.038387615
0002b0 a0 04 8b 3c e0 d8 9c bc 7a ed 8e bb a6 33 57 bc
       0.016969979 -0.019146383 -0.0043618055 -0.013134873
0002c0 e2 96 d6 3a 45 14 b5 bb fa 97 1c 3b ef 3a 8d 3c
       0.0016371871 -0.005526098 0.0023894296 0.017240016
0002d0 40 52 de 3c 92 17 9e bc b9 02 1f 3c fd e2 d9 bc
       0.02713883 -0.019298349 0.009705239 -0.026597494
0002e0 46 8c e0 3b 2c d1 36 3d 0e 29 84 3c 61 ad f3 bc
       0.0068526594 0.044633076 0.016132858 -0.02974576
0002f0 66 8e c9 3a 71 3b fd 3c 6e e7 bb 3c 1d d6 da bb
       0.0015377521 0.030912133 0.022937503 -0.0066783563
000300 30 f5 18 3c 34 56 31 bd f7 38 06 3d a1 66 0c bd
       0.009335801 -0.0432951 0.03276917 -0.034277562
000310 76 5a f0 ba 4b 58 2c bd de b7 eb bc af 1b 7f 3c
       -0.0018337506 -0.04207639 -0.028774198 0.015570565
000320 71 85 47 bc 1b 5e 23 bb 22 3c 9c bd 16 da 3d bc
       -0.012177811 -0.0024927917 -0.07628657 -0.01158764
000330 17 8e dc bc 25 c0 4a bc 9c d0 cf bc 49 68 18 bd
       -0.026923222 -0.012374912 -0.025368027 -0.03720883
000340 43 a6 82 ba e4 e5 3b bd 42 67 bb bb 81 42 7d 3c
       -0.0009967763 -0.045873538 -0.0057190964 0.01545775
000350 f4 47 a1 3b 39 7a 8b ba 7a 33 2a bc c7 93 42 3d
       0.0049219076 -0.0010641284 -0.0103882495 0.047504213
000360 98 1a 03 3d 43 03 b6 bc ef 1f b9 bc bf f1 7e bd
       0.032007784 -0.022218352 -0.022598235 -0.062242266
000370 0e b6 32 3d a3 93 23 bd b2 44 39 bd 95 df 35 bc
       0.043630652 -0.03993572 -0.04523153 -0.011100669
000380 f5 ba 1c bd e6 bd 5e 3c 1e 0c 44 bc d5 da 01 3d
       -0.038264234 0.01359508 -0.01196578 0.031702835
000390 7a d4 9d 3c 5f 36 be 3c 43 78 df 3c 06 31 26 bc
       0.019266356 0.023219286 0.027279025 -0.010143524
0003a0 d4 4b b6 bc 9a 8b 1a 3d 03 12 5a 3d b2 8b bb bc
       -0.022252955 0.03773079 0.053239834 -0.02289376
0003b0 c0 15 e1 3c 4f 21 95 3c 8f f9 58 bc 97 a7 32 bc
       0.027476192 0.01820436 -0.013243093 -0.010904214
0003c0 e2 bf 0f 3d 43 f4 fe 3c 09 3e 75 bc 54 4f 01 bd
       0.035095103 0.031122332 -0.014968404 -0.031569794
0003d0 ff f2 40 bc 2c a8 26 bd 2e 9b 2c bc 24 57 e5 bb
       -0.011776685 -0.040687725 -0.010535045 -0.0069989134
0003e0 f0 60 ff bc 12 77 98 3d ae e0 8f bc 30 56 cd bc
       -0.031174153 0.07444586 -0.01756319 -0.025065511
0003f0 d6 ba 06 bc 25 ee 71 bc f3 77 30 bd eb c9 4f bc
       -0.008223256 -0.014766251 -0.043083142 -0.012682418

bias f4 [32]
000000 a5 94 f9 bc 8f 94 ba ba ea 1f 7c bc 82 83 68 bd
       -0.030466387 -0.0014234948 -0.015388468 -0.05676604
000010 13 59 32 3d 7b f9 41 3d 8f 44 c4 bc 7f 83 d3 bc
       0.04354198 0.047357064 -0.023958473 -0.025819538
000020 1d 1c 39 bd ed 84 0b bd fb 94 38 bc 72 15 95 3c
       -0.045192827 -0.034062315 -0.011265988 0.018198702
000030 08 1c 13 3d 84 ec 7b bc 17 2c f7 bc b4 a9 22 3b
       0.035915405 -0.015376214 -0.03017239 0.002482039
000040 0a 93 42 bd c6 a9 3d 3c 13 f9 11 bd 92 4d 01 3d
       -0.04750351 0.011576122 -0.035637926 0.031568117
000050 00 43 ea bc 7c 55 1d bc f5 0a 14 3d b6 1d ad bb
       -0.028596401 -0.009602901 0.036143262 -0.005283083
000060 c5 fd 95 3c 77 f1 0e 3a 87 87 50 3c cd df 2b 3c
       0.018309483 0.0005452851 0.012727625 0.01049037
000070 9c a3 0f 3d bb 7e 48 bd 7b 3a f8 3c c8 93 b4 bc
       0.03506814 -0.048948985 0.030301323 -0.022043124

weight f4 [32]
000000 50 41 e6 3e be 52 47 3e e2 6e 08 3f 2d 60 c9 3e
       0.44971704 0.19465157 0.53294194 0.3933119
000010 80 df 57 3f 02 0c 31 3f f0 28 e9 3e 73 e4 a6 3e
       0.8432541 0.6915895 0.45539045 0.32596168
000020 b0 cd c9 3e d0 4e be 3e b6 15 da 3d 4d 41 5b 3e
       0.3941474 0.37169504 0.10648672 0.21411629
000030 fe 39 17 3e 1d 17 6c 3f ad 5a 74 3f c0 2e c8 3e
       0.14768216 0.9222277 0.9545086 0.39098167
000040 a4 28 7c 3f 3f f7 5f 3e 64 70 13 3f be f3 9e 3e
       0.9849951 0.2187166 0.5759337 0.31045336
000050 f6 d4 32 3f 64 b6 58 3e 27 e3 1c 3f 96 18 ce 3e
       0.698562 0.21163327 0.61284107 0.40253133
000060 62 72 72 3e 9f ff 1c 3f 36 ca 2f 3e 26 b5 73 3f
       0.23676446 0.61327547 0.17166981 0.95198286
000070 4c 28 21 3f 78 6f 71 3f 75 0e 27 3f d9 d9 6b 3d
       0.62952113 0.9431071 0.65256435 0.057580803

bias f4 [32]
000000 df 61 60 bd d9 81 85 bd 8a d3 9d bb e4 93 b7 bc
       -0.054780837 -0.06518907 -0.004816477 -0.022409387
000010 ac 09 86 bc dd f4 88 bd 04 35 5c bd 2d a7 bb bc
       -0.016362034 -0.06687329 -0.053761497 -0.022906864
000020 64 b0 bf b8 40 79 0e bd c5 0d 13 bd 6a ed 9a bd
       -9.140445e-05 -0.0347836 -0.035901804 -0.075648144
000030 eb 8b 0e bd 76 85 93 bd 47 af 4e bc 4b bd 55 bd
       -0.034801405 -0.0720319 -0.012615032 -0.052182477
000040 0b 5e 31 bd 18 58 2f bd ab fd a7 3a ae 68 c0 bc
       -0.043302577 -0.042808622 0.0012816688 -0.023487415
000050 ad 44 7f bd 92 85 e4 bc d5 78 9b bd 85 22 c5 bc
       -0.062321354 -0.027895723 -0.07591406 -0.024064312
000060 8a 84 93 bd 0f 1b ad bc 42 dc 8d bd ac d9 1a bd
       -0.07203014 -0.021131067 -0.069267765 -0.037805244
000070 67 b6 8d bc 26 04 ad 3b 97 aa 4a bd 06 97 a9 bc
       -0.01729889 0.0052800355 -0.049479093 -0.020701896

running_mean f4 [32]
000000 ac 71 88 be a0 a3 94 be 40 ef 03 3e 6d a0 12 be
       -0.26649225 -0.29031086 0.12884235 -0.1431901
000010 28 93 0b bd 9a 16 6d bf 1e cd be bc 48 cd 6d be
       -0.034075886 -0.9261261 -0.023291167 -0.2322284
000020 26 68 d8 3d 97 a7 c6 bd 46 7c 57 3c 70 e1 c5 be
       0.1056674 -0.09699934 0.013152188 -0.38648558
000030 75 93 c2 3e d2 18 12 bf 95 7f fb 3e dd 43 08 be
       0.38003126 -0.5706912 0.49120775 -0.13307138
000040 4a 3e 12 bf 70 ae 34 bf 67 27 86 be 87 ef 10 bf
       -0.57126296 -0.7057867 -0.26201937 -0.5661549
000050 b9 fd 34 bf 20 12 33 be 14 28 1b bf a1 63 f5 be
       -0.7069965 -0.17487383 -0.6060803 -0.47927573
000060 cc 8a b6 be 22 cf a0 be 27 a3 78 be af c6 56 be
       -0.3565277 -0.3140803 -0.24280988 -0.2097423
000070 95 88 b7 be 3b 27 90 be b8 a2 f9 be ce 73 0b bf
       -0.3584639 -0.2815493 -0.48756957 -0.5447358

running_var f4 [32]
000000 78 5c 8d 3e 69 87 da 3e ff 04 0b 3f 0b b4 aa 3e
       0.2760961 0.42681435 0.543045 0.33340487
000010 a0 b3 28 3f 8d c6 7d 3e 8d e9 07 3f ad 46 56 3f
       0.65899086 0.24782772 0.53090745 0.8370159
000020 f0 1a 74 3f 72 0c d5 3e aa df fd 3e 69 4c d0 3e
       0.95353603 0.41611058 0.49584705 0.40683296
000030 d8 6c 1f 3f b8 6d d4 3e 7f 44 6c 3f 96 7d 03 3f
       0.6227546 0.4148996 0.92292017 0.51363504
000040 07 66 f2 3e 95 40 a5 3e 94 dd 1f 3f b8 a4 d0 3e
       0.47343466 0.32275835 0.62447476 0.4075067
000050 36 a3 a8 3e f8 ff 4f 3f 46 10 9a 3e 44 8c fe 3e
       0.3293702 0.8124995 0.3009054 0.4971639
000060 c4 ee ba 3e 43 16 09 3f e3 7b bf 3e 83 cb 36 3f
       0.3651029 0.53549594 0.37399206 0.71404284
000070 76 91 2b 3f 52 a3 b8 3e 77 42 07 3f c1 82 45 3f
       0.6701883 0.36062104 0.5283579 0.7715264

weight f4 [64, 32, 3, 3]
000000 ce 78 8c bd 91 06 07 bd 75 1b 2a bc c5 84 52 bd
       -0.06858979 -0.032965247 -0.010382523 -0.05139615
000010 bc b6 00 bd 79 49 40 bd ad 92 27 3d 7a f5 02 bc
       -0.03142427 -0.04694507 0.040911365 -0.0079930965
000020 e8 3f b2 3b 91 36 bb bb 5b 92 e9 3c 3b 13 fe bb
       0.005439747 -0.005713292 0.02851217 -0.0077537573
000030 ae cc 45 3d cb 60 da 3c 98 8f 70 bd 7c ce 30 bd
       0.0482909 0.026657483 -0.05873069 -0.04316567
000040 f3 c7 98 3a 54 30 46 bc 22 a5 11 bd d0 d7 2e bb
       0.0011656269 -0.012096483 -0.035557874 -0.0026678927
000050 d2 e3 22 bd e3 19 10 bc c9 c6 1f bd e3 05 8a bd
       -0.039768048 -0.008795234 -0.039007936 -0.06739404
000060 1a 5b 15 bd 43 cd 20 3d 39 e7 56 3c 6b c5 45 3d
       -0.036463834 0.039258253 0.013116651 0.048283976
000070 6a 4d e1 bc 44 db 3f 3d 7a cd 42 3c 73 6f 1b 3d
       -0.027502734 0.046839967 0.01188981 0.037948083
000080 45 27 43 bd a8 95 cd 3a 53 6b 00 3c cd ff ae bc
       -0.047644872 0.001568486 0.007838088 -0.02136221
000090 1f d5 10 3d 8f e3 b6 3d b7 25 26 bc b9 cb 0e 3d
       0.035359498 0.08930122 -0.010140828 0.034862254
0000a0 a7 7c 0e bc 00 19 78 bc 8b f6 ce 3c 87 21 a1 3c
       -0.008696712 -0.015142679 0.025264045 0.019669307
0000b0 e0 b3 b1 bd e5 6a d4 3b 99 bd 68 bc fe c5 00 bc
       -0.086768866 0.0064824694 -0.01420536 -0.007859705
0000c0 fb e2 75 3d 4a 3f ea bc f4 69 c7 3b 43 17 23 bd
       0.06003092 -0.028594632 0.0060856286 -0.039817106
0000d0 b1 c5 06 ba 8a 4c 06 bc 87 db 39 3b b8 5e 59 bc
       -0.00051411527 -0.008196959 0.0028359608 -0.013267212
0000e0 6c c1 5a 3d 51 a0 15 bd c2 28 8f 3c 82 9c 88 3b
       0.053407118 -0.036529843 0.01747549 0.004169048
0000f0 e7 08 0b 3c 59 5f 76 bd e9 98 85 3c 6a b7 f9 bb
       0.008486009 -0.060149524 0.016308265 -0.0076207416
000100 cb 22 59 bb 64 53 19 3d 87 63 12 bc 53 31 95 bc
       -0.003313231 0.037433043 -0.008934862 -0.018211996
000110 87 49 f9 3b e0 18 74 3d 0c 13 0b bc 9f ee c7 bc
       0.007607642 0.059594035 -0.008488428 -0.024405776
000120 5e 5c 02 bd 80 20 3e bd 0a aa c3 ba 91 e6 77 bd
       -0.03182637 -0.046417713 -0.0014927995 -0.06052262
000130 d3 00 c3 bd bc 92 12 3d 6a 7f 8f bd 99 62 6a 3c
       -0.095216416 0.035784468 -0.07006724 0.014305734
000140 ce da d1 bb 46 07 44 3d 4f 7a 41 3d ba 07 24 bd
       -0.0064042574 0.0478585 0.047235783 -0.04004643
000150 de b8 45 3d ba 08 f7 bb 86 59 b9 bc 8f 64 9f bd
       0.048272006 -0.007538882 -0.022625696 -0.07782852
000160 dc 32 be bc a7 20 79 bc 0b 2d 24 bd 23 85 f5 3c
       -0.023217611 -0.015205539 -0.04008202 0.029970711
000170 32 38 1f bd 8b 64 7d 3c c8 a2 9d 3d 0f 55 5c 3d
       -0.03887195 0.015465866 0.07697064 0.053792056
000180 dd a2 b3 3c 0c 07 e0 ba 23 fe 11 bc dc f5 ac bc
       0.021928245 -0.0017091944 -0.008910689 -0.021113329
000190 7e 74 13 bd 83 02 2f 3c 81 b7 2f 3d f2 ac 43 bc
       -0.035999767 0.010681751 0.042899612 -0.011943089
0001a0 76 6b e6 3b c0 bb e3 3c 05 cb 53 3d da fe 0a bd
       0.0070318533 0.027799487 0.051707286 -0.03393445
0001b0 ad 99 80 bd 95 66 66 bb 8c 73 1e bd e4 24 b0 bd
       -0.06279311 -0.0035156358 -0.038684413 -0.08600786
0001c0 7a 4b 07 bc d1 fd 99 bd aa 02 70 3d 50 a1 fa 3c
       -0.008257741 -0.07519115 0.05859629 0.030594498
0001d0 b4 e9 cb bc 94 f4 2e bc 88 02 53 bd 43 74 c5 bd
       -0.024891712 -0.010678429 -0.051516086 -0.09641316
0001e0 68 6f 06 3d 43 1f db bc 34 8e ff bc 2e a1 a1 bc
       0.03282109 -0.026748305 -0.031195737 -0.019730177
0001f0 93 21 93 3c 87 56 9a bc 70 c5 98 bc 38 86 82 3b
       0.017960345 -0.018840088 -0.018648833 0.0039832853
000200 07 7e fc bc f7 4a c1 bd e8 c4 2a 3c 6e bd 8c bd
       -0.030821813 -0.094381265 0.010422923 -0.06872068
000210 b4 76 1d bd b1 97 48 bd 0a ca 2b bd 9e 50 fd 3c
       -0.038443282 -0.04897279 -0.041940726 0.03092223
000220 c3 cf 87 bc e7 14 35 bd 67 71 5a bd 4d fd 69 bd
       -0.01657856 -0.044209387 -0.053330805 -0.057126332
000230 77 7d bd bc b2 28 79 3d 90 0f 92 bc d1 ad b6 bd
       -0.023131115 0.060829826 -0.017829686 -0.089198716
000240 f1 2b b7 3c e4 36 b7 3b 43 1e a3 3c b5 9e b7 bc
       0.02235982 0.0055912603 0.01991189 -0.022414545
000250 ba 4c 53 bd 84 c3 00 bd 4b 9a 81 3d b3 c0 56 3d
       -0.051586844 -0.03143646 0.06328257 0.052429866
000260 04 94 ad bc 93 c5 26 3d df 3e a6 3d 38 c3 b9 3c
       -0.021188743 0.040715765 0.081174605 0.022676095
000270 b6 0e d9 bc 44 6b 1a bd b6 ad a3 bc be d1 a4 3c
       -0.026496273 -0.037699953 -0.019980293 0.020119544
000280 2f 68 5d bd d3 40 ae bd 59 60 f8 bc 3e ee 75 3d
       -0.054054435 -0.08508458 -0.03031938 0.06004166
000290 8d 12 90 3d e2 85 4a bd e1 a4 e8 ba 4a 88 50 bd
       0.07034788 -0.049444087 -0.0017749333 -0.050911225
0002a0 dd 2a 8e 3c c0 08 62 3a fa 6d 37 bd e9 57 b5 bb
       0.017354423 0.00086225197 -0.044782616 -0.0055341613
0002b0 77 4f b7 bc f3 2a 04 bd 8a 5a c1 bc 70 90 60 bc
       -0.022376759 -0.032267522 -0.023602743 -0.013706312
0002c0 3b 97 a0 bc 2a a6 66 3d eb 77 de bc 1e 12 27 3d
       -0.019603362 0.05631081 -0.02715679 0.040788762
0002d0 b8 a8 13 bd fc 32 de bc 94 81 98 bd 60 28 81 3d
       -0.036049575 -0.02712392 -0.0744659 0.06306529
0002e0 a0 a1 82 bd 77 da f4 bc 5e ef 89 3d 89 5d a3 bc
       -0.06378484 -0.029889328 0.06735109 -0.019942062
0002f0 1b 5c 14 3d 8d 18 59 3c 4a 33 8f bc 6a 14 38 bd
       0.03622065 0.013250482 -0.017480511 -0.044941343
000300 3d 8a d6 bb df c2 73 bd c1 6b 47 3d 92 13 d4 bc
       -0.006547241 -0.059512015 0.048686747 -0.025888238
000310 d3 7d a1 3c d8 44 13 bd 00 38 ae 3c 48 52 9c 3a
       0.019713318 -0.035954326 0.021266937 0.0011926377
000320 97 8b 84 bd f4 0a 39 3d 8f 59 24 bd c5 3d eb bc
       -0.06471937 0.04517646 -0.040124472 -0.028715977
000330 e2 72 21 3d 53 54 66 3c ae 97 4f bd 51 cd f1 bc
       0.0394162 0.01405819 -0.050681762 -0.029516848
000340 77 64 7d bc e6 fc 58 bd 50 3c c1 3c f1 20 44 bd
       -0.015465847 -0.052975558 0.02358833 -0.047882978
000350 d2 cf 0b 3c b9 f6 2f bd d3 d6 b9 bc 22 38 b1 3b
       0.008533435 -0.042959902 -0.022685444 0.005408303
000360 f6 de cf 3b 26 49 1d ba 71 2b 90 bc fb f2 85 3c
       0.0063437177 -0.00059999747 -0.01759884 0.016351214
000370 25 1d 74 3d 10 7e 32 bd c3 62 39 3d 12 87 bb bb
       0.059598107 -0.043577254 0.045260202 -0.0057228887
000380 e8 47 bc 3c e1 df 85 3d 70 38 e8 3c 4c fc 74 bd
       0.022983506 0.06536842 0.028347224 -0.05981092
000390 1c eb 66 bc 40 bb 20 bd d2 3d 29 bd 3e 37 9e 3c
       -0.01409414 -0.039241076 -0.041318722 0.01931345
0003a0 6b c1 01 3d 0b 7d 5c bd 7a 93 7c 3d 3b ae 99 3d
       0.0316786 -0.053830188 0.061664082 0.07503935
0003b0 4c af c4 bc 60 f9 e9 3b 49 2b 55 3c 31 77 e1 bc
       -0.02400937 0.0071403235 0.013010808 -0.027522655
0003c0 86 f2 b8 bd 4d 06 9a bd ce 0b 82 bb eb 69 38 3c
       -0.09030633 -0.07520733 -0.0039686924 0.011255722
0003d0 1c f4 d1 3c fe 85 83 3d 2d a3 3b ba 59 3f 46 bc
       0.025629096 0.06422041 -0.0007157799 -0.012100064
0003e0 d7 aa 53 bd 2c fc 88 3d 20 28 31 bd df e8 08 3c
       -0.051676597 0.06688723 -0.043251157 0.008356302
0003f0 6c 31 0e bd cb d6 5a bd cb eb fd 3c 80 4a b0 bc
       -0.0347151 -0.0534275 0.030996224 -0.0215199

bias f4 [64]
000000 0a 8b c4 ba a6 36 44 3d 61 7c a7 bb 0e ca 2f 3d
       -0.001499505 0.04790368 -0.0051112627 0.042917304
000010 67 82 51 3c 3c 20 8c 3d 9f 07 28 3d 95 27 78 3d
       0.012787438 0.06842086 0.041022893 0.060584623
000020 df ac fb bc 54 d1 df 3b 65 a9 04 bc 5e be c1 bc
       -0.03072208 0.006830374 -0.008097027 -0.023650344
000030 2f 90 42 3d 63 28 89 bc 9b 8c 77 3d 1b b4 70 bd
       0.047500785 -0.01674289 0.060436826 -0.058765512
000040 e2 72 81 3c 20 36 ba 3c fc d1 a2 3b 7f 4d 65 3c
       0.01580185 0.022730887 0.0049688797 0.013995527
000050 e8 14 4d bd e8 9c 96 3c 36 09 c2 3c 76 bc 0b 3d
       -0.050068766 0.018385366 0.023686033 0.034115277
000060 9e b5 49 3d fb b4 6e bd 4f ac b0 3c 0a dc bc bc
       0.04924547 -0.058278065 0.021566538 -0.023054142
000070 46 27 f7 bc 12 f9 ab 3c c3 66 48 bd 53 37 46 3d
       -0.030170094 0.02099279 -0.048926126 0.048392605
000080 0c c6 0a 3c 5d 3a 5d 3d 6e ad 27 3d 73 c8 59 bc
       0.00847007 0.054010738 0.04093688 -0.01329242
000090 52 d6 4a bd 41 72 86 bd de 4e d6 3a df 86 c4 ba
       -0.049520798 -0.06564761 0.0016350409 -0.0014993808
0000a0 71 77 e2 3c 6e c6 3e 3d 0f 26 5d bd b6 ff ab bc
       0.027644845 0.046575956 -0.053991374 -0.020995956
0000b0 ca 62 2d 3d ee d5 6f 3b 2f 15 8a 3d 40 94 0d 3d
       0.04233054 0.0036596018 0.06742322 0.03456521
0000c0 fd 32 ba bc a1 2b ea 3c 68 18 52 3d e2 31 8a 3b
       -0.022729391 0.028585257 0.051292807 0.0042173723
0000d0 fa 73 0a 3d 91 5d 07 bd bd 2b c6 3c 2e 47 60 bb
       0.03380201 -0.033048216 0.024190778 -0.0034222114
0000e0 8b 59 73 3d ba 8f 7c bc ab c2 4e bd 0a 0e 8a 3d
       0.059411567 -0.015415126 -0.05047862 0.06740959
0000f0 c2 c9 a9 3c cb e8 91 3c ff 82 d5 bc ed 1e 7e bb
       0.020726088 0.0178112 -0.02606344 -0.0038775757

weight f4 [64]
000000 75 3c 0e 3f e7 37 9c 3e 09 33 d8 3e dc 6f a1 3e
       0.55561 0.305114 0.42226437 0.31530654
000010 6f 34 49 3f 94 9f fe 3e 1c e2 76 3f 62 8e c6 3e
       0.7859563 0.49731123 0.96438766 0.38780504
000020 e1 4c 12 3f a9 c7 ec 3e 27 b4 4f 3e a3 4f 35 3f
       0.5714856 0.4624608 0.20283566 0.7082464
000030 46 79 e7 3e 81 be 60 3f f2 ae 6b 3f aa 64 ce 3e
       0.45209712 0.87790686 0.9206382 0.40311176
000040 f0 f3 25 3f 41 ba 0b 3f fc 58 1e 3f 51 fa 29 3f
       0.64825344 0.54581076 0.6185453 0.6639758
000050 5b 26 80 3d 56 a9 64 3e 04 ca c1 3e c7 d5 bf 3e
       0.06257316 0.22330222 0.37849438 0.37467787
000060 be ea 7b 3f 67 cf 2d 3f 1e 29 0f 3f 7b 4f 56 3f
       0.98405063 0.67894596 0.55922115 0.8371503
000070 67 6a e4 3e 0e 17 14 3e 08 7c 19 3e 1a 55 89 3e
       0.4461243 0.1446192 0.1498872 0.2682274
000080 65 1c 6b 3f a6 06 f1 3d 1e b3 5c 3f 73 24 4a 3f
       0.918402 0.11768846 0.8621081 0.7896187
000090 7e f7 f1 3e 40 00 45 3f fb 0b 09 3e 25 9e e1 3d
       0.47259134 0.76953506 0.13383476 0.11016492
0000a0 72 62 1b 3e c3 9d 0d 3e 72 55 82 3e c5 46 b3 3e
       0.15174273 0.13829713 0.25455815 0.3501493
0000b0 9c 08 61 3f f3 30 6e 3f 4f 10 28 3f ee 09 73 3f
       0.8790376 0.9304344 0.65649885 0.94937027
0000c0 f2 ed 7d 3f 56 25 41 3f b3 63 0d 3f 71 09 5c 3f
       0.991912 0.75447595 0.55230254 0.85951906
0000d0 70 59 53 3e bf 2b 22 3f 9c 6a b7 3e e3 fd 75 3e
       0.20639586 0.63348 0.35823524 0.24022631
0000e0 0d ed fd 3e 01 9a b9 3e a6 99 33 3f 3e 87 40 3f
       0.49594918 0.36250308 0.70156324 0.75206363
0000f0 0c 94 1b 3f 39 2d 0d 3f 7c af 31 3d 48 a4 56 3f
       0.60772777 0.5514713 0.043380246 0.83844423

bias f4 [64]
000000 00 f3 cd bc 1b 69 f2 3a 9b d8 ff 3b 37 fe 5f bd
       -0.025140285 0.0018494459 0.007807804 -0.054685798
000010 21 af 89 bb cc 1b 3b bd 1b a2 e9 bc 90 4c 66 3c
       -0.004201785 -0.045680806 -0.02851968 0.01405634
000020 4f f0 86 3b b1 26 99 3b d0 b3 12 b9 fa 1f 2c 3b
       0.0041180025 0.004673802 -0.0001399063 0.0026264177
000030 3d 32 be bb 20 47 2a bd 47 a4 ce bb 58 18 20 bd
       -0.0058043287 -0.041571736 -0.0063062045 -0.039085716
000040 e3 6e 57 bd be 99 c3 bb 30 4c 23 b9 15 c2 cd bc
       -0.052595984 -0.005969255 -0.00015573273 -0.02511696
000050 0a 26 b2 3a 8c 0c 28 bd 6a 07 02 bb 3e 94 e0 bc
       0.0013591659 -0.04102759 -0.0019840845 -0.027414437
000060 9c be e2 bc d0 cd db bc 43 83 c7 bc c2 ff 8a bd
       -0.02767878 -0.026831537 -0.024354583 -0.06787063
000070 97 8f 70 bc 22 93 e9 3c 49 55 00 bd 77 6e 6c bc
       -0.014682672 0.028512541 -0.031331334 -0.014430634
000080 d8 a5 86 bd fa 73 d2 bc 5a aa a4 bd 9f 09 92 bc
       -0.06574601 -0.025690068 -0.080403045 -0.017826853
000090 20 8a 8c bc d7 df b9 bc 8a af 78 3b 14 3d c2 bb
       -0.017155707 -0.022689743 0.0037946426 -0.0059276912
0000a0 89 ab cc 3b d6 3b 2d bd 01 d1 03 bd 4c 09 3e bb
       0.0062460345 -0.042293392 -0.032181744 -0.002899724
0000b0 aa ac 9d bd 33 8a ff bc 94 53 64 bd ea e7 72 bd
       -0.07698949 -0.031193828 -0.05574377 -0.0593032
0000c0 2b 33 7d bc 01 1b 40 bd d0 57 89 bc 47 1e 21 3b
       -0.015454094 -0.046900753 -0.016765505 0.0024584697
0000d0 62 0b 4e bc c7 86 fb bc 70 49 f7 bc 0e f5 ea bc
       -0.012575956 -0.030703915 -0.030186385 -0.028681304
0000e0 59 86 06 bd 69 4a e6 bc e8 4c 25 bd 8c 6b 10 bd
       -0.032842968 -0.028111653 -0.040356547 -0.035258815
0000f0 5c d6 cb bc a8 34 50 bd 6c fd 5a bc 4f af 89 bd
       -0.024882488 -0.050831467 -0.013366085 -0.067228906

running_mean f4 [64]
000000 14 14 0e bf aa f5 f3 3c f7 27 db bd 04 d4 25 3f
       -0.55499387 0.029780228 -0.10700982 0.64776635
000010 14 e5 c5 be b0 4c 31 3f 00 50 f4 be b9 8e 45 bd
       -0.38651335 0.6925764 -0.47717285 -0.048231814
000020 c7 d6 c0 be e6 b2 29 be c1 b1 df 3e 2f bb 9a bc
       -0.37663862 -0.1657215 0.43690303 -0.018888084
000030 a4 fd 72 3d 1f ca b4 be 8e ef 2f 3e 94 94 ba bc
       0.05932392 -0.35310456 0.17181227 -0.022775926
000040 9b 7c 7b 3e 52 55 80 be d1 92 c3 be ad c9 a5 3d
       0.24559252 -0.25065094 -0.3819795 0.08095107
000050 5c 28 9d bd da dc 06 3f ce a7 7b 3e b2 8c a3 bd
       -0.076737136 0.5268074 0.24575731 -0.0798582
000060 70 a4 69 3e 54 36 a8 3d 5f 93 40 3e a1 42 a2 3d
       0.22816634 0.08213487 0.18806218 0.07922865
000070 cc 06 c8 bb 46 70 8c bd b8 28 39 bd 86 7a 16 3f
       -0.006104326 -0.06857352 -0.045204848 0.58780706
000080 61 2f e0 3c 47 e9 da 3e cf 48 63 3e cc 4f 53 3d
       0.027366342 0.427561 0.22195743 0.051589772
000090 ca 9c 46 be 1e 5c 08 be db 01 79 3e f1 c6 8b be
       -0.19395748 -0.1331639 0.24317114 -0.27300218
0000a0 42 88 77 3e b9 38 5e 3e ee 18 83 3d 6e 73 ae 3d
       0.24173072 0.21701325 0.06401239 0.0851811
0000b0 94 65 9e 3e a2 76 47 be ac d1 be be 52 11 05 3f
       0.30936873 -0.19478849 -0.37269342 0.51979554
0000c0 16 46 3c bf a3 4d 65 3e c1 ca 5e 3e de f9 6e 3e
       -0.7354444 0.22392897 0.21757032 0.23337504
0000d0 ae d5 a3 3e 05 33 ed 3e 12 4c 2f 3e e7 c2 68 3e
       0.31998962 0.46327987 0.17118862 0.227306
0000e0 ee 32 14 3f 36 5c bd be b9 af 10 3e ff 10 65 be
       0.5789021 -0.36984414 0.14129533 -0.22369765
0000f0 f5 68 0d be 66 1a bb 3e 1d 4b bf bd 80 cd c9 3e
       -0.13809569 0.36543578 -0.093404986 0.39414597

running_var f4 [64]
000000 b0 ef 0a 3f db 14 3d 3e 67 31 8e 3e 1f 60 cd 3e
       0.54271984 0.18464987 0.27772066 0.40112397
000010 16 52 82 3e 97 05 c9 3e 29 96 d8 3e 28 21 42 3e
       0.25453252 0.39262077 0.42302063 0.1895796
000020 5d 22 9b 3e 96 66 41 3e a7 3a 6d 3e 74 24 96 3e
       0.30299655 0.1888679 0.23166905 0.29324687
000030 3d 43 3c 3e dd 38 94 3e 5e 69 67 3e bc 56 0c 3e
       0.18385024 0.28949633 0.22598788 0.13704962
000040 db 8b 6d 3e 08 16 8c 3e 3e ff 4b 3e 30 90 1d 3e
       0.23197882 0.27360559 0.19921586 0.15387034
000050 ea 63 36 3e 54 08 5e 3e 16 e4 4d 3e db 20 1a 3e
       0.17811552 0.21682864 0.20106539 0.15051596
000060 ad ac 9b 3e a6 41 83 3e 5d bc 34 3e 88 41 5e 3e
       0.3040518 0.25636023 0.1764998 0.21704686
000070 76 43 70 3e 60 8b 4e 3e c7 88 32 3e 28 a0 8f 3e
       0.23463234 0.20170355 0.17434989 0.28051877
000080 1f 91 79 3e 62 fa 26 3e b5 8e b4 3e d6 03 85 3e
       0.24371766 0.16306451 0.35265127 0.2597949
000090 db 60 29 3e 3e bd 9c 3e 86 75 19 3e 8b d9 85 3e
       0.16540854 0.3061313 0.14986238 0.26142535
0000a0 cb ba 4a 3e 77 54 71 3e 06 20 1e 3e f1 ba 58 3e
       0.19797818 0.23567377 0.15441903 0.21165062
0000b0 b0 7d 50 3e c1 5d 5a 3e bf ea f9 3e e3 fe 7a 3e
       0.20360446 0.21324827 0.4881191 0.24511294
0000c0 eb 1c da 3e 20 78 a9 3e 8e 53 40 3e 44 8b 2d 3e
       0.42600188 0.3309946 0.18781874 0.16947657
0000d0 09 9a 8b 3e 1f 40 9b 3e 03 e1 0e 3e a4 e3 41 3e
       0.27265957 0.30322358 0.13953023 0.18934494
0000e0 4e 3a b2 3e cb 46 8d 3e ad 80 7d 3e c5 be 83 3e
       0.34810108 0.27593073 0.24756117 0.25731483
0000f0 89 34 85 3e 9f bd 94 3e aa 8d a6 3e d7 d2 9a 3e
       0.26016644 0.2905092 0.32529956 0.30238983

weight f4 [64, 64, 3, 3]
000000 e7 28 f3 3b ec 88 1e bb d2 2e 0a bb ab e4 3a bc
       0.0074206474 -0.0024190499 -0.0021085036 -0.011407058
000010 64 37 67 3b f4 a2 6b bd d9 59 4f 3d 10 55 92 3d
       0.0035280818 -0.05752845 0.050622795 0.07145131
000020 84 8c 57 3d f6 66 2c bd b2 fe 06 bd 50 f4 b7 bb
       0.05262424 -0.04209038 -0.03295774 -0.005613841
000030 9e f8 ad bc 36 52 df 3c 00 11 9e 3a 49 f7 c6 3c
       -0.021236714 0.02726088 0.001205951 0.024287837
000040 ba 67 93 bd 02 4b 18 ba e0 e4 33 3b f2 0f 9f 3c
       -0.07197519 -0.0005809517 0.0027449653 0.019416783
000050 25 15 72 bd 3a ac 8f 3b 85 22 39 3c d2 52 2e bd
       -0.059102196 0.0043845447 0.011299734 -0.042559452
000060 bb 2a 45 3c 58 78 cd 3a 7a 4c 57 bd 8f 23 41 bd
       0.0120341135 0.0015676124 -0.052563168 -0.047153052
000070 a7 93 ae 3c d9 5e bf 3c e5 4b 2f bd a5 ad a1 3b
       0.02131064 0.023360657 -0.042796988 0.00493403
000080 ec 33 65 3c 14 1f 07 bd 2a 21 92 3b 26 41 39 bc
       0.01398943 -0.032988623 0.00445952 -0.0113070365
000090 a8 82 45 3d b3 5c ca 39 5b 86 04 3d 92 ba db bc
       0.048220307 0.0003859751 0.032354694 -0.026822362
0000a0 50 dc 7e 3c 6d 52 ec bc 72 6a a0 39 5e 8e 41 bc
       0.015555456 -0.028847897 0.00030596886 -0.011813728
0000b0 5c f2 46 bc 85 ab a6 3c 52 5d 2e 3d c4 d8 e8 3a
       -0.012142744 0.020345459 0.042569466 0.0017764797
0000c0 a4 f2 8f bb b8 21 03 3d 14 db 4c bd b1 8b 17 3c
       -0.0043929387 0.03201458 -0.050013617 0.009249614
0000d0 9c a0 9b 3d 32 b7 d6 3c 91 bc 95 3c 95 ef d6 3c
       0.07598993 0.026210401 0.018278392 0.026237288
0000e0 c6 43 0b 3d 3e 05 d0 3b 20 c7 05 3d 98 18 1b bc
       0.03400018 0.006348281 0.032660604 -0.009466313
0000f0 d6 48 01 bc 79 63 55 3d a9 31 70 3d 85 49 ab bc
       -0.007890901 0.052096818 0.05864111 -0.02090908
000100 16 55 b1 bc bb cd 47 bd 1b 8f 0d 3d f8 c3 21 3d
       -0.021647017 -0.048780184 0.034560304 0.03949353
000110 9e ea 89 3b a4 80 cf bc bb e9 94 3b fc 3f 00 3d
       0.0042088768 -0.025329895 0.0045444644 0.03131102
000120 12 04 53 bc 36 88 82 bd ca 9d f5 3b ca 75 69 bc
       -0.012879388 -0.063736364 0.0074956166 -0.0142492745
000130 09 fe 22 bd 19 56 25 3c d9 6c 46 3c be 8e 23 bc
       -0.039793048 0.010091328 0.012110912 -0.009982763
000140 11 7e ba bc 6b 5b 97 bc 4c e0 1d bb 9e 42 96 3c
       -0.022765191 -0.018476209 -0.002408999 0.018342312
000150 24 3c 74 bc e7 21 67 bc 63 e3 f0 bb 39 d1 fe bc
       -0.014906917 -0.014107204 -0.0073513254 -0.031105625
000160 be 2b 8c 3a df e8 37 bc fa 23 38 bb 0a 96 fa bc
       0.0010694189 -0.011224954 -0.0028097616 -0.030589122
000170 73 e6 af bd d6 41 56 bd 4d b1 c3 3c a9 bd 31 bd
       -0.085888766 -0.05230888 0.023888255 -0.043393765
000180 45 e8 32 3d e6 99 be 3d 3c a0 0a bc ad 87 9e bd
       0.04367854 0.093066975 -0.008461054 -0.07740722
000190 65 85 44 bd d4 7e c9 3c 8f 22 af ba 6b 42 84 3d
       -0.047978777 0.02459661 -0.001336174 0.06457981
0001a0 ca 53 06 3d f0 57 ab bb 01 6b be bc 92 a9 ca bc
       0.03279475 -0.005228989 -0.023244383 -0.02473906
0001b0 4f 6e 4e bd 67 30 1b 3c b5 a3 fd 3b 0f fb 2b bc
       -0.050398167 0.009471989 0.0077404627 -0.010496869
0001c0 8a 38 6d bb 84 d9 c9 bc f8 8b 09 3d 29 96 e9 3c
       -0.003619703 -0.024639852 0.03358075 0.028513985
0001d0 1a db a2 3c 37 14 37 3d 7c 48 ad bc 23 2d 5e 3c
       0.019879866 0.044697013 -0.021152727 0.013560566
0001e0 73 eb 16 bc dc 7a 94 3a 1f 86 ab 3c 0e 86 49 3a
       -0.009211409 0.0011328119 0.020937977 0.0007687517
0001f0 a1 48 8a 39 57 d5 98 bc e3 da 05 3d 49 71 ab bc
       0.00026375524 -0.018656416 0.03267945 -0.020928042
000200 ed 51 94 bd 46 f8 34 3d 19 6e 78 3d 43 c7 b7 3c
       -0.072421886 0.044182085 0.060651872 0.022433883
000210 a4 80 3d bc c9 73 31 3d 01 ed 02 3c 20 40 e3 bd
       -0.011566315 0.043323312 0.007991076 -0.11096215
000220 68 3e 83 3b 78 f8 cc 3b 63 14 4f bd 18 65 1d 3d
       0.004005242 0.0062552057 -0.05055655 0.03842649
000230 c8 e2 ff 3c 2b a9 43 3c 7e 81 ca 3c a8 3e 94 bd
       0.031236067 0.011942188 0.02471995 -0.07238513
000240 58 41 85 3c cd 8e 72 3b b7 9a 5b 3d a8 f2 dc 3b
       0.01626651 0.0037011385 0.053614344 0.006742794
000250 fb e2 33 3d 62 ef 1d 3d 4d 49 ef 3c 2d e0 bc bb
       0.043917637 0.03855837 0.029209757 -0.0057640285
000260 d7 38 16 bd b5 59 3d bd 85 2e 0a bd 27 73 05 bd
       -0.0366753 -0.04622813 -0.03373577 -0.03258052
000270 3b a5 9f bc b9 c5 fa 3b b7 00 05 3c ca 95 81 3c
       -0.019487968 0.007652965 0.008117846 0.015818495
000280 c0 bf cd 3c 8d ef 25 3d 98 5d d3 3c ff cd 15 3c
       0.025115848 0.040511657 0.025801465 0.009143352
000290 63 40 7e bd 51 f7 08 bd f0 53 13 bd d7 83 91 bd
       -0.062073123 -0.033438984 -0.03596872 -0.071052246
0002a0 3e 4d d8 bb 31 75 2a bd 83 13 9d bd 57 67 3e bd
       -0.006601005 -0.04161567 -0.07669737 -0.04648527
0002b0 98 04 e2 3b c6 7e 33 3c a6 a0 b6 bc 5e 1e f0 3c
       0.0068975203 0.010955518 -0.0222934 0.029311355
0002c0 8e f2 3f bc 2c 69 cf 3b a1 88 f8 39 ab ab 00 3d
       -0.011715544 0.006329676 0.00047404043 0.031413715
0002d0 97 42 44 bd a7 ee 1a 3d b6 d6 85 3b 70 bd b2 3d
       -0.047915068 0.037825253 0.0040844334 0.087275386
0002e0 14 d7 27 bc ae c3 df bd 37 81 32 3d 05 e9 9f bc
       -0.01024415 -0.10925995 0.04358026 -0.019520292
0002f0 1d 46 54 bd 9b 66 0c bd b1 14 8d bc de e9 f2 bc
       -0.051824678 -0.03427754 -0.01722178 -0.029652532
000300 12 98 b0 3d 85 19 0b 3d d6 d6 69 3d fd 34 44 3d
       0.08622755 0.033959884 0.05708965 0.047902096
000310 cc ab 10 bd 9e 91 0b 3d b4 58 80 3d 80 2c 87 3d
       -0.03532009 0.03407442 0.06266919 0.066002846
000320 ee f5 4e 3d df 5e 0b 3d 19 9a 42 3d b7 4d 9d 3c
       0.050527506 0.034026023 0.04751024 0.019202096
000330 d2 23 75 3d 33 57 23 3d 66 80 52 3d 17 6a 9d 3d
       0.059848614 0.03987808 0.05139198 0.07686251
000340 06 60 3d bb d7 4a af bb 33 3d 85 3c 60 47 54 bd
       -0.0028896346 -0.005349498 0.016264534 -0.05182588
000350 46 27 10 bd b3 4b 7c bd a4 7e 09 3d 13 bc 90 3c
       -0.035193704 -0.06159563 0.03356804 0.017667806
000360 46 ea 80 bc c8 02 17 bd 83 24 7d 3b 40 a5 66 bd
       -0.01573671 -0.036867887 0.00386265 -0.05630994
000370 54 d2 37 bb 74 84 6d 3d 36 b9 cc bc 1f 76 9f 3b
       -0.002804895 0.057987645 -0.02499066 0.004866376
000380 7c 4d 28 bd 5d 08 6f bd c8 de 18 3d df c0 8b bc
       -0.04108952 -0.058357585 0.037321836 -0.017059742
000390 a3 99 ae bc f7 2d ae 3c 5a b8 06 bc c2 2a af bc
       -0.021313494 0.021262152 -0.008222664 -0.021382693
0003a0 61 cc 1f bd 83 7f 9b bd 36 0f c6 bb ce 08 32 bb
       -0.03901327 -0.0759268 -0.0060442938 -0.0027165893
0003b0 98 20 45 bd c6 20 42 bd a0 ab a4 3c 1f d0 67 bd
       -0.048126787 -0.047394536 0.020101368 -0.056594964
0003c0 51 ef 6d 3d a5 03 e3 bc 63 fd 2d 3b 8d 70 65 3b
       0.058089558 -0.027711699 0.0026548735 0.0035009712
0003d0 e3 58 15 bc 70 3e ef ba d6 2a 80 3c 7f d8 9b 3c
       -0.0091154305 -0.0018252861 0.015645426 0.019024132
0003e0 fd 90 d7 3c c9 eb 06 3d 4c 3d 30 3c 22 50 9a bc
       0.026314253 0.032939706 0.010756802 -0.018837038
0003f0 00 92 05 bb 53 1a cb bc 01 5f b7 3c 88 28 90 3c
       -0.0020381212 -0.024792826 0.022384169 0.017597452

bias f4 [64]
000000 84 6a ea 3b ba ac ea 3b b4 2e c0 3c dd 81 90 b9
       0.007153811 0.007161704 0.02345977 -0.00027562576
000010 5b 8a fa 3c 5d b4 dc 3b 5f 36 c9 bc a0 3c 31 3c
       0.030583551 0.006735368 -0.024562059 0.010817677
000020 4c ea 58 3a e6 01 df bc 69 65 35 bd ee e4 31 bc
       0.0008274659 -0.027222585 -0.044286165 -0.010857804
000030 e9 1a 34 bc 83 1c ef bc 97 81 18 3d fb 10 1d bd
       -0.010992744 -0.0291884 0.03723296 -0.038346272
000040 a3 1f 05 3d b3 e6 25 3d 0b a7 95 3c 89 0a 35 3b
       0.032500874 0.040503215 0.018268129 0.0027624688
000050 55 ae 38 3d 35 99 01 3d 47 fe 0a 3c 12 65 2b 3c
       0.04508813 0.03164025 0.008483476 0.010461109
000060 5c 3c 24 3d 00 dd 20 bd 93 04 83 bc 12 31 25 3d
       0.040096626 -0.039273262 -0.015993392 0.04033
000070 37 2c cf 3c fb 15 cf bc 18 ad c3 bc 3b 0c 86 bc
       0.025289638 -0.025279036 -0.023886248 -0.016363254
000080 1e fb aa 3b a0 ec ff bb 6e b8 ac 3c fa 66 27 3c
       0.005217924 -0.0078101903 0.021084037 0.010217423
000090 20 cc bd 38 5b 9f be 3c 68 a3 85 3c 52 dc 00 ba
       9.0502435e-05 0.023269346 0.01631327 -0.0004915643
0000a0 33 c5 a4 3c 72 73 c1 bc 65 7a 99 3a 9e 4c 1c bc
       0.020113563 -0.023614619 0.001170945 -0.009539751
0000b0 08 7b 36 3b 2f 93 8d 3c a4 ad 0d 3d 13 ed fb bc
       0.0027844328 0.017282097 0.034589425 -0.030752694
0000c0 07 41 df 3c 8c cc 3d bc e6 3b ce bc d8 9e a1 bc
       0.027252687 -0.011584412 -0.025175046 -0.019729063
0000d0 89 c6 cf 3c cf b9 a3 3c 3c e6 39 3d a1 0a 4e bd
       0.025363224 0.019986061 0.045385584 -0.050303105
0000e0 9f 9c 1a 3d 76 2d d5 bc de c9 5f 3c 1f 69 19 bd
       0.03774702 -0.026022654 0.013658969 -0.037453767
0000f0 0c 27 93 bc a4 f3 f9 bc 40 94 25 3d c8 5b 76 3c
       -0.017962955 -0.030511685 0.040424585 0.015036531

weight f4 [64]
000000 30 56 85 3e 83 64 f2 3d 5d c8 92 3e 7d 2d 18 3f
       0.26042318 0.11835577 0.2866849 0.5944441
000010 9a 2f 7a 3f 74 98 10 3f 14 b2 1c 3f 21 51 d9 3e
       0.97728884 0.56482625 0.61209226 0.4244471
000020 05 10 03 3f b5 63 48 3e ef b2 5e 3f 58 a4 15 3f
       0.5119632 0.19569285 0.8699178 0.58453894
000030 1f 27 2a 3f 18 f6 b0 3e 9f 3d 4b 3f d2 10 52 3d
       0.66465944 0.34562755 0.793909 0.051285572
000040 89 1a 45 3f 55 e2 1b 3e fd 16 04 3f 7f ae 21 3f
       0.76993614 0.15223058 0.5159758 0.63156885
000050 6b 7f 51 3f 87 49 f5 3e 9b ae a5 3e 7b 47 8e 3e
       0.8183505 0.4790766 0.32359776 0.2778891
000060 d6 e4 b1 3e 00 99 57 3e b5 4d 33 3f 38 fd cb 3e
       0.347449 0.21054459 0.70040447 0.39841628
000070 33 a0 df 3e b3 53 27 3f 64 12 dc 3d 2b cc 12 3f
       0.4367691 0.6536209 0.10745695 0.57342786
000080 0e 07 43 3f c1 55 5e 3f c1 62 ef 3e 3d 8e 81 3e
       0.7618264 0.868496 0.4675503 0.25303832
000090 b6 4e 77 3e 57 31 5b 3f 62 02 b1 3d 11 1b 64 3f
       0.2415112 0.8562216 0.086430326 0.891038
0000a0 e8 a1 93 3e a0 18 14 3e cd 73 96 3e 47 69 2d 3f
       0.28834462 0.14462519 0.29385224 0.67738765
0000b0 ae 7f e2 3d 4c 2b 4d 3e 1f 9d 59 3f a7 e1 45 3f
       0.11059509 0.20036048 0.8500537 0.77297443
0000c0 8e f7 10 3f e9 d6 96 3e a1 63 af 3e 0e c5 73 3f
       0.5662774 0.29460838 0.34255698 0.95222557
0000d0 df 75 35 3f bf d7 3a 3f 8b 54 29 3f 8c 13 3a 3f
       0.7088298 0.7298545 0.6614463 0.72686076
0000e0 5e 27 6d 3f e5 f4 09 3f 27 92 4f 3f 2f e9 4c 3f
       0.92638195 0.53889304 0.81082386 0.8004331
0000f0 2c 5b 2c 3f 38 9f bb 3d 6d 29 d9 3e 6f f1 2a 3f
       0.6732662 0.09161228 0.42414418 0.6677465
