1epochs_0.0007learingrate_50batchsize.pt (torch_old, 712676 bytes, 34 tensors)

weight f4 [32, 3, 5, 5]
000000 63 41 05 bd 63 27 93 3d 6f a6 82 bd e3 6c 56 3c
       -0.03253306 0.07185247 -0.06379401 0.013087484
000010 32 fe b9 3d e9 ca 86 bd 25 24 85 3d df 46 c2 bd
       0.09081687 -0.06581671 0.06501035 -0.09486174
000020 a0 0b c9 3d 1a aa e0 3d 34 c4 c1 bd ee ff dd bd
       0.098166704 0.10969944 -0.09461251 -0.1083983
000030 db 58 3c bd 6e 46 85 3d 7a d1 a4 bd 8b 1f 19 3c
       -0.045983177 0.06507574 -0.08047767 0.009345899
000040 57 db f8 bd 42 9e 7a 3d cc c5 05 3d 35 a4 61 bd
       -0.12151211 0.061186083 0.032659337 -0.05508824
000050 c6 5b b9 bd 9c 5c ae 3d 0b 7a 57 bd 30 b3 37 bd
       -0.090507075 0.085137576 -0.052606624 -0.04484862
000060 f4 65 03 be 91 38 b8 bd 6d 17 b4 3d a0 91 68 3c
       -0.12831861 -0.08995164 0.087935306 0.014194876
000070 ae cb a3 3d 8f 6c 12 bd ea 4f 46 bd dd 16 29 bd
       0.07997833 -0.03574806 -0.048416056 -0.04128157
000080 59 b0 ad bd ff 10 e1 bc 99 d3 00 3d 06 bb 36 3d
       -0.08480901 -0.027473925 0.031451795 0.044611953
000090 ac 5b eb bd 92 8b 53 3c e3 49 d2 bd 72 19 b1 3d
       -0.114920944 0.012911694 -0.10267999 0.086474314
0000a0 c6 84 dd bb 53 04 89 bd c8 46 6e 3d 99 9e 8a 3d
       -0.0067602126 -0.06690278 0.05817297 0.06768531
0000b0 9b bc be bd c8 b0 9b 3d c8 b3 19 bd ef b3 6c 3c
       -0.093133174 0.07602078 -0.03752497 0.014447196
0000c0 2b 6f 87 bd df 54 9c bd c5 20 2a 3d d7 04 12 3d
       -0.066130005 -0.076333754 0.041535158 0.035649147
0000d0 ac b4 66 bd b0 7b ae 3d 5a de 98 3d 05 f8 70 3c
       -0.056324646 0.08519685 0.07464285 0.01470757
0000e0 2f e1 cb 3d 5f 2f 14 3d 81 c0 e0 bc 35 e0 42 bc
       0.0995506 0.03617799 -0.027435543 -0.011894275
0000f0 8e 70 d3 bd f8 b0 b7 3c 30 62 ca bd 0e 71 65 bd
       -0.103242025 0.022423252 -0.09882009 -0.05601602
000100 14 bb df 3d b6 b8 46 3d 4d 60 82 3d 6f ed 0a be
       0.10924354 0.048515998 0.06366024 -0.13567136
000110 d3 e6 ac bd 49 32 0f bd 1b f4 d8 bd 92 8c c4 bc
       -0.08442464 -0.034960065 -0.105934344 -0.02399281
000120 46 cd f3 bd b0 af 95 bd d7 0b 83 bb 6d 77 c4 bd
       -0.11904387 -0.073089 -0.003999214 -0.09593091
000130 51 f0 a8 3d b2 27 9a 3d 6a 6b 81 bc 35 85 4e 3d
       0.08248962 0.075271025 -0.01579829 0.050420005
000140 6e 1a 50 3c bd 9f 9e 3d 97 ac f3 3c 94 0c 9a bd
       0.012701614 0.077453114 0.029745383 -0.0752193
000150 77 4e a3 bd 31 e5 65 bc 6c 14 0a be d5 64 ad bd
       -0.0797395 -0.014031694 -0.13484353 -0.08466498
000160 f6 a8 a6 3d 18 45 d3 bd d6 bf 7a bd 02 f5 a6 3d
       0.081376955 -0.10315913 -0.061218105 0.081522
000170 b0 86 96 bd cd 4b d5 bd f5 94 a7 bd 34 1b f9 3c
       -0.07349908 -0.104148485 -0.08182708 0.03040848
000180 5a 2b 0b bc d4 bb eb 3c 7a b8 01 3e 04 00 5f bd
       -0.008494223 0.028776087 0.12668028 -0.054443374
000190 f2 87 85 3d ff 2c 6e 3d 4a c7 65 3d e3 bd c5 3d
       0.0652007 0.05814838 0.05609826 0.09655359
0001a0 d6 ef 56 bc 44 e0 86 bc 11 bd cd bd 73 d5 8f 3d
       -0.013118705 -0.01646436 -0.10045827 0.07023134
0001b0 5c b6 4e bd 97 6f dc bb e4 96 9f 3d de 25 7f bd
       -0.05046688 -0.0067271697 0.07792452 -0.062291972
0001c0 1d 39 13 3c 9c 20 c4 3d a4 92 c8 bd 07 a6 ef bd
       0.008985785 0.09576532 -0.097935945 -0.11701589
0001d0 df 77 db bd d4 b3 f2 bd 6e de 4a bd 27 f6 e7 3d
       -0.10716223 -0.11850706 -0.04952853 0.11326247
0001e0 5a a8 a3 bd 10 04 5e bd 12 ea 76 bd 80 0b 95 3d
       -0.07991095 -0.054203093 -0.06028182 0.07277584
0001f0 0b 96 8a bc 17 13 76 ba a0 51 42 3d 98 b9 be 3d
       -0.01691725 -0.0009387 0.047441125 0.09312743
000200 ec a4 af bd 97 70 7a bc 07 af 68 3b 78 b0 b4 bb
       -0.08576378 -0.015285633 0.0035504715 -0.005514201
000210 5b f4 a5 3d d6 96 d3 bc 4f c0 3d 3d 9d 8b 0c 3d
       0.08103248 -0.02582876 0.046325978 0.034312833
000220 bc 02 9b 3c cd 86 a0 bd 76 cd 33 3d a7 91 f8 3a
       0.018922202 -0.07838211 0.043897115 0.0018964306
000230 84 37 ca bc 7d 4c 01 be 31 74 77 bd cd aa e4 3d
       -0.024684675 -0.12626834 -0.060413543 0.1116539
000240 03 a3 e5 3d d9 10 0d be 90 1b db 3c 93 45 eb 3d
       0.11212733 -0.13775958 0.026746541 0.114878796
000250 4d de 68 bc fb 32 de bc 79 4b 37 bd ff 63 71 bd
       -0.014213157 -0.027123919 -0.04474971 -0.058933254
000260 bc b1 5f 3b d0 8e 57 bd b5 4a 48 bd 61 3d 84 bd
       0.0034133038 -0.05262643 -0.04889937 -0.064570196
000270 d9 e7 99 3d 47 e6 a5 3d 8f 33 23 3d 24 d6 b5 3c
       0.075149246 0.081005625 0.039844092 0.022196837
000280 58 86 eb 3d 4e 51 da 3d f0 78 97 bd 1a c2 9a 3d
       0.115002334 0.10660039 -0.07396114 0.07556553
000290 01 03 0e 3c 65 3a 1d 3c 25 3a c2 bc e4 ac 92 3c
       0.008667708 0.009596442 -0.023709366 0.017904706
0002a0 b3 6d 85 bd 16 02 dc 3d d1 50 f8 3d de 1a c6 bd
       -0.06515064 0.10742585 0.121247895 -0.09673093
0002b0 30 06 42 bd 8f df ab bd 26 9d f9 3c 89 ef da bd
       -0.047369182 -0.0839225 0.030470442 -0.10690219
0002c0 5c 01 ec bd 10 e9 a0 bd 9e 14 4b 3b ba 4c a7 bd
       -0.11523697 -0.07856953 0.003098763 -0.08168931
0002d0 c7 93 d9 bd e0 0d 91 bc 3e 45 26 3d 07 ce 9c bc
       -0.106238894 -0.017706811 0.04059338 -0.01914121
0002e0 d4 4e ce 3c 3e e0 ea 3d d8 cb 96 bd a9 d9 e6 3d
       0.025184073 0.11468552 -0.07363099 0.11271984
0002f0 8e 8b 38 bd 80 e5 90 bd ed 4c f8 3a 6a fe 94 bd
       -0.045054965 -0.07075024 0.0018943824 -0.07275088
000300 af f6 55 bd 0b 21 3b bd 86 7d 69 3d 88 f9 67 3c
       -0.05223721 -0.04568581 0.057004474 0.014158614
000310 16 cd 04 3d 30 96 20 bd 4d 9c d3 3d b1 0c d6 3d
       0.032422148 -0.03920573 0.103325464 0.104516394
000320 fb 14 c9 3d ca 25 a3 3d 8a 3d 40 bd d0 8a 00 bd
       0.09818455 0.07966192 -0.04693369 -0.031382382
000330 bd 65 44 3d 53 a8 85 bc e8 73 c9 bc f6 de 38 3d
       0.047948588 -0.016315615 -0.024591401 0.045134507
000340 fe ab e6 bd b3 0e 0a 3d 78 d3 ac bc 27 d4 03 3e
       -0.11263274 0.033705425 -0.02109693 0.12873898
000350 fd ed ae 3b 39 b4 cc 3b ab 34 b2 bd cd 7f 77 3d
       0.005338429 0.00624707 -0.08701452 0.060424615
000360 ae 46 8f 3d 33 90 26 bd 7d ea c6 3d 76 8a 77 bd
       0.06995903 -0.040664863 0.09712694 -0.06043478
000370 14 ec b7 3c a8 0f ac 3d 14 c2 48 3c a2 eb 9b 3c
       0.022451438 0.08401424 0.012253303 0.019033257
000380 ea 61 63 bd 68 f0 29 3d eb 0b b9 3d 53 49 1f bd
       -0.0555133 0.041489035 0.09035476 -0.038888287
000390 fc 7f a2 bd 99 35 ea 3d f1 82 8d 3d cb a6 40 3c
       -0.07934567 0.11436004 0.06909741 0.011758517
0003a0 17 af 80 3d 9c 05 d7 3d 82 08 3f bd be 75 a7 3c
       0.06283396 0.10499117 -0.046638973 0.020441886
0003b0 e0 d5 94 3d 83 6c bf bd cd 1b fc bd bc 05 f7 bd
       0.07267356 -0.09346869 -0.1230999 -0.120616406
0003c0 8a 83 b5 bd 64 2f 8c bc 45 71 19 bd 32 ed ef 3d
       -0.0886298 -0.017112441 -0.037461538 0.11715163
0003d0 ea 9d a6 3b 06 dd 49 bd 56 6f 0b bd e9 bd fd 3d
       0.005084743 -0.04928305 -0.034041725 0.12389738
0003e0 ca 39 d2 bc ef bc c8 bd b0 e6 a2 bd 42 dd e5 bd
       -0.025662322 -0.09801661 -0.079541564 -0.11223842
0003f0 81 56 66 3d 2c 7b e7 3d 97 6e b4 3d e1 31 e3 bd
       0.05623484 0.1130279 0.08810156 -0.11093498

bias f4 [32]
000000 b2 79 b6 3d d2 b6 b5 bd b6 e1 0a bd 85 2b 4a bd
       0.0890993 -0.08872761 -0.03390666 -0.04935791
000010 25 3d 84 bc 4f 03 9d 3d 80 99 be 3d a3 87 a3 3d
       -0.016142437 0.07666647 0.093066216 0.07984855
000020 61 a8 89 3d 34 72 98 bd 80 81 a9 3d 19 6d ce 3c
       0.06721569 -0.074436575 0.08276653 0.025198506
000030 b8 d7 6e 3d da 25 99 3d d1 95 cb bc 49 d4 81 bd
       0.058311194 0.07477923 -0.024851711 -0.06339318
000040 12 bf 5b bd 52 3b 19 bd c1 dc f2 bc df 31 05 bd
       -0.053649016 -0.037410088 -0.02964628 -0.032518264
000050 0d 2a 6b 3d 6c d3 34 bd ec 3f ab 3d 00 f0 1c 3d
       0.05741315 -0.04414694 0.083618015 0.03831482
000060 2a e3 22 bd f0 48 7c 3d df 0c df bd 6e af 71 3c
       -0.03976742 0.061592996 -0.10891127 0.014751298
000070 e5 a5 92 bd 79 27 0b bc 95 0a aa bd 44 7b c1 3d
       -0.07160548 -0.008493298 -0.083027996 0.09447339

weight f4 [32]
000000 af fa 55 3f 69 57 ed 3e f6 8d 0f 3f 2c e2 5f 3f
       0.8358564 0.4635575 0.5607599 0.87454486
000010 d0 c4 6e 3f 14 5f 12 3f a8 b9 0f 3f ba f7 a4 3d
       0.9326906 0.5717633 0.56142664 0.080550626
000020 c3 43 de 3e b5 e1 df 3e 80 dc 2d 3e ef 85 b5 3e
       0.43411073 0.43726888 0.16978645 0.35453746
000030 32 03 15 3f 15 12 4f 3f 4c 17 ce 3d 67 67 34 3f
       0.58208 0.80886966 0.10063037 0.7047028
000040 c1 12 7c 3f 93 55 81 3f b6 09 1b 3f b0 4b 06 3e
       0.98466116 1.010424 0.6056169 0.1311481
000050 59 da 85 3e 62 42 4e 3f 18 d1 0e 3f 80 2f 33 3f
       0.2614315 0.8057004 0.557878 0.69994354
000060 8f 29 26 3f 25 3e d4 3e 28 cc b9 3e c9 2f 1b 3f
       0.64907163 0.41453663 0.3628857 0.6061979
000070 a5 3f e2 3d 0b 34 49 3f 88 f8 e4 3e 25 a2 34 3f
       0.110472955 0.78595036 0.44720864 0.7055991

bias f4 [32]
000000 eb 59 38 bc 6c 58 09 bc 20 3d 69 bc 6b 14 16 bd
       -0.011251907 -0.008382898 -0.014235765 -0.036640566
000010 91 bc 70 bd 81 20 46 3b 95 78 87 bc 12 5f 7c 3c
       -0.05877358 0.0030231776 -0.01653699 0.015403526
000020 f4 70 93 3c 0a 90 4a bc ba d1 1c bd de 22 99 3c
       0.017998196 -0.012363443 -0.03828595 0.018693384
000030 f2 54 fc bb 1d ef e5 bc 98 77 0b bd 45 5c bf bc
       -0.007700556 -0.02806812 -0.0340496 -0.023359427
000040 27 30 2c bc 51 86 e2 3c 6c 40 56 bd 6d 2b f8 bc
       -0.010509527 0.027651938 -0.05230753 -0.030294145
000050 89 5b fa bc 0a 5d e4 bc 01 9c fa bc 53 70 ef 3b
       -0.030561225 -0.027876396 -0.030591967 0.0073070913
000060 76 a0 6b ba 27 52 03 bd 51 19 f2 bc 22 0c cc bc
       -0.0008988449 -0.03206077 -0.029553087 -0.02490813
000070 59 ea 72 bb 18 15 02 3d 80 47 1c bc 69 43 a4 3c
       -0.0037065952 0.031758398 -0.009538531 0.020051675

running_mean f4 [32]
000000 16 7a 31 3f 7b da 23 3e b6 18 41 bd 45 9b 6d 3d
       0.69326913 0.16001312 -0.047142707 0.058009405
000010 2c d8 98 3d 9f c7 cf 3a 40 ad 10 3f 74 b5 a5 3e
       0.074631065 0.0015852338 0.5651436 0.32365
000020 70 09 fd 3e 4a 69 07 3e 61 61 cd 3e 02 2a 84 3e
       0.49421263 0.13223758 0.40113357 0.258133
000030 44 72 c7 3e f0 e1 24 be 99 63 a5 be 69 14 53 bd
       0.38954365 -0.16101813 -0.3230255 -0.051533137
000040 6b 9c 39 3c 72 80 50 3e 01 59 c5 3b dd 1e d1 bd
       0.011328797 0.20361498 0.006022573 -0.10210965
000050 5e b4 76 3e 8c ff 3a 3f dd e1 0f bd de 27 cb 3e
       0.24092242 0.73046184 -0.03512751 0.39678854
000060 c5 37 02 3f d6 c9 a4 3e 97 dc 2c bd c2 79 2b bf
       0.5086635 0.3218524 -0.04220256 -0.6698266
000070 3c 91 ff 3e fa 9b 47 3e ee a4 56 3e de b0 2d 3f
       0.49915493 0.19493094 0.20961353 0.67848

running_var f4 [32]
000000 7f 3c c0 3e db e2 67 3e ad ff bb 3d 46 11 90 3d
       0.37546155 0.22645132 0.09179626 0.07034545
000010 d1 57 1b 3e 7f 92 10 3e ca 00 bc 3e 33 69 5d 3e
       0.15170218 0.14118384 0.36719352 0.21622162
000020 cf 8c 56 3e fa 0c 92 3e bf c2 5c 3e 5b bb 0b 3f
       0.20952152 0.28525525 0.21558665 0.54582757
000030 bf d2 fc 3e 8b 87 42 3e 54 3a 0c 3e 15 28 86 3d
       0.49379537 0.18997018 0.13694125 0.06550614
000040 a3 38 cf 3d 7d f0 c2 3e e2 3c e8 3d ff ad 18 3d
       0.101182245 0.38074103 0.113397375 0.03727531
000050 da 19 db 3d 11 da b8 3e 70 8f 83 3e 63 c1 f0 3d
       0.1069829 0.3610387 0.25695372 0.117556356
000060 de aa 80 3e e5 78 d5 3d 5d 83 f1 3e 89 d1 f4 3e
       0.2513036 0.104234494 0.47170535 0.47816113
000070 48 a3 d6 3e df a1 91 3e 9c 94 4f 3e b5 d4 d5 3e
       0.4192145 0.2844381 0.20271534 0.41763845

weight f4 [32, 32, 5, 5]
000000 b9 70 d9 bc 5a 7a 30 bd fe 11 68 3b 03 c3 f0 3b
       -0.026543008 -0.043085434 0.0035411115 0.007347466
000010 7a c0 c0 3c bc 9b eb 3c 3c 80 56 3b f7 87 82 bb
       0.02352928 0.028760783 0.0032730242 -0.0039834934
000020 a8 4b 01 3d 9b e7 47 3b a6 41 53 3d 10 62 d6 bb
       0.031566292 0.0030503038 0.05157628 -0.0065424517
000030 33 0c 7e bb 66 b8 ce 3c a7 14 93 3b ac 52 8f 3b
       -0.0038764596 0.025234412 0.004488546 0.004373869
000040 d6 f7 08 3d 9b ec 12 3d f3 3c 35 3d b5 f4 f3 3b
       0.03343948 0.035870176 0.04424758 0.007444943
000050 3d 97 96 bc a3 42 f3 3c 23 e5 65 bc 1a fe 06 bd
       -0.018382663 0.02969486 -0.014031681 -0.032957174
000060 f1 27 b7 3b a0 4e 6f bd 36 9e 70 3c 0a 49 48 3c
       0.005589478 -0.058424592 0.014686158 0.012224445
000070 f6 4d 2a 3c 81 02 23 3b 2a f8 92 bc 80 0c 90 ba
       0.010394564 0.0024873319 -0.0179406 -0.0010990053
000080 94 6b 0c 3d bd e1 d3 3c 0f 64 96 bb 8a 80 30 3c
       0.034282282 0.025864476 -0.0045895646 0.010772834
000090 c1 58 0f 3d 7d ee a8 3c bd 02 4c 3a b8 2a 78 3c
       0.03499675 0.020621533 0.00077823905 0.015146904
0000a0 f9 71 af bc 05 fc 79 3c 83 a0 18 bc f8 c8 19 3d
       -0.021416651 0.01525784 -0.009315613 0.037545174
0000b0 5f 83 36 3d 1f b9 74 3c ec 5e 0a bd 30 00 b3 bb
       0.04455888 0.014936714 -0.03378193 -0.005462669
0000c0 04 30 f7 3c d0 13 25 3d 7b b3 6e 3c a0 3c ba bc
       0.030174263 0.040302098 0.014569159 -0.022733986
0000d0 e0 8c eb 3a 12 0b c5 3c a5 df 2d 3d 1d 02 72 3b
       0.0017971061 0.02405313 0.042449612 0.003692753
0000e0 25 b1 f1 3c 32 af 68 3c 5a 62 d0 bb 07 9d b1 bc
       0.029503414 0.014201926 -0.0063593807 -0.021681322
0000f0 75 d2 54 bc 45 67 b1 bc cd d5 23 bc e2 99 0d 3d
       -0.01298963 -0.021655688 -0.009999705 0.034570582
000100 2b 24 24 3d 47 49 65 bc 34 6c 9e bc 17 0e 92 bc
       0.040073555 -0.013994521 -0.019338705 -0.017828984
000110 93 31 1e 3d e9 93 f8 bb 33 a7 b5 bc 4a e2 b8 3b
       0.038621496 -0.0075859916 -0.022174453 0.00564221
000120 ca a2 11 3c ca d6 38 3c 7e a3 85 bc 1b 96 ac bc
       0.00888891 0.011281678 -0.01631331 -0.02106767
000130 ec 41 29 3c a7 25 b0 bc e4 b3 89 3c ea f2 10 bd
       0.010330658 -0.021502329 0.016809411 -0.03538791
000140 14 47 11 3b 1c 90 b4 3b 08 b6 2d bc 2d 70 20 3c
       0.002216761 0.0055103432 -0.010602482 0.00979237
000150 d9 b9 ca 3c c3 69 36 bc 97 85 05 3d 9e 56 98 bc
       0.024746822 -0.011133614 0.032598104 -0.01859599
000160 6d 5e bb bc 53 9a 9c b9 7d cb 9e bc 96 9e 6d bc
       -0.022872174 -0.0002986962 -0.01938414 -0.014503142
000170 3c 30 a0 bc 49 f8 27 3d 4a 01 5c 3d c0 5f 8e ba
       -0.01955425 0.041008268 0.053712167 -0.0010862276
000180 bb 65 52 3d b6 07 e3 3c 33 a7 6a ba 69 98 df 3b
       0.05136655 0.027713638 -0.0008951306 0.0068235886
000190 39 92 eb bc 7b e6 b1 3a a7 93 fd 3c e7 50 26 3c
       -0.028756248 0.0013572717 0.030954195 0.010151125
0001a0 39 0e e1 bc 82 6b ae 3b 30 7b 4b 3c f8 ab 9e bc
       -0.027472602 0.0053228745 0.012419507 -0.01936911
0001b0 43 c9 46 bc b1 7a f1 bc 76 be 22 3d 60 46 d0 3c
       -0.0121329455 -0.02947745 0.03973242 0.025424182
0001c0 be 3c 3b bc 99 b0 2d 3c 17 f8 18 bd 6a 71 07 bc
       -0.011428056 0.010601186 -0.037345972 -0.008266786
0001d0 9a da 81 bc fd 39 20 bd 2f f9 1d bd fe cb 7b 3c
       -0.015851308 -0.039117802 -0.038567718 0.01536846
0001e0 d5 1e 67 3b f9 dc 2c bd 53 d3 17 bd ac 2c 8e bc
       0.003526618 -0.042202923 -0.03706677 -0.017355286
0001f0 10 a9 8b 3b ea ce 78 bc bb 5e e2 3b f1 1f 8a 3c
       0.004262097 -0.015186051 0.0069082654 0.016860934
000200 d9 26 ee ba 6b 0e ba bc f6 7e 1f 3d eb 05 d3 3c
       -0.0018169536 -0.022711953 0.03893944 0.025759658
000210 da 81 80 3d bb 70 10 3c 09 78 07 3d 27 2a 60 3c
       0.06274767 0.00881594 0.03307346 0.013681925
000220 8a 76 bb ba 53 b3 36 bc db aa 5b 3c 33 e7 bc b9
       -0.0014302295 -0.011151153 0.013407434 -0.0003603041
000230 bc b2 1b bd fe 45 2a bd 6a 1c 48 bd 6f a0 82 bd
       -0.03801225 -0.041570656 -0.048855223 -0.063782565
000240 4b 59 10 bc 1b 09 b2 bb a0 1c 92 3c 7d d3 1e bc
       -0.008810352 -0.0054332144 0.017835915 -0.009693977
000250 72 9e 0a ba 44 3a f9 3b 31 9b b8 bb 07 17 7d 3c
       -0.00052878924 0.0076058228 -0.0056337346 0.015447385
000260 61 3e 1c 3c 4b 5f 0c bb 3b 1d 5c bc fa f5 fc bc
       0.009536357 -0.0021419104 -0.013434703 -0.03087901
000270 a1 fc c8 bc c7 23 1a bb 1a d1 a9 3c ed af 50 bd
       -0.024534525 -0.002351986 0.02072959 -0.050949026
000280 55 5d 87 3a 17 dc c1 bb 61 8b 2a bd 8b 09 9a bd
       0.0010327498 -0.0059161293 -0.04163683 -0.075213514
000290 2a ab 8c bc 9a 23 76 3b 36 91 1b bd 4b b1 af bb
       -0.017171461 0.0037557841 -0.03798028 -0.005361711
0002a0 44 67 ad bb be 0c 28 3b 25 6b 23 3d ab ad e4 bb
       -0.0052918512 0.002564236 0.039897103 -0.0069787106
0002b0 dd c1 f1 bc f2 bd d6 3a 12 d1 e3 3b 83 05 2a bc
       -0.029511387 0.0016383512 0.0069524134 -0.010377291
0002c0 5c f1 b6 3c 34 26 22 bc 34 84 16 3d 02 71 28 3c
       0.022331886 -0.009896804 0.036747172 0.010280849
0002d0 35 06 de ba 69 93 7e 3c 5b db 48 bd a9 bb 21 3b
       -0.0016939106 0.015538075 -0.04903732 0.0024678505
0002e0 94 94 0a bc 3c ea 14 bd d4 87 41 bd 42 32 a0 bd
       -0.008458275 -0.036356196 -0.047248676 -0.07822086
0002f0 d9 96 c2 bd 6e a5 5b bd 4e 4e e4 bc 58 74 12 bc
       -0.09501428 -0.053624563 -0.02786937 -0.008938871
000300 31 70 55 bc 4d a6 04 3b 18 5b 42 bb 61 34 13 bd
       -0.013027237 0.0020240725 -0.0029656347 -0.035938624
000310 23 02 3a 3c 7c 4f 08 bc d5 9b 8b bc f0 ff 1d 3c
       0.0113530485 -0.008319732 -0.01704208 0.00964354
000320 3d 5f be bc 95 c8 be bc 7c f9 ba bc a3 fc a9 bc
       -0.023238773 -0.023289004 -0.022824042 -0.02075035
000330 f4 5f 4c bd d6 62 17 bd 85 f0 db 3a b6 ec fc 3a
       -0.049896196 -0.03695949 0.0016780054 0.001929662
000340 4b a8 0e 3c f4 11 9a bc 4e b4 03 bb 31 35 30 bd
       0.008707116 -0.018807389 -0.0020096484 -0.043019477
000350 1e de da bc 30 2f ae bb df 14 6d bc 0e 8b 19 bd
       -0.026717242 -0.005315684 -0.014470308 -0.03748613
000360 63 01 21 bc 91 80 5a bd 3e 0d 31 bd b8 7e b2 3c
       -0.009826991 -0.053345267 -0.04322552 0.02178894
000370 eb 52 6a 39 de 70 a2 ba 57 f0 97 bc f9 ff 8e bb
       0.00022346868 -0.0012393256 -0.01854722 -0.0043640104
000380 83 d0 17 bd 63 df 19 3d fb 5c 32 3d 71 01 f6 3b
       -0.037064087 0.037566554 0.043545704 0.007507496
000390 a9 34 25 3d a8 56 60 3b af 25 d3 bb b0 2e c5 3b
       0.040333424 0.0034231339 -0.006443701 0.0060175285
0003a0 22 f6 22 3d c4 3a 11 bb 6f 01 b6 3c f7 eb 13 bc
       0.03978551 -0.0022160271 0.02221748 -0.009028426
0003b0 51 04 c9 bc eb c5 c4 3c 5c 12 11 3d 68 05 f3 3b
       -0.024538191 0.024020156 0.0354179 0.007416416
0003c0 17 18 a0 bc bc 78 af 3c ba f3 2a 3d e2 e7 16 3c
       -0.019542737 0.021419875 0.041736342 0.009210559
0003d0 ad 3c 0a bd a7 78 11 bc 65 9a 0f bd 9d aa 95 3c
       -0.03374927 -0.008878863 -0.03505935 0.018269831
0003e0 17 23 fe bc 66 d0 1f bd d8 93 83 bc 0a eb 8c bc
       -0.031022592 -0.039017104 -0.016061708 -0.01720192
0003f0 73 78 8c bc c6 57 72 bc f5 31 82 3b 08 f0 5a 3d
       -0.017147278 -0.014791435 0.0039732405 0.053451568

bias f4 [32]
000000 e6 39 38 bc 96 ba 25 3d 7c 52 0b 3d cb c3 d0 bc
       -0.011244273 0.040461145 0.03401421 -0.025483986
000010 08 44 97 bc e1 03 de 3c be e1 a5 3c 89 8b 9c bc
       -0.018465057 0.027101459 0.020249244 -0.019109504
000020 42 ae 79 3c 22 8b dc bc 35 f5 f1 3c 0c 0d df bc
       0.0152393 -0.026921812 0.02953587 -0.0272279
000030 f4 a7 19 bd af 04 ba 3c 6a 04 0f 3b 78 c5 82 bc
       -0.03751369 0.022707311 0.00218227 -0.015963301
000040 94 31 b4 3c b6 2a 80 3d 04 a7 a9 bb 0b 1a 95 3c
       0.021996297 0.062581465 -0.0051773805 0.018200895
000050 54 bd 97 3c b0 39 a2 bb 87 31 27 bd 29 ae c1 bc
       0.018522896 -0.0049507245 -0.040818717 -0.023642616
000060 e7 84 15 3d ac ba c1 3b b8 c7 09 bd dc 06 d0 3c
       0.0365037 0.0059121456 -0.033637732 0.025393896
000070 c9 40 72 bb f1 3e d3 bb 98 2d d5 3c 4d 25 f6 3a
       -0.0036964884 -0.006446712 0.026022717 0.0018779427

weight f4 [32]
000000 68 97 38 3f 0c 6f 9a 3d ab 94 e6 3e 0f 9c 1d 3e
       0.7210603 0.07540712 0.450353 0.15391563
000010 ca 95 ae 3e 2b 88 45 3f 16 f6 51 3f 0a bf 43 3d
       0.34098655 0.771609 0.8201612 0.04778961
000020 32 e5 f7 3e 2c 31 d3 3d f7 c3 40 3f 8c c6 6a 3f
       0.4841705 0.10312113 0.7529902 0.9170921
000030 5a 92 21 3f 12 92 39 3e 74 3d 1e 3f e6 d0 b3 3e
       0.6311394 0.18122128 0.6181252 0.35120314
000040 08 45 ca 3e fc 70 89 3e bb 13 44 3f 12 18 bb 3e
       0.39505792 0.26844013 0.76592606 0.36541802
000050 b8 cc 24 3f 58 5b 75 3e c2 2c 4d 3f 2d 6c 2c 3e
       0.64374876 0.23960626 0.8014642 0.16838141
000060 bf 4e a2 3e dc b5 5d 3e 7b 0f cc 3e 75 97 04 3f
       0.31700704 0.21651405 0.3985556 0.51793605
000070 92 b3 3e 3f d4 e1 d8 3e cb b7 a0 3d de e6 34 3f
       0.7449275 0.42359793 0.07847556 0.70664775

bias f4 [32]
000000 63 d1 6f bc b4 ef b9 3b 1a db 3c bd 11 ce 3a bd
       -0.014637324 0.005674327 -0.04610739 -0.045606676
000010 86 7d 11 bd e9 86 31 3c b1 49 7e bc b6 76 c8 bc
       -0.0355201 0.010835388 -0.015520499 -0.024470668
000020 e9 e8 1d 3a bb 72 a8 bc af 6a 87 bd f3 77 a0 bc
       0.0006023781 -0.02056252 -0.06612145 -0.019588446
000030 38 3a d6 bc 3e 22 b0 bc 7b d4 09 bd 0b 54 0f bd
       -0.026150808 -0.021500703 -0.033649903 -0.03499226
000040 90 03 01 bd 52 42 3d bd fe 1c 72 bc c4 fc 11 bd
       -0.031497538 -0.046205826 -0.01477742 -0.035641447
000050 55 81 10 bd 09 d0 38 bd c2 3b 5c ba d1 0b 11 bd
       -0.03527959 -0.045120273 -0.00084012386 -0.03541166
000060 fb ac 1e bd 47 eb 0a 3b d1 cf de bc 4f 5c 05 bc
       -0.038739186 0.0021197365 -0.027198704 -0.008139684
000070 99 41 2e bd 24 9d 74 bd 79 7d 3f bd 9f 46 44 bd
       -0.042543028 -0.059720173 -0.04675052 -0.047918912

running_mean f4 [32]
000000 78 54 42 3e a5 19 6b be d1 ac 2b bf b7 8b 1f be
       0.18977535 -0.22959001 -0.6706057 -0.1558064
000010 b6 33 2e bf 0a 6d 3a be c6 2e 74 bf 85 d8 71 bf
       -0.68047655 -0.18205658 -0.9538387 -0.9447101
000020 7e 9b 8f be d8 e4 16 3e 71 8d 11 bd 84 8d b5 bd
       -0.2804832 0.14735734 -0.03553528 -0.088648826
000030 14 b0 1c bf ff 12 56 3f 99 5c 88 bf 00 5c 8b be
       -0.61206174 0.83622736 -1.0653259 -0.27218628
000040 21 2e 82 be cc 65 47 bf c1 0c 00 bf 3a f6 87 be
       -0.2542582 -0.77889705 -0.5001946 -0.26555043
000050 0a 52 bb 3e 2f b3 9a be 4f a4 19 bf 16 08 31 bf
       0.36586028 -0.3021483 -0.6001634 -0.69152963
000060 7d b6 b1 3e e2 c6 e8 be 59 26 17 bf 92 bf 5a bf
       0.3470954 -0.45464236 -0.5904289 -0.85448563
000070 5f 01 89 be 7c 5d 30 bf 34 a7 0f bc e9 2f 4c bf
       -0.2675886 -0.68892646 -0.008767892 -0.79760605

running_var f4 [32]
000000 4d 8c 21 3f 73 6a 62 3f c3 e4 7b 3e 25 81 8e 3e
       0.63104707 0.8844368 0.24598984 0.27832904
000010 33 a0 c0 3e ec f0 e8 3e e1 bc d5 3e 44 a0 d5 3e
       0.37622222 0.4549631 0.41745666 0.41723835
000020 c2 86 12 3f 1a 37 d6 3e 5b 83 0c 3f f1 6b 0f 3f
       0.57236874 0.41838914 0.5488793 0.5602408
000030 03 5c ea 3e 74 e5 eb 3e fd d8 ce 3e e6 fb f0 3e
       0.45773324 0.46073496 0.40399924 0.47067183
000040 b2 eb 15 3f 38 c6 d8 3e 8a e0 44 3f ba 40 b8 3e
       0.5856277 0.4233873 0.7690512 0.35986882
000050 d3 8a 04 3f 01 3d 41 3e ce a0 c1 3e 1e f8 6e 3e
       0.5177433 0.18870927 0.37817997 0.23336837
000060 06 f1 a9 3e 42 74 da 3e 03 fd 0f 3f 2f 6d f7 3e
       0.331917 0.42666823 0.5624544 0.48325488
000070 c3 91 94 3e 1f 01 ed 3e 4e f9 b3 3e a9 aa 83 3e
       0.29017457 0.46289918 0.35151142 0.2571614

weight f4 [64, 32, 3, 3]
000000 fd eb 27 3d c4 45 21 bd d4 54 4b bd 5b 4a 8d 3d
       0.04099654 -0.039373174 -0.049641445 0.06898948
000010 09 9f 99 3d 7c 50 27 bd 14 47 59 3c 9f 67 44 bd
       0.07501037 -0.04084824 0.013261575 -0.047950383
000020 2c 4b 2d bd b4 c5 17 3c a7 fa 03 bc f0 74 f4 3c
       -0.042308018 0.009263445 -0.008055366 0.029840916
000030 ac cf 06 3d 19 74 86 3c 84 21 76 bd 84 78 a3 bc
       0.032912895 0.016412782 -0.060090557 -0.019954927
000040 ac b8 63 bd 52 2b 9d bc 6b 5c af bc 86 51 04 bd
       -0.05559604 -0.019185696 -0.021406373 -0.03230431
000050 da 25 9e 3d 8f b3 ad 3d c4 57 24 3c 0e ff 9d 3d
       0.07722063 0.08481514 0.010030691 0.077146634
000060 0f 86 04 bd c2 9e dd bb 8b 2a 27 3d 59 ac 82 3d
       -0.03235441 -0.00676331 0.040812057 0.06380529
000070 19 57 9e bc 27 96 7c bc fc 03 d3 3d 03 e8 9c 3d
       -0.01932864 -0.0154166585 0.10303494 0.0766144
000080 3a 67 04 bd 34 dd 37 bc c6 4f 50 bd b9 33 28 bc
       -0.032325007 -0.0112221725 -0.050857328 -0.010266238
000090 e1 a7 44 bd 22 82 0d bd 1f 50 0a bb 96 e0 cc 3b
       -0.048011664 -0.034547932 -0.0021104885 0.0062523587
0000a0 b8 be d3 bb 51 27 16 bd c5 8e 4b bc 19 9d 34 3d
       -0.0064619444 -0.03665859 -0.012424176 0.044095132
0000b0 16 ca a1 3c fb 43 b2 3b cf 26 78 3d 6c 08 26 3b
       0.019749682 0.005440233 0.060583886 0.002533461
0000c0 7d e2 0b 3c ae 01 5d 3d 6d 0c f2 bc db e6 b5 bc
       0.008537886 0.05395668 -0.02954694 -0.022204807
0000d0 87 6c 7c 3c 5c 28 2e 3b 03 47 11 bd f0 e6 2a bd
       0.015406734 0.002657435 -0.035468113 -0.041724145
0000e0 99 3b 0d 3d 5d 50 71 3b 2c 3b 2e bd 17 cb fa bc
       0.034480665 0.0036821582 -0.0425369 -0.030614419
0000f0 14 b5 9c bd c0 af 44 bb 8f 9c 9f 3d 70 08 6d bd
       -0.076517254 -0.0030011982 0.07793533 -0.057869375
000100 cd 73 ef bc 35 af 85 3d 58 e3 a1 bd fe 8d 61 bc
       -0.029230023 0.06527559 -0.079046905 -0.013766764
000110 70 2c 59 3d ee f3 f1 3c ba e8 7f 3d dd 23 3d 3d
       0.053020895 0.02953526 0.062477805 0.04617678
000120 a0 1a e3 3c 32 da 81 bd aa fd cb 3c ec 1a b5 bb
       0.027722657 -0.063404456 0.02490123 -0.005526891
000130 56 35 97 bd 4b 4f 53 bc 6e 32 89 bd e0 eb ec 3c
       -0.0738322 -0.012897323 -0.06699072 0.028921068
000140 0f e6 00 bd c7 72 66 3d 9d ff 90 bc 4d f6 84 3d
       -0.0314694 0.056261804 -0.01770001 0.06492291
000150 6c 48 1a 3d 1a 7b 72 ba 3d e7 93 3d 6b c2 98 bc
       0.037666723 -0.0009249911 0.072218396 -0.018647393
000160 e0 58 dd bc 90 8a 71 3b fc 73 67 3d 41 31 2e 3d
       -0.027019918 0.0036856271 0.056507096 0.04252744
000170 51 7f 89 bd fc 69 d8 3c 60 33 c3 3c d8 3e f9 bc
       -0.06713737 0.026417725 0.023828208 -0.030425474
000180 df 3f 45 3d 2a 8b 87 3c e0 8f d4 3c 31 46 2b 3d
       0.048156615 0.01654585 0.025947511 0.041814987
000190 73 18 92 3c 89 d6 98 bd f5 0e ee 3c 55 c2 4e 3d
       0.017833924 -0.07462794 0.029059866 0.0504783
0001a0 56 70 64 bd ab 77 f1 bc 18 bc 86 bd 83 31 2e 3d
       -0.055771194 -0.029476007 -0.06578845 0.042527687
0001b0 f4 35 3f 3d 13 ae 83 3d 13 ac a0 3d 8c 43 63 3b
       0.046682313 0.064296864 0.078453206 0.0034677712
0001c0 b5 71 6b bd 10 30 23 3c a0 c0 c4 bc d6 6a fc 3a
       -0.057481486 0.009960189 -0.024017632 0.0019257914
0001d0 a4 10 5b 3d 6d 38 3a 3d 60 15 9d bc 26 87 03 3d
       0.053482667 0.045463968 -0.019175231 0.03211131
0001e0 f8 ff 49 3d b5 7c 3b 3d 88 d6 31 bd 6e 12 d3 3c
       0.049316376 0.045773227 -0.043417484 0.025765624
0001f0 d2 80 ac 3d ee 4d f4 3c 27 6d 38 3c d0 7f 37 3d
       0.08423008 0.029822316 0.011256493 0.044799626
000200 70 19 1c 3c 52 ac 07 bd 30 d6 7f 3b b0 8d 2d bd
       0.009527549 -0.03312332 0.0039037578 -0.04237145
000210 bc 52 6e 3c 5e aa 2b bd bf 6c 50 bc a5 51 a5 3d
       0.014546093 -0.04191052 -0.01272124 0.08072213
000220 0f 04 53 bd cc 4b e8 bc 2f 84 22 3c 61 50 3e bd
       -0.051517542 -0.028356455 0.00991921 -0.046463374
000230 ce 6d 4b bd b1 79 1b bd 0d ba 0a bd 3d bf a5 3c
       -0.049665265 -0.03795785 -0.033868838 0.020232791
000240 ee ef ce 3c 74 6b 3c bd 6c e4 69 ba f2 2a 55 3d
       0.025260892 -0.046000913 -0.0008922282 0.05204291
000250 6c 8c a9 bc ad 78 80 bc b5 ae 97 bc 20 9c d9 3b
       -0.020696841 -0.015682543 -0.018515924 0.006640926
000260 f8 b9 8d bc f6 8d 00 bd b4 bd 00 bd 8d b8 f0 bc
       -0.01730059 -0.031385385 -0.031430915 -0.029384876
000270 f8 e2 2e bc 30 36 4e bd ac ce 04 3d 76 81 a8 bb
       -0.010674231 -0.050344646 0.03242366 -0.005142386
000280 2f 16 0f 3d 72 4e 05 3d ce da 59 3d 9c 0a 19 bd
       0.034933265 0.032545514 0.053187184 -0.037363634
000290 57 28 4b bc c9 f4 15 3d dc 96 90 3b 66 28 60 3d
       -0.0123997545 0.0366104 0.004412515 0.054726027
0002a0 29 e1 60 bd 7e 5d a5 3c 88 ba ae bc a3 83 57 3d
       -0.05490223 0.020186182 -0.02132918 0.052615773
0002b0 4c 57 4b 3c 75 ef 97 3c 28 fc 37 bd ea b0 ee 3c
       0.01241095 0.0185468 -0.04491821 0.029137094
0002c0 d9 4e 76 bc 4a d0 f2 bc 0b 69 66 3d 44 4f 18 3b
       -0.015033447 -0.029640336 0.05625252 0.0023240605
0002d0 91 dc 65 bb 90 ad ea 3c 5f d0 72 3c de d9 73 bb
       -0.0035074095 0.028647214 0.014820187 -0.0037208716
0002e0 e1 f6 8f 3d 20 ad 7b 3d 1d 1f e5 3c 78 9a dc 3c
       0.0702951 0.0614444 0.027968938 0.026929125
0002f0 e1 af ba bc 9b 66 1a 3c 31 35 60 3d 2a 13 b1 3a
       -0.022788944 0.009423877 0.054738227 0.001350974
000300 8c 1d 92 3c 0b 00 58 3d 1d cb 3f bd 24 7b 3c bc
       0.017836355 0.052734416 -0.046824563 -0.011503968
000310 6b 4e d6 3c c0 d9 3e 3d 7f ac f6 bb 15 67 86 3c
       0.02616044 0.04659438 -0.0075278874 0.016406575
000320 ab 9c bc bc ca 6e 61 bd f4 27 0d bd 60 11 0b 3d
       -0.023023924 -0.055037297 -0.03446193 0.033952117
000330 8d 28 61 3d 88 bc b5 3c f9 b5 71 3d a8 55 75 3c
       0.054970313 0.022184625 0.059011433 0.014974035
000340 a3 8d 14 3c 41 a3 10 3d 2f 0d 3d 3d 0e df 50 3a
       0.009066972 0.03531194 0.04615515 0.0007967808
000350 7d 19 0f 3d 71 3c 3e bd 08 b4 8e 3c 69 ff ad bc
       0.034936417 -0.04644436 0.01741983 -0.021239953
000360 30 fe 72 3c 35 2c 05 bc bc 86 a4 bc 3f 7d 0f 3d
       0.014831111 -0.008128216 -0.020083778 0.035031553
000370 3d 15 08 3d e0 89 da 3b 10 4f b1 3d 35 07 9b 3c
       0.03322338 0.006669268 0.08657658 0.018924335
000380 d7 9d be bc 71 13 d6 bb c4 15 76 3d 6a 76 72 3d
       -0.023268623 -0.0065330793 0.06007935 0.05919496
000390 d0 dd f2 3c fb a4 70 bd f6 90 b5 3c 47 bd c1 3c
       0.029646784 -0.058751088 0.02216385 0.023649825
0003a0 3c 29 75 bc f5 07 aa bc c4 fa cd bb ec a7 48 3d
       -0.014963444 -0.020755747 -0.006285997 0.048988268
0003b0 58 18 d2 3c 14 3a 34 bd 05 dd c9 3c 90 80 e6 3b
       0.025646374 -0.0440007 0.024641523 0.007034369
0003c0 a7 e1 2f 3d d9 a4 cb 3c 14 b5 35 bd 40 11 f6 3c
       0.04293981 0.024858879 -0.044362143 0.030037522
0003d0 46 01 3a 3d 70 b3 f2 3a c0 c0 a7 3c ae f3 aa 3b
       0.04541137 0.0018516611 0.020477653 0.005217037
0003e0 2a 24 54 3b 97 5b ba bd 16 9e 82 bb 7f d7 6f bc
       0.0032370188 -0.090995006 -0.0039861305 -0.014638781
0003f0 26 08 e8 3c 4b 2d e9 b9 1a c8 2d 38 43 9e 76 bd
       0.028324198 -0.0004447497 4.1432773e-05 -0.060209524

bias f4 [64]
000000 76 1b 31 bc 70 db 8c 3d 06 2d 99 3c c3 3c 17 3b
       -0.01080977 0.06877792 0.018698227 0.0023076988
000010 27 98 33 bd 0e c2 2a bd 8c a7 50 3d 87 c1 b1 3c
       -0.043846276 -0.04168897 0.050941035 0.021698726
000020 15 b8 ec bb 9e c1 51 bd 8c f3 d5 bc f8 13 f9 3c
       -0.0072240927 -0.05121004 -0.026117109 0.03040503
000030 e5 28 21 3d 63 7c 5d 3d 42 ec 36 3c 44 b6 69 bd
       0.03934564 0.054073703 0.011164727 -0.057058588
000040 89 51 d6 bb 04 ec 34 3a 69 b1 06 3d af 99 82 bd
       -0.0065404815 0.0006901624 0.032884035 -0.06376969
000050 71 0d 0e bd 22 2d 4c 3d 94 ae d7 bb 80 a4 40 bd
       -0.034680787 0.04984773 -0.0065820906 -0.04703188
000060 b1 d9 37 3d 0b 34 13 3b 23 19 7e bc ec 24 15 bb
       0.04488534 0.002246144 -0.015508923 -0.0022757603
000070 65 ff 4e 3d 21 9b fa 3a 8c d0 32 b9 83 61 ba 3c
       0.050536532 0.0019119718 -0.00017053093 0.022751575
000080 ef bb 54 3c 60 fc 8d 3c c0 a2 68 3d 7c 5f c4 bc
       0.01298426 0.017332256 0.056795835 -0.023971312
000090 27 63 59 3d 14 f5 86 bd 72 5f 22 3d fc 6b 7d bc
       0.053073075 -0.06589714 0.039641805 -0.01546764
0000a0 4d b8 03 3d f5 76 e7 3c e0 68 60 3c e0 31 bb bb
       0.032158185 0.028254965 0.013696879 -0.0057127327
0000b0 0f 8a c1 3c 33 1a 62 3d 0a 6f 42 bd e9 ad 6d bd
       0.023625402 0.055200767 -0.047469176 -0.05802718
0000c0 ba c8 3a 3d 82 dd 04 3d f5 ec 8e bc b7 b9 e1 bc
       0.045601584 0.03243781 -0.017446974 -0.027554376
0000d0 e0 8f 93 bc 25 85 02 3d 40 c3 15 3d 8b 7a bd 3a
       -0.01801294 0.031865258 0.036563158 0.0014456076
0000e0 3c 4f b0 3c ac b4 a2 3c 57 91 e9 bc 6a d8 64 3d
       0.021522157 0.019861542 -0.028511686 0.05587045
0000f0 84 51 28 bc 39 ac 48 bc a0 54 ea bc e5 b8 59 3c
       -0.010273341 -0.012248092 -0.028604805 0.013288711

weight f4 [64]
000000 3b d6 09 3f 4e 00 2e 3f 33 d4 fa 3e 19 68 71 3f
       0.53842515 0.67969215 0.4899002 0.94299465
000010 aa 21 3b 3e 13 2c a3 3e 35 20 7f 3e b7 f4 c8 3e
       0.1827456 0.31869563 0.2491463 0.39249203
000020 ed be f1 3e ee a7 46 3f 69 59 b4 3e 30 c3 47 3f
       0.47215977 0.7759999 0.35224465 0.7803221
000030 e8 65 4b 3f 05 67 d1 3e 8f 6d 6e 3f a8 ab 49 3f
       0.7945237 0.4089891 0.93135923 0.7877755
000040 6c e9 56 3f 62 e9 99 3e 53 83 4e 3e 19 fd 3b 3f
       0.83949924 0.3006087 0.20167284 0.7343307
000050 80 14 19 3f da 5a 1a 3f 50 4e 40 3f ba a5 f9 3e
       0.59796906 0.6029488 0.75119495 0.48759252
000060 82 e0 2d 3e 8a 31 5d 3f 9a 5d 75 3f f5 e7 46 3f
       0.16980174 0.86403716 0.9584595 0.7769769
000070 9c a4 9c 3e c7 fb a6 3d f4 78 49 3f e2 e2 d7 3d
       0.30594337 0.081534915 0.78700185 0.10541321
000080 1b 0c f4 3e ac 7a 54 3e 5a 79 55 3f 82 c7 fe 3e
       0.47665486 0.2074992 0.8338829 0.49761587
000090 77 e4 69 3f 42 f5 2f 3f 8b 6e bc 3d a6 ba f5 3e
       0.91364235 0.6873361 0.09200772 0.47993964
0000a0 57 55 f3 3e 3f 19 01 3f e4 71 79 3f a4 92 44 3f
       0.47526047 0.5042915 0.9743941 0.76786256
0000b0 35 c2 9f 3e 12 61 52 3f 0c c9 53 3f 53 7d 76 3f
       0.31202856 0.8217937 0.8272865 0.9628498
0000c0 39 3d 68 3f 3a 35 8f 3e 12 4c 21 3f 96 95 05 3e
       0.9071842 0.27970296 0.630067 0.13045344
0000d0 cd a8 b8 3e 76 b2 36 3f 67 72 c6 3e 6c 2e 2d 3f
       0.36066285 0.7136606 0.38759157 0.6764896
0000e0 fc ed 17 3f 64 da 08 3f 19 96 ef 3e 54 fb 29 3f
       0.5934751 0.5345824 0.46794203 0.6639912
0000f0 b7 4e 10 3f 9c 84 4f 3f 15 c4 ac 3e 09 d4 41 3f
       0.5637011 0.8106172 0.3374335 0.75714165

bias f4 [64]
000000 38 3b 85 ba 21 5e a8 bc 1e 46 14 3c bd 74 d2 bc
       -0.0010164743 -0.020552697 0.00904992 -0.02569043
000010 d5 a1 58 bb 6e d1 0a bb ac ed 5b bc a7 ff 77 3c
       -0.0033055444 -0.0021181959 -0.013423365 0.015136636
000020 49 6d 83 bb 91 2b a3 3c 74 ca 9a bb ac 42 61 bd
       -0.0040108305 0.019918235 -0.0047238413 -0.054995224
000030 ba df e7 bc 63 7b a9 3c 7a 6a 4c bb ed 68 20 bd
       -0.028304923 0.020688718 -0.0031191395 -0.039162565
000040 92 28 f3 bc 09 14 89 ba 1d a0 00 bd 74 bd 46 bc
       -0.029682431 -0.0010458241 -0.031402696 -0.01213013
000050 46 27 3d bd b7 b0 ba bc 35 ab 26 bd b8 4a 7f bc
       -0.046180032 -0.022789342 -0.04069062 -0.015581779
000060 c4 9e b5 b9 17 db 0f bd 8a 0c 34 3c 39 b3 a6 bc
       -0.000346413 -0.03512105 0.010989318 -0.020349132
000070 2f 8b 9e 3c 60 86 17 3a 10 f9 73 bc b9 36 6a bc
       0.019353477 0.00057802163 -0.014890924 -0.014295273
000080 a3 98 2b bc 5e 9d 80 bc d9 22 60 bd 78 8d d1 3c
       -0.010473403 -0.015700039 -0.054720733 0.025580153
000090 35 56 c5 bc 4e 33 11 bd 75 87 cc 3b 8f 72 d9 3c
       -0.024088958 -0.03544932 0.0062417337 0.026543884
0000a0 be 07 47 bd b6 5a 17 bd 86 fd 0c 3b 53 a9 04 bd
       -0.048591368 -0.036951743 0.0021513416 -0.032388043
0000b0 ec b4 6e bc e9 3b f7 bc 8e 03 a4 bc da 11 57 3b
       -0.014569502 -0.030179935 -0.020021226 0.0032817037
0000c0 b7 33 0e bd 84 13 01 bd 46 7a 94 bd 90 4b 1d bc
       -0.034717288 -0.031512752 -0.07249884 -0.009600535
0000d0 eb 2f 13 3d 45 d6 e6 bc 93 39 16 bd 9a f3 66 bd
       0.03593437 -0.028178344 -0.036676 -0.05638466
0000e0 5a 8e 91 bc a3 92 47 ba fd c7 ac bc 65 80 db bc
       -0.017768074 -0.0007613098 -0.021091456 -0.026794622
0000f0 e0 18 98 ba 73 85 81 bc a7 40 fe 3b 70 c7 18 bd
       -0.0011604093 -0.015810704 0.007759172 -0.037299573

running_mean f4 [64]
000000 ef 3d 58 3e da 20 93 be c4 0a 02 be 63 38 a6 be
       0.21117376 -0.28736 -0.1269942 -0.32464895
000010 70 b1 81 be 1a 24 f1 be e5 01 67 3e 44 0b b0 be
       -0.25330687 -0.47097856 0.22559316 -0.34383595
000020 2d 3b 8a 3e 54 91 00 bf 56 32 6e be a9 d8 e2 be
       0.26998273 -0.50221753 -0.23261389 -0.44305924
000030 f5 1d 24 bf 02 4a c1 bd 04 f1 c6 bd 93 c6 87 bd
       -0.6410821 -0.09437944 -0.09713939 -0.06629672
000040 0b 23 82 bd f5 82 5b bd e0 97 8b bc a5 c4 60 bc
       -0.0635434 -0.053591687 -0.017040193 -0.013718759
000050 7a 00 77 3d 09 62 c3 3e db f2 f4 3d e4 ee ec bd
       0.06030319 0.38160732 0.119603835 -0.11569002
000060 9c 62 80 3d 4e 7b e2 3e 28 65 9e 3e d5 57 5e bd
       0.06268808 0.442347 0.3093655 -0.054282982
000070 74 29 86 3e ab eb 18 3e bb 86 d2 be 51 12 d3 bc
       0.262035 0.1493365 -0.41118416 -0.02576557
000080 9d 97 6a be 52 31 c6 bc d2 66 8f 3e f2 33 0d bd
       -0.22909398 -0.02419344 0.28008133 -0.034473367
000090 a8 2f 20 3e e8 19 a8 3d 52 b0 59 3d ce 25 14 be
       0.1564318 0.08208066 0.053146668 -0.14467546
0000a0 97 61 e0 3e e6 9b 09 3f 3c 7b f6 3d 4d d5 aa be
       0.43824455 0.5375351 0.12035224 -0.3336586
0000b0 aa d8 da bd 03 de 83 be 85 35 1d 3f 91 73 00 bf
       -0.10685857 -0.2575532 0.6140979 -0.5017634
0000c0 7c b7 7f be 6f 77 cf bd a5 a1 27 bd 15 0b cc bd
       -0.24972337 -0.10130202 -0.04092564 -0.09963051
0000d0 0d c7 45 bc 62 f3 69 be 85 4a 90 3d 7a 7f c6 3e
       -0.012071383 -0.2284675 0.070454635 0.38769132
0000e0 11 26 4d be e9 bd 04 bf 4e 55 c5 3d 9f 76 b9 be
       -0.20034052 -0.5185228 0.09635411 -0.36223313
0000f0 85 29 94 be a2 2f ca 3d 15 0e 87 3d 2f ed 8b 3d
       -0.28937927 0.098723665 0.06594483 0.068323486

running_var f4 [64]
000000 e7 9b 26 3e ea c2 90 3e c0 4c 05 3e f0 3a 62 3e
       0.1627041 0.28273708 0.13017559 0.22092795
000010 13 9b 75 3e 5b 62 70 3e 1b 13 c9 3d a5 6d 42 3e
       0.23984937 0.2347502 0.09818097 0.18987139
000020 38 7a 47 3e 5e e1 3b 3e ca d3 15 3e 52 1b 99 3e
       0.19480217 0.1834769 0.14631572 0.29903656
000030 99 36 e9 3e 42 5d cb 3d 8f 64 40 3e 59 df 05 3e
       0.45549467 0.09929897 0.1878836 0.13073482
000040 80 3e 38 3e a0 a4 1f 3e 31 b8 0d 3e 24 f9 26 3e
       0.17992592 0.15590143 0.13839795 0.16305977
000050 70 2a 4e 3e 2c a8 40 3e ea f1 d8 3d d9 dd 33 3e
       0.20133376 0.18814152 0.105930164 0.17565097
000060 0b d9 b6 3d ca 07 4e 3e d0 fc 1b 3e 17 fb 4e 3e
       0.089281164 0.20120159 0.15233159 0.2021297
000070 21 c2 c7 3d 40 d1 c4 3d 4a 2f 51 3e 64 2c fd 3d
       0.09753824 0.09610224 0.20428196 0.123619825
000080 ac a2 fb 3d 25 fe 05 3e 1f d6 86 3e 3b b8 00 3e
       0.122868866 0.1308523 0.26335236 0.12570278
000090 b8 c1 70 3e 52 2e 0a 3e 04 7a e2 3d b5 dd da 3d
       0.23511398 0.13494232 0.11058429 0.106868185
0000a0 4c dd 25 3e cb 5c ad 3e 3e a3 14 3e cb e8 84 3e
       0.161977 0.33859858 0.14515397 0.25958857
0000b0 79 bd 29 3e b8 18 2c 3e d6 54 a3 3e 64 19 60 3e
       0.16576184 0.16806304 0.31900662 0.21884686
0000c0 02 b3 12 3e b6 e2 25 3e 29 e0 37 3e 97 48 d7 3d
       0.14326099 0.16199765 0.17956604 0.10511892
0000d0 91 ab a9 3d d5 e0 38 3e 90 06 f0 3d 71 95 37 3e
       0.08284677 0.18054517 0.11720002 0.17928101
0000e0 2d 74 75 3e 2b 44 9b 3e 64 13 da 3d 6b f2 58 3e
       0.23970099 0.30325446 0.1064823 0.21186225
0000f0 57 83 3d 3e c0 c9 85 3e d9 fd d5 3d d2 f6 eb 3d
       0.18507133 0.26130486 0.10448808 0.115216866

weight f4 [64, 64, 3, 3]
000000 40 01 6e bd 92 a5 02 3a 92 20 4b bd eb 75 de bc
       -0.05810666 0.00049837783 -0.04959161 -0.027155837
000010 b6 77 32 bd a0 61 18 3d 33 87 b2 bc 19 70 0c 3d
       -0.043571196 0.037202477 -0.021792984 0.034286592
000020 14 e8 12 bc 0f 04 2f 3d ce c3 e3 bc ff ff de ba
       -0.008966465 0.04272848 -0.027803328 -0.0017013549
000030 49 98 a1 3d a5 d4 20 3d 91 4f 72 3c ff 76 ba 3c
       0.07890374 0.039265294 0.014789478 0.02276182
000040 c2 d0 ab bc ea 9f a8 b8 f7 5f e9 bc 3f 6e 3b bd
       -0.020973567 -8.0406506e-05 -0.028488142 -0.045759436
000050 3e ca fe bc 32 ec 11 3d 95 75 b2 3c 56 06 ca bc
       -0.031102296 0.035625644 0.021784583 -0.024661224
000060 72 aa 99 3c 12 6a 4a bd 31 e3 1b 3d 5d 62 21 3d
       0.018758032 -0.049417563 0.038058463 0.039400447
000070 78 7b 42 bb 0f 36 11 3c 55 6a 56 3d b9 1b 09 bc
       -0.0029675644 0.008862986 0.0523475 -0.008368426
000080 90 25 af 3c 1a c5 11 3c 92 16 79 3c c3 fe 61 bc
       0.021380216 0.00889709 0.015203135 -0.01379365
000090 5b a7 16 3c b1 b9 2d 3c 99 f6 51 bd ed ec 9f 3c
       0.009195174 0.010603354 -0.051260564 0.019522155
0000a0 1f 80 f4 3b 94 cf 12 3d dc 14 38 3d af 77 19 3d
       0.0074615623 0.035842493 0.044941768 0.037467655
0000b0 a2 aa 92 3b bf 06 81 3d 08 ed aa 3c 1c 27 9b 3d
       0.0044759074 0.06300115 0.020864978 0.07575819
0000c0 ed b6 48 3c 1f 2e 24 bc ba de c5 bc f7 d5 f3 3b
       0.012250644 -0.010020762 -0.024154056 0.007441278
0000d0 1f 58 06 3d f1 14 93 3c d3 e3 6b 3c 5c f7 25 bd
       0.032798883 0.017954322 0.014397579 -0.040519103
0000e0 21 5a 25 3c b3 33 99 bb 64 fa 3d bc 71 60 89 bd
       0.010092289 -0.0046753525 -0.011595342 -0.06707848
0000f0 f9 a5 1b bd 4b e2 23 3d 65 d7 2d 3b 23 cc c0 bb
       -0.03800008 0.04001073 0.002652609 -0.00588371
000100 fd ef de bc 7c 8f 6b 3c 40 b9 cc 3c 92 ad 2e bc
       -0.027214045 0.014377471 0.024990678 -0.0106615
000110 94 c7 0d bc 84 42 70 bd fd 3f 2d 3d 10 14 98 3c
       -0.00865354 -0.058657184 0.042297352 0.018564254
000120 8c ed 2e 3b 59 ab 05 bd 96 c7 97 3c 4b 47 b9 b9
       0.0026691882 -0.032634113 0.018527787 -0.00035339067
000130 c0 70 8a bd 78 d6 3a 3c a6 16 e5 bc 34 3b 7b bc
       -0.067597866 0.011403672 -0.027964901 -0.015333939
000140 8e f1 87 3d a4 23 5c bc 54 18 1b 3c fb 20 f2 3c
       0.0663787 -0.013436232 0.0094662495 0.029556742
000150 f1 3c 5a 3d 5e fb 54 bc bd 8f ce 3c d4 ff ee 3b
       0.053280775 -0.012999384 0.025215024 0.0072936807
000160 65 2d 4a 3d 72 20 07 bd 4c 69 3c bb c4 c0 5d bd
       0.049359698 -0.032989927 -0.0028749285 -0.054138914
000170 3b a6 03 bd 73 11 4e bb de 6d 75 3c 44 71 3b 3d
       -0.03214095 -0.0031443506 0.014979808 0.045762315
000180 e6 70 d0 bc 7b ad 08 bd 17 99 ee bc 97 88 80 bc
       -0.02544446 -0.03336857 -0.029125733 -0.015690131
000190 43 d6 b5 3c ac 50 d0 3c 72 0f 23 3d 63 6c d1 3b
       0.022196895 0.025429092 0.03980965 0.0063910945
0001a0 fb 2b 9b bc 54 ad 80 3a ab b0 48 bd 76 50 ee bc
       -0.01894187 0.0009817281 -0.04899661 -0.029091101
0001b0 89 50 64 3d 90 1b ae bc a3 cf 7a bb a6 d3 88 3d
       0.055740867 -0.021253377 -0.0038270734 0.06680994
0001c0 af 04 3b 3b d5 ad 3d 3c 6e 67 1e bc 7f d9 6a 3d
       0.0028536727 0.011577089 -0.009668214 0.057336327
0001d0 fa b4 02 bc 6e 47 db 3c 60 40 8b 3d 27 42 9d 3d
       -0.0079777185 0.026767459 0.06799388 0.07678633
0001e0 8f 30 09 3d 9d f4 5b 3d bc 0b 69 bc 37 fb 24 bd
       0.033493575 0.05370008 -0.014223989 -0.04027864
0001f0 be a5 c3 3c a8 c3 cc bb 5f 03 83 3b 45 d5 a0 3c
       0.023882743 -0.00624891 0.0039982046 0.019632945
000200 c8 3e 26 bd 47 aa e0 ba fb 7c 3d 3c 83 88 dd ba
       -0.040587217 -0.001714059 0.011565442 -0.0016901646
000210 3a bc b5 3a 13 ca 75 3d 63 50 14 3d d8 6e 4c bd
       0.00138653 0.060007166 0.036209475 -0.049910396
000220 19 3e 90 bc bb 53 78 3c 0a 92 6d 3d 9f 72 7a b9
       -0.017607735 0.015156682 0.0580006 -0.00023884558
000230 47 28 b4 3c 77 f4 a4 bc e7 23 f0 3c 15 61 b3 3b
       0.021991862 -0.020136101 0.029313995 0.0054742196
000240 50 da 4a 3d 8b f6 35 3b b5 ae 6d 3d f5 4c 9e 3b
       0.049524605 0.002776536 0.05802794 0.0048309513
000250 04 34 a3 3c 16 7e ea bc 8c 44 7a 3d da 7a c6 3c
       0.019922264 -0.028624576 0.061100528 0.024228502
000260 1b 16 30 bd 88 b9 f8 bc cd de 2f 3d 19 23 88 3c
       -0.04298983 -0.030361906 0.04293709 0.016618298
000270 e1 ce b8 bc 79 2a eb bc 5b ec 6e 3d ed 8f 04 3d
       -0.022559585 -0.028706776 0.058330875 0.03236382
000280 1d b4 a2 bc ba 6b 4e bb 24 46 1c 3c c4 95 03 bd
       -0.019861275 -0.0031497316 0.009538207 -0.03212525
000290 33 22 85 ba bc ff ed 39 73 2b 81 3b e7 ae 59 3c
       -0.0010157287 0.000453947 0.003941947 0.013286329
0002a0 29 2c 34 3d 58 a4 b9 3c 15 e9 df 3a 56 a1 2f 3d
       0.043987427 0.022661373 0.0017083014 0.04287847
0002b0 73 a6 0c 3d 3a 31 c3 3b af ef 4d 3b 7d 92 9b bc
       0.034338426 0.005956796 0.003142338 -0.01899075
0002c0 d9 35 f0 bc fc a9 2a 3d 50 73 9a 3d e2 90 3c 3d
       -0.029322552 0.041666016 0.07541525 0.04603661
0002d0 cc 61 c1 bd 8e 83 59 bd 0a 3c 85 3d d5 4e d1 bb
       -0.094424814 -0.053103976 0.06505592 -0.0063875713
0002e0 90 70 60 3c 76 7b 47 bd 3d f5 0d 3d 03 d0 24 bd
       0.013698712 -0.048701726 0.034657706 -0.040237438
0002f0 5b 96 49 bc a3 b2 bf bd 3e 37 fd 3c 05 12 0d 3c
       -0.012303914 -0.09360244 0.03091013 0.008610253
000300 c1 70 16 3c c8 95 1c bd 76 12 70 3c c8 55 29 3d
       0.009182156 -0.03822878 0.014652839 0.041341573
000310 31 f4 30 3d af ef c2 3c cd 88 55 3c de 79 93 3c
       0.04320163 0.02379593 0.013033104 0.018002447
000320 dc 5f 30 bc 95 75 95 bc c0 f3 2c bd f7 f0 c7 bc
       -0.010765042 -0.018244544 -0.042224646 -0.024406893
000330 0a 8c 54 bd df fc 3f 3d da 82 29 bc 59 d0 44 bd
       -0.051891364 0.046872016 -0.010346139 -0.04805026
000340 e0 9a dc bb 34 92 07 bb ec 85 29 bd 7d 0d c6 bc
       -0.0067323297 -0.002068651 -0.041387483 -0.024176354
000350 60 7b 23 3d 14 3d 93 3d 67 33 5c bd 6e dc d4 bc
       0.03991258 0.07189384 -0.05375996 -0.025984015
000360 00 0b bc 3b 2d 68 b3 3d 2b 81 6f bc 43 aa af ba
       0.005738616 0.08760104 -0.014618198 -0.0013402182
000370 92 70 15 bd e8 1f 2d bd 5b 56 49 3d 0b 35 ed 3c
       -0.03648431 -0.042266756 0.04915462 0.028955957
000380 85 76 a6 3c 8b fa 46 3d 7c a6 3e 3d a9 21 fc bc
       0.020320186 0.04857878 0.04654549 -0.03077777
000390 fc a1 79 bd bb ad e3 bc 6b ba 77 bd d8 84 23 3c
       -0.060945496 -0.027792802 -0.060480516 0.009980403
0003a0 54 72 7d bd 1d 11 b7 bc 00 1a 78 3b 8d b0 2e bd
       -0.06187661 -0.022347027 0.0037857294 -0.04264884
0003b0 20 dc 0f bd 33 22 e1 3c 6e 9f 05 3d 4a d6 00 bc
       -0.035122037 0.027482128 0.032622747 -0.0078635905
0003c0 a3 1e 00 bd 13 57 3a 3d 88 e8 d6 bb 00 5f 25 3d
       -0.031279217 0.045493197 -0.0065584816 0.040373802
0003d0 6f 2c 05 bd d8 49 0b 3c 24 49 37 bc 68 f7 66 bc
       -0.03251308 0.008501492 -0.011186872 -0.014097072
0003e0 7a 64 08 3c af ab 2b bd 74 a9 4b bc e0 91 c6 3b
       0.008324737 -0.041911777 -0.0124305375 0.00605987
0003f0 6f 58 4e bd fa 56 81 bd c7 ff 07 bb af 3f b0 bd
       -0.050377306 -0.063154176 -0.002075182 -0.08605897

bias f4 [64]
000000 e3 ed d4 bb f4 19 20 3d 80 b6 19 3b ed 3b 28 3d
       -0.006498085 0.03908725 0.0023454726 0.041072775
000010 d5 98 99 3c 7c 8b 85 3b 98 66 03 bd f2 37 96 bc
       0.018749634 0.0040754657 -0.032080263 -0.018337224
000020 ff 1e 24 bd 68 b0 11 3c 93 e8 76 bc 45 02 98 3b
       -0.040068623 0.008892156 -0.015070098 0.0046389424
000030 6e 87 80 bc 65 3f b6 3c 44 2c 13 bc b8 cc 14 3d
       -0.015689578 0.022247026 -0.008982722 0.036328048
000040 6d 84 df 3a 8f 5a 3e bc 83 88 a5 3c be 88 a5 bc
       0.0017053016 -0.011618271 0.020206695 -0.020206805
000050 49 51 bf bc 1b b6 12 3d f8 f5 a3 bc 2b 4d 0d bd
       -0.02335419 0.0358182 -0.020014748 -0.03449742
000060 d6 18 ce bb dc 01 c4 3c 9c 48 f2 3b db 71 42 3c
       -0.006289582 0.023926668 0.0073939096 0.011867966
000070 29 6e 9e bc 50 f9 c7 3c 10 99 cf 3c 8f c5 06 bc
       -0.019339638 0.024410874 0.02534154 -0.008225813
000080 f4 0a 1d bd e8 6d 05 bd 88 1f 55 bd e0 d8 b7 3c
       -0.038340524 -0.032575518 -0.052032024 0.022442281
000090 d9 5d 37 bd 44 78 18 ba ae 1c ba 3c e3 4a c3 bc
       -0.044767234 -0.0005816261 0.022718754 -0.02383942
0000a0 82 68 3a 3c ea da 05 bd 18 39 1d bc 34 5e e3 3a
       0.011377456 -0.032679476 -0.009596132 0.00173468
0000b0 f7 b2 bb bc c4 2c 8e bc 37 e9 ed bc af e3 e5 bc
       -0.022912486 -0.01735533 -0.02904187 -0.02806267
0000c0 df a7 b1 bc 29 69 ba 3c 3c 5c d5 3b a2 d2 bb bc
       -0.021686492 0.022755222 0.0065112393 -0.022927586
0000d0 6f 72 af bc b9 f4 dd 3c 9e 0a a6 3c 76 de ba bb
       -0.02141687 0.027094232 0.020268735 -0.005702789
0000e0 b2 8b 8a 3c ac 34 1d bd bd f6 83 3c 87 e5 8b 3c
       0.016912315 -0.03838031 0.016108865 0.01707722
0000f0 42 db e8 3b db 88 8c 3c a2 34 1f 3d 32 22 66 3c
       0.0071062157 0.017155102 0.038868554 0.014046239

weight f4 [64]
000000 36 c1 dc 3d 9a 70 3b 3f 2f 35 9c 3e 41 2d f2 3d
       0.107790396 0.7321869 0.30509326 0.11825038
000010 e8 ee 75 3d 89 9b e4 3e 63 ab 38 3f 07 b4 47 3f
       0.060042292 0.44649914 0.72136515 0.78009075
000020 3b 57 cc 3e d0 56 80 3e 23 fe 88 3e 9b 74 91 3e
       0.39910302 0.25066233 0.2675639 0.28409275
000030 f6 00 63 3f 79 d7 6a 3f 4b 29 90 3e 57 52 31 3f
       0.8867334 0.91735035 0.28156504 0.69266266
000040 04 ce c9 3e 15 a7 3b 3e b7 1c e8 3e f7 57 91 3e
       0.3941499 0.18325455 0.45334408 0.28387424
000050 04 c9 b6 3d 9d 94 6d 3f e8 c3 1b 3e 6f 9c d4 3e
       0.089250594 0.9280489 0.15211451 0.415256
000060 e0 b7 96 3e 8c ac 05 3e 41 20 19 3f fd 68 36 3e
       0.2943716 0.13054103 0.5981484 0.17813487
000070 fa 1c a7 3d 8f 20 ae 3d f0 86 2d 3f aa 8c 13 3f
       0.08159824 0.08502304 0.67784023 0.5763651
000080 18 47 92 3e b5 ff be 3e a6 45 8f 3e 78 ba de 3e
       0.28569865 0.37304464 0.27982825 0.4350164
000090 ae 73 27 3f 1a ae ea 3e f4 f9 3b 3f 00 8f 73 3f
       0.6541089 0.45835954 0.73428273 0.95140076
0000a0 19 20 8e 3d 12 b0 b1 3e 58 36 15 3f aa 33 2e 3f
       0.06939716 0.34704643 0.58286047 0.68047583
0000b0 d9 63 12 3f cb 8b 0b 3e 81 ed 0c 3f 05 db f9 3e
       0.57183605 0.13627546 0.550499 0.4879991
0000c0 73 08 6a 3f 80 b9 f7 3e 95 07 28 3e 60 e7 e5 3e
       0.9141914 0.48383713 0.16409142 0.44903088
0000d0 6e ad 71 3f 64 24 01 3f 4d b7 3a 3e 44 ee 4a 3e
       0.9440526 0.5044615 0.18233986 0.19817454
0000e0 81 9a 94 3e be 8d bb 3d a4 f8 3b 3f a7 ec 03 3f
       0.29024127 0.091578946 0.7342627 0.5153298
0000f0 ef 47 22 3f b8 70 dc 3e 0b 69 f4 3e 8d 05 6f 3f
       0.6339101 0.43054748 0.4773639 0.93367845
