30epochs_0.0007learingrate_100batchsize.pt (torch_old, 716131 bytes, 28 tensors)

weight f4 [32, 3, 5, 5]
00000000: f279 84bc 77a4 8fbd 566c a5bc 3cae 003d
00000010: 1ed3 2abd 20bb d3bc ab67 91bd 6272 13be
00000020: 6915 88bb 6f06 da3b 327c c33d 11e9 a6bd
00000030: a34b 52be 7405 abbd f6d4 6d3d 804f e43c
00000040: 86eb 1d3d 2683 063d e0d1 9dbc 0894 c33d
00000050: 2a1e 113d 04c0 01bd 568f 4f3d 8328 a6bd
00000060: dae9 8fbd e83a e0bc 275d ee3b 3ac6 0a3c
00000070: d68f 8e3d 8c78 9b3c d8e9 fe3c b3e8 c9bd
00000080: 2ada 0bbe b25c c9bc 0b6a 943d c661 f33d
00000090: 5168 0a3d 4c96 8cbc 0e8c 12be 7690 533d
000000a0: ef06 e03d ecc7 65bb 1897 8ebc e0fe 1cbe
000000b0: 1c23 93bd a274 6fbd e01e b03c f02f 16bd
000000c0: 5122 abbd c3cd 6ebd 3be6 45bd 0fbd d7bd
000000d0: 9478 973c 8b93 4fbc 9534 88bb 9dc9 103d
000000e0: 0f6f cabd 4ac1 d3bd 80f7 8e3d 7883 9b3c
000000f0: 8ae9 323d 952c 423d 3ffc bcbd f5f7 3f3d
00000100: fc38 56bd fbc3 12bd 7d62 bb3d 00d4 e6bd
00000110: c8f6 d9bd f9fe 2bbd 9aff 0d3d 2597 f43d
00000120: 0a93 0fbd 17f4 903d b8fd 7ebd d179 c63d
00000130: 2add c63d cb6f bd3b b590 dc3d 3507 3b3c
00000140: 121f bf3c 9c28 8b3c f8b7 21b9 5146 b23c
00000150: cfae a23d 99ff c5bd 9a4a 36be 3e5b 1abe
00000160: bdd4 0d3e 2c8e c23d 0e25 56bd 936d 05be
00000170: cf38 b5bc 580c a63d 6158 d03d 39f9 49bd
00000180: 5219 14bc fd0d 143e 596d bd3d 9e8e 1f3e
00000190: 7ad7 843c a3e0 813d 1e42 d63c c3c3 dbbc
000001a0: 9419 cc3d e947 7dbd 6987 ffbd 36a1 22be
000001b0: 603e 76bd 01bf 1ebd cb77 6a3d 2d31 2cbd
000001c0: f4ef cabd 94a3 37bd 9d03 0bbd 37a7 cfbd
000001d0: 4fed dabd d7da 00be c584 093e 0a26 f73d
000001e0: b15e 66bd c061 7fbd 9976 8a3d f5e3 bd3d
000001f0: d290 26bc dbeb 813d 1eea 70bd 6bb4 74bd
00000200: c3ca cdbc f4ff 9fbd d287 76bd 4d31 f6bd
00000210: 027c f8bd 5ec3 13bd f3a6 a7bd a9ea b93d
00000220: c237 733c 00c3 83bd e220 65bb 1c3e 993d
00000230: 6bdd 923d efc0 06bd 3a91 6f3d 361e b63d
00000240: 21ce 99bd 4f17 7fbd b5d5 3c3d db31 ee3d
00000250: 2fe0 903d 545a adbc 1f1e a5bd 4e1d 2abd
00000260: 93d4 9b3d ed04 1cbd 5edb b33d 4d9c 39bd
00000270: 6a97 133e 96f5 883d 6b48 28bd 8acf 05be
00000280: 4875 613c 35e6 aabc f72f eb3d 9a1e a73c
00000290: c9af d03d 76bf afbc 9dc6 8cbd 22c6 133e
000002a0: 544a b93d 234a 8cbc fc62 f2bd 4cf5 14be
000002b0: 446b 3ebe 4c0b 5a3d 4f21 d3bd d2ce 47bd
000002c0: f2cb 56bd a30c 0fbd 9421 abbd ba3e 96bd
000002d0: 49e4 34bd 37d8 863d 02ed c23d 3843 a73d
000002e0: 658b a4bc cc18 5fbd c041 fb3c 5b78 073d
000002f0: 28b0 2d3e ddef 323e 3bd9 21be cc74 b63d
00000300: 4087 163e 8fdd 343e ad60 3b3c be13 f2bd
00000310: 2431 52be fe4b 03be f51e 23be 1888 f0bb
00000320: 3c4e 4f3d f458 7d3d 193e eabd d879 a4bd
00000330: d875 91bc 657c 0cbd 42b6 28bc c20e 5abd
00000340: e289 8ebd f5cf 17bd 7e53 1abd 55cc 62bc
00000350: 9126 5e3e c048 88bc 6c04 9f3c 5900 38bc
00000360: 5c06 eabd c78f af3c 50d1 953d b15a cc3d
00000370: 7c9d f0bd a246 45bd eedb 60bd 0d16 21be
00000380: 8ea8 8bbd c930 00bd 3ec6 cd3d 456c a8bc
00000390: b9c0 79bd 2082 d4bd 1f8c fcbc ec1d 12bc
000003a0: cd6c c03d be40 81bd 1c4a 9bbc 49de bf3d
000003b0: 28b5 433d a75b e03c a581 81bd 0c6c 513b
000003c0: 4657 823c 2397 9fbd e33b 16bd 1478 d5bc
000003d0: 8f04 4fbd 5520 003e d654 1f3d 46b0 b33c
000003e0: f131 82bd a448 4b3d 1ba3 29bd f956 a83c
000003f0: 5cd3 b23d 51a6 0a3c c188 45bc eb40 bbbc
-0.01617143 -0.07013791 -0.02019326 0.031416163 -0.041705243 -0.025846064 -0.07099851 -0.14399102
-0.004152943 0.006653599 0.09545173 -0.08149923 -0.20536666 -0.083506495 0.058064424 0.02786994
0.03855469 0.032839917 -0.019265115 0.09549719 0.035429157 -0.03167726 0.050673805 -0.08113196
-0.070270255 -0.027371839 0.007274288 0.008470112 0.06961028 0.01897838 0.031117365 -0.09858837
-0.13657442 -0.024580333 0.072467886 0.11883883 0.03379089 -0.01716151 -0.14311239 0.05165144
0.109388225 -0.003506179 -0.017406031 -0.15331602 -0.07184431 -0.05846084 0.021499097 -0.03666681
-0.08356155 -0.0583017 -0.048315268 -0.10534107 0.018490113 -0.012669454 -0.004156659 0.035348523
-0.09884464 -0.10339601 0.06980801 0.018983588 0.04367975 0.047405798 -0.092277996 0.04686733
-0.05230044 -0.035831433 0.091496445 -0.112709045 -0.10642773 -0.041991208 0.03466759 0.11942891
-0.035052337 0.070778064 -0.062253684 0.096912034 0.097101524 0.005781149 0.10769788 0.0114152925
0.023330245 0.016987137 -0.0001542269 0.021762045 0.07943498 -0.09667892 -0.17801896 -0.15073869
0.13850684 0.094997734 -0.05228143 -0.1303008 -0.022121815 0.08107823 0.10173107 -0.049309943
-0.00903924 0.14458461 0.09249372 0.15581748 0.016216028 0.06341674 0.026154574 -0.026826745
0.09965816 -0.061836157 -0.12476999 -0.1588181 -0.06011808 -0.038756374 0.05724315 -0.042039085
-0.09909049 -0.044833735 -0.033938993 -0.101393156 -0.10689794 -0.12583481 0.13429554 0.12067802
-0.05624265 -0.06234908 0.06760902 0.09271995 -0.010166364 0.06343814 -0.05881702 -0.059742372
-0.025121098 -0.07812491 -0.060188122 -0.12021122 -0.121330276 -0.03607499 -0.0818614 0.09077961
0.014844837 -0.06433678 -0.0034962227 0.074825495 0.071711384 -0.03289884 0.05848811 0.08892481
-0.07510019 -0.06227809 0.046102244 0.11630603 0.070740096 -0.021161236 -0.08062386 -0.041531853
0.07608905 -0.038090635 0.08782075 -0.045315076 0.14413229 0.06687467 -0.04108469 -0.13067451
0.013760872 -0.020861724 0.11483758 0.020400334 0.10189778 -0.0214536 -0.0687382 0.1443105
0.0904738 -0.017125195 -0.11835286 -0.14546698 -0.18595606 0.05323343 -0.103090875 -0.048781224
-0.05244059 -0.03492416 -0.08356014 -0.07336183 -0.044163022 0.065842085 0.09517862 0.08167118
-0.020086 -0.054467008 0.030671 0.033073764 0.1696173 0.17474313 -0.15805523 0.08908996
0.14700031 0.17662643 0.0114366235 -0.11820172 -0.20526558 -0.12821957 -0.15929778 -0.0073404424
0.05061172 0.06185241 -0.114376254 -0.08031052 -0.017756388 -0.03429832 -0.01029736 -0.05323673
-0.06959893 -0.037063558 -0.03767728 -0.013842662 0.216944 -0.016636252 0.019411288 -0.011230552
-0.11426994 0.021430863 0.07315314 0.099782355 -0.11748788 -0.048163064 -0.05489724 -0.15731068
-0.06819259 -0.031296525 0.10047577 -0.02055944 -0.06097481 -0.10376382 -0.030828534 -0.008918267
0.09395752 -0.06311177 -0.018956237 0.093685694 0.047780186 0.027387453 -0.06323556 0.003195527
0.015910756 -0.07792499 -0.036678206 -0.026058234 -0.050541457 0.12512334 0.038899265 0.02193464
-0.06357182 0.049629822 -0.041415315 0.020549284 0.0873172 0.0084625045 -0.01205653 -0.022858104

bias f4 [32]
00000000: 77fd 91bd 22f7 edbd d253 9dbd 7d93 7abd
00000010: d323 8dbe de4a f6bd 9e73 0fbe c427 e3bd
00000020: 2fdd a5be db7f e3bd 10a4 52be 4d2c b6be
00000030: 8c73 9cbb 3cd1 0abe 9215 4cbe 5041 f2bd
00000040: 4318 efbd ddee eebd 1bf4 e9bc 3591 c2bd
00000050: 6061 13be dd21 8dbe 66ed 11be d14f 41bd
00000060: c0e5 14be 76a0 24be e533 cfbc 87b7 8abe
00000070: 6e63 d9bd 2719 a9bd 83dd 833a 7541 923c
-0.07128423 -0.116194025 -0.07682003 -0.061175812 -0.27566394 -0.120259985 -0.14008948 -0.11091569
-0.32395312 -0.11108371 -0.20570397 -0.35580674 -0.0047745164 -0.13556379 -0.19930103 -0.118288636
-0.116745494 -0.11666653 -0.028558781 -0.09500352 -0.14392614 -0.27564898 -0.14250717 -0.04719526
-0.14540768 -0.16076836 -0.0252933 -0.27093145 -0.10614668 -0.082567506 0.0010060522 0.017853478

weight f4 [32]
00000000: 82f2 c03e 1690 a23e ab26 bc3d ea4e 463f
00000010: 2b53 de3e 7ecb 643e 51d1 243f 4895 ff3e
00000020: 2ece c23e 7689 cb3d 9006 b03d 9dc5 f23e
00000030: d769 3e3f 0223 e83d 36e1 053f 5627 0e3f
00000040: f4fe cf3e e3e0 fb3e f7a8 1d3f 7476 4d3e
00000050: 70b7 cb3e 5c65 c43e f9e2 363f 9772 7d3e
00000060: 50d5 203e 9583 e53d eeb3 173f a7d3 643e
00000070: 6cca 403e 12f8 203f aea2 9a3e eb86 f13e
0.3768502 0.31750554 0.09187063 0.77464163 0.43422827 0.22343251 0.6438189 0.4991858
0.38047928 0.09938328 0.08595002 0.47416392 0.7438025 0.11334802 0.5229677 0.5552877
0.406242 0.49195012 0.61585945 0.20064718 0.3978839 0.3835858 0.7144008 0.24750744
0.15706372 0.11206738 0.59258926 0.22346364 0.18827218 0.62878525 0.3020224 0.47173247

bias f4 [32]
00000000: e9fa a0bd a23a 4cbd 57d6 1ebd 6c94 f9bd
00000010: 28a3 52be 0541 f0bd 4dfb eabd 3e6e c1bd
00000020: a385 78be 947c a2bd 7650 fdbd 0616 8abe
00000030: 002d c0bd 5a71 89bd 5ef5 0cbe 396a 00be
00000040: e724 2cbe 88a6 fabd 3e5d cabd 3cec 94bd
00000050: 2afc e2bd 0730 a6be 7a7e b1bd 7801 03bd
00000060: e1ff 96bd 7b12 bcbc ec59 87bd 5a29 7ebe
00000070: ff8d ebbd 261a 26be 891d f4bd 923c 9ebd
-0.07860357 -0.049860604 -0.03877863 -0.12186512 -0.20570052 -0.117311515 -0.11473713 -0.09444855
-0.24269728 -0.07933918 -0.12368862 -0.26969928 -0.09383583 -0.06711073 -0.13765475 -0.1254052
-0.16810952 -0.122387946 -0.09881066 -0.07271621 -0.11083253 -0.32458517 -0.086667016 -0.031983823
-0.07373024 -0.02295803 -0.06608948 -0.24820462 -0.11501693 -0.16220912 -0.11919696 -0.077263966

running_mean f4 [32]
00000000: 1854 3c3f 3a8d b83e ef86 163f b777 0f3f
00000010: 545d 9bbd e1b0 1e3f 2d8a 1d3f 0141 393e
00000020: 169c b8be ae5d c03e 7264 27be d022 5cbf
00000030: 7980 143f 11f3 a23d ecf2 f1bd bc70 3c3e
00000040: 762d f03d 5028 4e3e 0675 143e cb91 e83d
00000050: bca5 afbd 2e46 b4be 0e1c 353f df1b 103f
00000060: f464 e13e aa45 b73d 26b5 cd3e e087 44bf
00000070: 5985 f43c 2111 303c 9942 db3e f5c8 c63e
0.73565817 0.36045247 0.5879964 0.56042045 -0.0758616 0.61988646 0.61538965 0.18091203
-0.36056584 0.37571472 -0.1634691 -0.8599062 0.58008534 0.079565175 -0.11813912 0.1840238
0.11727421 0.20132565 0.14497766 0.11355933 -0.08576533 -0.35209793 0.70745933 0.5629253
0.44022334 0.08948834 0.40177268 -0.7676983 0.029848741 0.010746271 0.42824247 0.38825193

running_var f4 [32]
00000000: df9e e03e 5afd aa3e 7847 8c3e 57d0 b53e
00000010: 6fbf 093e 7f0c 913e 1575 9c3e 7fb4 0d3f
00000020: 7dfa 9f3d be5f 9d3e 3626 343d 33ac fb3e
00000030: d172 823e 3540 7d3e 03f8 0f3e d94a 933e
00000040: d719 c93d 3399 6f3e 6ba2 993e bdd4 e03d
00000050: eed7 a33e 41eb 443e ea80 f73e 27c3 d83e
00000060: 43b9 8f3e 57ba 543e 3383 413e 9bad b63e
00000070: f2de 663e 161a 863e d4ca 1f3e e269 9b3e
0.4387121 0.33396417 0.27398276 0.35510513 0.13451932 0.28329846 0.30558077 0.5535354
0.07811449 0.30737108 0.043981753 0.49154815 0.25478223 0.24731524 0.14059453 0.28768042
0.09819382 0.23398285 0.30006728 0.109780766 0.3200068 0.19230367 0.4834054 0.4233639
0.2807103 0.20774208 0.18897705 0.35679325 0.22545984 0.26191777 0.15604717 0.3035422

weight f4 [32, 32, 5, 5]
00000000: 2e35 2cbd ecac 06bd 527f c9bc fdd1 76bd
00000010: 44f3 04be 6853 4cbd 9a4d cfbc 64f4 11bc
00000020: 68c4 693b c7e4 b4bd 71b4 59bd c03a 4b3b
00000030: 2477 75bc 8f0d c53d c9d9 a23c 4d65 33bd
00000040: f0af aabc 2435 91bc 677a 623d 1c8d 263d
00000050: 628f 11bd 90ca cfbb 8a67 1cbc 82c5 013d
00000060: 6465 ae3d 6393 96bd a7d8 9c3d 38ef cf3d
00000070: c3d5 ef3c 5688 113e 423d da3c 1d62 933d
00000080: bd6b 303c 7d07 40bd 138a 0a3d 1ccc 19bb
00000090: d720 2dbd d18e f9bd c1d3 d1bd 5266 edbc
000000a0: 50cb 99bc 2cf9 92bb 3df1 95bd a157 c9bd
000000b0: 1d91 cfbd 91c4 10bd ef42 cfbc 1e39 9bbd
000000c0: 0117 00be eb2c c9bd e8cb 58be 1639 babd
000000d0: bf6f 71bb 73e8 a2bc 23b4 b43b 35c6 13be
000000e0: c17e efbc 0708 15bb 6c49 623c a683 353d
000000f0: 1234 5a3c 4dac b53d 16d1 913d 87c4 853d
00000100: d5f0 a83d 32f0 433d 90f9 1ebc cad5 00bd
00000110: 23c2 8a3c 6862 5ebc 73d7 43bd 0356 773d
00000120: 90e0 2e3d de2c b4bc 306d 53bd 73ec 753d
00000130: 89ee ec3b e5f0 5fba 215b 21bd 8ccc fabc
00000140: 6aee 0c3d 4710 9a3c 3093 9bbd d1b1 09be
00000150: a80c e43c 65db 30bc 94e3 d33c 891d 89bd
00000160: 2b95 dbbd fea6 5c3d 860e 8cbc 5938 ef3c
00000170: 6fcf d13b a514 c13b 65f8 5dbd 559c c8bc
00000180: 46c6 393d 1eea a13b 9517 44bd 303f cabd
00000190: 9a47 cb3d 1ca7 62bd caee 99bd 62a2 d73c
000001a0: c892 ff3b 049b 9b3b 2803 babd 33e0 11be
000001b0: 4846 633d a31d 81bd c072 32be ea0f c2bd
000001c0: c45c 7b3a e07a a63b 517c 7ebd 4446 a1bd
000001d0: a01a d9bc 5688 a13d 70bb c23a 5d4a 8c3d
000001e0: d340 92bc 930b e03d b214 bb3d 752c b93d
000001f0: 01e9 8c3d aca5 573d ac4a 3d3d 0fa6 b43c
00000200: db0d 8abd d528 46be 1796 0dbc 1c12 9539
00000210: 3cc8 55bc be4c 9bbd c9be 26be a401 203c
00000220: c8b9 b3bc b27e 51bc df66 9f3c 6481 07be
00000230: 2219 79bc a6da 06bd 4c91 2abd c6a5 c23a
00000240: 5772 0bbd 798b 2cbc c7a8 49bd b2b5 f03c
00000250: 0175 8f3c fee2 893b d1a0 ce3c 1999 ee3c
00000260: 5de0 24bd 3430 93bd f5e3 95bd 1a5c 06bd
00000270: 33f3 2ebd 5089 96bd c27f c0bd cf44 463d
00000280: 59b2 0bbc 528d 30bd cba9 bdbd 71f5 51bd
00000290: 47f2 ca3c 347f 45bc 6fb9 5dbc a794 e2bb
000002a0: 3e57 27bd d81a a23d acb5 c23c 3072 41bd
000002b0: 62e6 7abd 3415 933b c3de 4d3d 22cd 34be
000002c0: 7643 5bbd 935f 84bd 67b0 f9ba 3bf8 943d
000002d0: 64ab 44bd 05ba fabc 84ba 93bd 9cee 33bd
000002e0: 34f7 e33d 5d74 d5bc 321f 05be 06b0 1dbe
000002f0: 6462 a3bd 5f50 cbbd c694 7bbc 30b5 65bd
00000300: 896a 6ebd 851c 03be 4353 8abd 742d 89bc
00000310: 3975 e53c 51a8 633c 5e7a e0bc 985b 3fbd
00000320: 339c cdbd 4379 6b3d 9a28 7a3c 6b28 54bd
00000330: ccbd 55bc 9c03 373d 20e7 c03d 57c6 c8bd
00000340: 7e4d 44bd 7dc1 d4bc 7bfd 2b3d 6488 2bbd
00000350: b736 90bc c841 65bd f356 f1bb 11e4 aebc
00000360: a7a5 ecbb dd54 453d 313f 913c e0ba 263d
00000370: 6394 55bc d674 94bd 849a e1bc cf88 e23c
00000380: 683a ee3c 7495 f1bd 75d2 bdbc 1e2e c63c
00000390: 5d57 873d 5829 db3d 36ac bc3c 2e3d 463d
000003a0: c919 2f3d 31f8 663d e9b4 cd3d 67bd c83c
000003b0: dabe cebc e165 06bc 474c 5fbd 3f37 9039
000003c0: 0eaf 18bd a6da 21bd 595d b8bd b8d3 24be
000003d0: e7e8 3bbe 6b81 383d 7401 643d 9bbf 62bc
000003e0: c550 e3bd b9c1 48be 726e c93c 55c4 5dbd
000003f0: 3175 37bb 265d da3d 5a8c e1bd d6ad 8bbc
-0.042042904 -0.032879755 -0.024596844 -0.060258854 -0.12983423 -0.04988423 -0.025305558 -0.008908365
0.0035670046 -0.08832698 -0.053150598 0.003101036 -0.014982019 0.09621727 0.019879239 -0.04379778
-0.020835847 -0.017725535 0.055292513 0.040661916 -0.03553713 -0.006341286 -0.00954617 0.0316825
0.085154325 -0.073523305 0.07658511 0.10153049 0.029276734 0.14212164 0.026640538 0.07196448
0.010767874 -0.04688214 0.033823084 -0.0023467606 -0.042267647 -0.12185443 -0.10245467 -0.028979454
-0.018773705 -0.00448527 -0.07321403 -0.09831167 -0.101351 -0.03534371 -0.025300471 -0.075792536
-0.12508775 -0.098230205 -0.21171534 -0.090929195 -0.0036840288 -0.019886231 0.005514638 -0.14431079
-0.029235246 -0.002274038 0.01381145 0.044315003 0.013318079 0.088707544 0.07119958 0.06531625
0.0824906 0.04783649 -0.009703055 -0.031453885 0.016938275 -0.013573267 -0.04781289 0.06038476
0.04269463 -0.02199405 -0.0516178 0.06003995 0.007230584 -0.0008542671 -0.039393548 -0.030615114
0.034407057 0.01880659 -0.07596433 -0.13446738 0.027838066 -0.010794495 0.025865354 -0.066950865
-0.10721811 0.053870194 -0.017096769 0.029201673 0.006402902 0.0058923536 -0.054191966 -0.024488607
0.045355104 0.004941239 -0.047874052 -0.09875333 0.09925766 -0.05533515 -0.075162485 0.026322547
0.00779948 0.004748704 -0.09082633 -0.14245681 0.055486947 -0.06304481 -0.17426586 -0.094756916
0.00095887133 0.005080566 -0.062130276 -0.0787473 -0.026501954 0.07887332 0.0014856886 0.06850121
-0.017853176 0.109397076 0.09134807 0.09041683 0.068803795 0.05264823 0.04621379 0.02205184
-0.06740924 -0.19351514 -0.008641741 0.00028432987 -0.013048228 -0.07582997 -0.16283716 0.009766016
-0.021939173 -0.012786554 0.019458232 -0.13232952 -0.015203746 -0.032923363 -0.041642472 0.001485043
-0.03404459 -0.0105313 -0.049233224 0.029383514 0.017511846 0.004207968 0.025223168 0.029125737
-0.040253032 -0.071869284 -0.0731887 -0.03280268 -0.0427124 -0.07350409 -0.09399368 0.048405465
-0.008526408 -0.043103524 -0.09260901 -0.05125946 0.02477373 -0.012054253 -0.01353298 -0.0069146934
-0.040854685 0.07915276 0.023768269 -0.04722804 -0.061254866 0.0044886116 0.05026127 -0.17656377
-0.053531133 -0.06463542 -0.0019049764 0.07273909 -0.048015013 -0.03060628 -0.072133094 -0.043928728
0.11131135 -0.026056463 -0.13000181 -0.15399179 -0.07977751 -0.09927439 -0.015355295 -0.056080997
-0.05820707 -0.12803848 -0.06754162 -0.016745307 0.028009998 0.01389511 -0.0274021 -0.04671821
-0.10039558 0.05748869 0.015268469 -0.051796358 -0.013045739 0.044681177 0.094190836 -0.09803455
-0.047925465 -0.025971169 0.041989785 -0.04187812 -0.017604215 -0.055970937 -0.0073651015 -0.021348985
-0.0072218957 0.048176635 0.017730327 0.04070556 -0.013035866 -0.07248847 -0.0275395 0.027653126
0.029080585 -0.11796084 -0.023171643 0.024191912 0.0660846 0.10701245 0.023031335 0.04839819
0.0427492 0.056389038 0.100442715 0.024504377 -0.02523749 -0.008203001 -0.054516103 0.00027506982
-0.03727632 -0.03951516 -0.0900218 -0.1609639 -0.18350564 0.045045298 0.05566545 -0.013839628
-0.1109939 -0.1960515 0.024588797 -0.054142315 -0.0027993436 0.10662298 -0.11013098 -0.017050665

bias f4 [32]
00000000: f83f b53c 86f8 4a3d a275 9bbc 41f0 2f3d
00000010: d424 903b f04c 4e3d 58c4 973c 5286 30bd
00000020: da1e fdbc f64f 28bc 6bd1 9dbc 387e 323d
00000030: 8d1e a43c 6738 7d3b 76d1 c43b 4060 af3c
00000040: 13bb 9b3d d1fe a43c 21d5 403c 93dd babc
00000050: dc8b 0e3d 0d6b 71bc 75e4 1d3c 0ef8 3f3d
00000060: 6cc8 87bc 5580 bebc 8437 403d 4483 c2bc
00000070: 0092 293d c4e0 99bc 14cf ae3d 427e f1bc
0.02212523 0.049553417 -0.01897699 0.042953733 0.0043989215 0.050366342 0.018526241 -0.043096848
-0.0308985 -0.01027297 -0.019264897 0.043577403 0.020034099 0.0038638355 0.006006415 0.0214082
0.07604041 0.020141037 0.011769564 -0.022810733 0.03480135 -0.014734996 0.009636988 0.046867423
-0.01657506 -0.023254553 0.046927944 -0.023744233 0.041399002 -0.018783934 0.08535591 -0.02947915

weight f4 [32]
00000000: 6f1d cd3e 8bdb 723e c8cd 243f 77df 4b3f
00000010: 950a 1b3f 0185 4d3f 6404 2e3f 988f a63e
00000020: 0646 323f 384a bc3e 9392 2c3e 682a 333e
00000030: ec11 253f a245 273f 660f a83e 4751 113f
00000040: 9d09 e53e 7653 fb3e 6167 2e3f 7b61 363f
00000050: 3620 4c3f a5cd 6b3e 326c b13e f253 593f
00000060: 0f56 033f 3034 443e ad1f 393e 6bde 9b3e
00000070: 3e7b 063f a6c0 d03e 2716 473f 4e75 1c3f
0.4006152 0.23716561 0.643765 0.79637855 0.6056302 0.8028107 0.6797545 0.32531428
0.696381 0.36775374 0.16852789 0.17496645 0.6448047 0.65340626 0.32824248 0.56764644
0.44733897 0.49087113 0.68126494 0.71242493 0.7973665 0.23027666 0.3465286 0.84893715
0.5130319 0.19160533 0.1807849 0.3044313 0.525318 0.4077198 0.77768177 0.6111649

bias f4 [32]
00000000: af1e 40bc 9e54 9b3c aa19 e2bc 30c6 06bd
00000010: 206f 16bd f4f2 a9bb 5c53 b2bc abf6 37bd
00000020: 2097 91bd d960 e73b 3b29 09bd 3726 0e3d
00000030: 81e7 03bd f0ca 273d 49e7 ffbb c9de 46bc
00000040: 9653 48bc 7f21 ddbc fe52 3fbd 621c bb3b
00000050: d5dc d13c f71d c83b 0903 a9bc 2359 b63c
00000060: 022a 5bbb b4ad d8bc 37ec 133d ec71 4dbd
00000070: 0729 743c 428d b8bc d466 d13d 97c7 d0bc
-0.011726066 0.018961247 -0.027600128 -0.03290385 -0.03672707 -0.005186433 -0.021768264 -0.044912975
-0.07108903 0.0070611057 -0.033486586 0.034704413 -0.0322032 0.04096502 -0.0078095538 -0.012138077
-0.01222696 -0.026993511 -0.046710007 0.0057101706 0.025617996 0.0061070877 -0.02063133 0.0222593
-0.0033441787 -0.026450016 0.036113944 -0.050157472 0.01490236 -0.022528294 0.10224691 -0.025485797

running_mean f4 [32]
00000000: d417 a4bd 33fc 61bf 5fb3 8bbd 2c8d 2bbf
00000010: 95e3 dcbe 7fe6 09bf c163 95bf e8cc 553e
00000020: e4f9 d2be abc3 49bf 4466 c43d b7c4 c13e
00000030: 2f02 22bf 235f 59be 9270 113f c20d 893e
00000040: 6929 83be 8880 5bbd 2bb8 053e 595e 66bf
00000050: 4dab 5b3e b86d 3a3e b11c 79be a64b cabe
00000060: 68bc 713d a5af 10be 5657 96be d4ac cebe
00000070: 453c f7be f040 3dbd 6be0 45be 9c9e c9be
-0.08012357 -0.8827545 -0.06821322 -0.67012286 -0.4314238 -0.53867334 -1.1671067 0.20878947
-0.41206276 -0.7881419 0.09589818 0.37845394 -0.6328458 -0.21227698 0.56812394 0.2676831
-0.2561753 -0.053589374 0.13058536 -0.89987713 0.21452065 0.18205917 -0.24327351 -0.3951084
0.05901757 -0.14129503 -0.29363507 -0.40366232 -0.4828817 -0.046204507 -0.1932389 -0.39378822

running_var f4 [32]
00000000: 744b 743e 0f66 ad3d 8cca 833e 128f af3e
00000010: fee7 a73e e187 893e 24ca f13d b02d 1c3e
00000020: a6dd f43d f6e3 fc3d cf51 0c3e 2de3 8d3e
00000030: 809d 9b3e 6dea bf3e afb6 ba3e 66f5 aa3e
00000040: 46ac d33d 088e 143e c39c 583e 4015 213e
00000050: 41a5 9d3e 64bc 333e cc77 233e 90a4 5b3e
00000060: f4f4 393e 92e1 3f3e a537 973e 5f03 fd3d
00000070: 4161 7b3e 6b1d 653e e445 123f e88c c73e
0.23856908 0.08466732 0.25740469 0.3428884 0.32794183 0.2686148 0.118061334 0.15251803
0.119563386 0.123481676 0.13703083 0.27712384 0.303936 0.3748354 0.36467502 0.3339035
0.10335593 0.14507306 0.2115355 0.15730762 0.3079014 0.17552334 0.15963668 0.21449494
0.18159848 0.18738392 0.2953464 0.123541586 0.24548818 0.22374503 0.57137895 0.3897469

weight f4 [64, 32, 3, 3]
00000000: 5f17 a83d fffc c23c 88b9 34bd cabf 8d3d
00000010: c4c5 cf3d e4e0 11be 6c0b 833d 454a 4f3c
00000020: d866 38be 2236 173d 117a e43c 9565 97ba
00000030: 3b74 823b 8ae8 e23c 1a6a 5a3d e987 d9bd
00000040: 51df cb39 29d2 e53b 068b 9d3c 226f 0f3d
00000050: 8064 9cbd f550 5f3d c382 983c 8f78 cd3c
00000060: 65fe 1cbd e368 e53d b1ba b53d 8d61 9dbc
00000070: 5dff 033e 5818 b9bb 2a4d 483d 8da5 a53d
00000080: 866f b13d c7b4 5fbc b678 88bc 3ab8 bd3c
00000090: 3703 a43d 0b7d 8abd 0815 5dbd d398 993d
000000a0: 05e3 073c 5a21 2cbd e03c 52bd 9a29 adbd
000000b0: cfe7 c6bd 04b8 a0bb 5a90 99bc 3da1 523b
000000c0: 14ab 473d a773 813c 8c17 6b3c af8c 8f3d
000000d0: 9b18 dc3c d2aa cfbd 0720 c8bd 73b5 f0bb
000000e0: 733a 3abd de7b c03d 516b 01bd 89c8 0bbd
000000f0: a20b 723d 64b8 0f3d 22cb fe3b 41b9 933d
00000100: feb0 0a3d df84 1cbd ddf9 8b3a 6e9e a9bd
00000110: 80d8 90be c281 993d d8bf d03c 24bd 8cbd
00000120: 5725 d2bc 4a3a 383d 1fef ea3c 9bca 62bd
00000130: 5c8a a03c 6a51 06bd 3149 07bd c663 6bbd
00000140: f051 c73c ba20 a83d 66cf fa3b 21b0 d8bd
00000150: b677 013d 1fa7 043d fb18 72bb d0e8 3b3d
00000160: ff31 cbbd e1f2 873d 30f8 d63c 9537 11bd
00000170: e8ce cbbd 33d9 623d 0518 4abc 2147 14be
00000180: e7d1 893d 79bb fabc ac71 dabd 92de 803d
00000190: c045 a93d 92e9 96bd 55f2 223c 2127 9f3d
000001a0: eb40 05bc a819 aabd b744 84bb 453c 88bd
000001b0: 38f3 a73d 1443 c93c e715 d63b 4df6 3fbd
000001c0: 834e 083c a6af bcbc 750f 703d 0ddb 173b
000001d0: 79d6 63bd 62ce 9bbc cf8d 9abd 77ef a9bb
000001e0: 7593 44bd 0aac c0bd 8689 d2bd c2b6 febd
000001f0: b127 39be 6575 0dbe 962e 2e3d cd01 6e3d
00000200: b887 3a3c 70fd 74bd 2806 62bd 3a7c 893c
00000210: b658 31be 05d2 1bbe d72f e1bd c201 94bc
00000220: e43d c5bc e889 05be f154 a2bb 7e77 843d
00000230: a306 1abe 7d52 e23c 1ec3 8c3d c528 4cbc
00000240: ef8d 283c 6269 c03c aea8 8fbd a959 e43d
00000250: 4444 a23c ec5f c43d 83d3 c53d 58ab 013a
00000260: 4383 ab3c 549c 0e3d bb80 303d 948e dbbd
00000270: 9f3b 683d 34f0 0c3e 881a b6bd 588f af3d
00000280: f868 113d bf1d 3ebe 421d 2c3d 0ca6 62bd
00000290: 77ff 7cbd 7348 423d 02fd 823d bba6 31be
000002a0: e3bf a53d f71c 44bd 8133 ecbd 558f 043a
000002b0: dcfe 833c 9d5e b03d 33de 553c aa7f 40bd
000002c0: f215 e9b9 5179 c33c bf0f edbc c9bc 15be
000002d0: dd1a 5e3d 6688 6e3a b0c5 29be 90da a73d
000002e0: b6fd 8dbc 57f4 53be 55de 3f3c 9cda 293c
000002f0: e332 fdbc d4b3 40bd 1695 febc 9c06 e9bb
00000300: b22b 643b 1d82 5d3d 23c8 44be 7cb4 7f3d
00000310: 1b5b 2ebb 8e23 293c 7221 7139 6374 823c
00000320: 9b3f 323d 8ea7 a93d 17e9 ea3c 86be 2ebd
00000330: e90d 23bd c42c 0d3d 3f0d 08be de78 4f3c
00000340: 1ce1 0abd 195f b1bd 2fae 093d 6f07 08bd
00000350: ea79 09bd c022 a83d e03b 323d 30fb 30be
00000360: bf65 233d b31f 45bc fe67 aabd ef07 95bd
00000370: 9f66 15bd 079e 16be 198b 673c a900 33be
00000380: ca94 dcbd e58f 3f3d 9ca8 cf3c 3893 b0bd
00000390: fee7 0f3e c8b0 823d 30b6 17be dc13 e8bc
000003a0: 7bb0 b5bc 7cbd bf3c 786a 42bc bb2c b1bb
000003b0: bfab c2bd c48b 97bb 2106 cabd 4cd6 11be
000003c0: ee9c b23a e067 bebd 82f0 cbbd 6d9f 353d
000003d0: 1a03 ea3d a741 c6bd b2b1 56bc 3019 a4bc
000003e0: 4e69 f6bd a0fa b3bc f30b dfbb 0177 97b9
000003f0: 148f 61bd 2808 5c3d d8ab 25bd 5dae 483d
0.08207583 0.023802279 -0.04412225 0.069213465 0.10145143 -0.14245945 0.06398663 0.012651985
-0.18007982 0.03691686 0.027890237 -0.001155066 0.003981141 0.027698774 0.053323843 -0.10621626
0.0003888556 0.0070135784 0.01923133 0.035018094 -0.07636356 0.054520566 0.01861704 0.0250819
-0.038328547 0.11201646 0.08873499 -0.019211555 0.12890382 -0.005648654 0.048901714 0.08088217
0.086638495 -0.0136539405 -0.016659122 0.023159135 0.08008426 -0.06762131 -0.053975135 0.07499852
0.008293872 -0.042023994 -0.051327586 -0.084552005 -0.09712183 -0.004904749 -0.01874559 0.0032139563
0.048747137 0.015802218 0.014348876 0.07009255 0.026867202 -0.10140003 -0.09771734 -0.007345849
-0.045465898 0.09398626 -0.031596486 -0.034126792 0.059093125 0.035087958 0.00777568 0.07213069
0.0338602 -0.038212653 0.0010679323 -0.08282171 -0.28290176 0.074954525 0.025482103 -0.06872013
-0.02565257 0.044977464 0.028678475 -0.055369 0.019597225 -0.032792486 -0.033028785 -0.0574682
0.024331063 0.08209367 0.0076541184 -0.10580469 0.031608306 0.03238594 -0.003694116 0.045876324
-0.099216454 0.06638122 0.026241392 -0.035453398 -0.099515736 0.05538292 -0.012334828 -0.14480259
0.06729489 -0.030606972 -0.106662124 0.06292452 0.08265257 -0.07368769 0.009945472 0.07771135
-0.008133153 -0.08305675 -0.0040365118 -0.066521205 0.08200687 0.024568118 0.0065333727 -0.04686575
0.0083195 -0.023032974 0.05860849 0.0023171336 -0.05562446 -0.01901931 -0.07546579 -0.005186017
-0.04799219 -0.09407814 -0.10280137 -0.12437202 -0.18081547 -0.13814314 0.042524897 0.058107186
0.011384897 -0.05981201 -0.055181652 0.016782869 -0.17318997 -0.15216835 -0.10995453 -0.018067244
-0.024077363 -0.13040888 -0.0049539735 0.06468104 -0.15041594 0.027627224 0.06873153 -0.012460892
0.010287746 0.02348775 -0.07014595 0.11149914 0.019807942 0.09588608 0.09659483 0.00049464917
0.020936614 0.034817055 0.043091517 -0.10720554 0.056697484 0.13763505 -0.08891779 0.085722625
0.035500497 -0.18566035 0.04202009 -0.055334136 -0.061767068 0.047432374 0.06395914 -0.17348759
0.0809324 -0.047879186 -0.11533261 0.00050567585 0.016112737 0.08611796 0.013053465 -0.04699675
-0.00044457574 0.02386156 -0.028938172 -0.14622797 0.054224838 0.00090993044 -0.16579318 0.08195984
-0.017332893 -0.20698677 0.011710723 0.010367062 -0.030908054 -0.047046497 -0.03107695 -0.0071113836
0.0034816083 0.054079164 -0.19216971 0.062427983 -0.0026604596 0.010323418 0.0002299601 0.015924638
0.04351769 0.08283912 0.028675599 -0.042662166 -0.039808188 0.03446652 -0.13286303 0.012663094
-0.033906087 -0.086607166 0.03361338 -0.033210214 -0.033563532 0.08209753 0.043514132 -0.1728332
0.039891955 -0.012031483 -0.08320616 -0.07276904 -0.03647482 -0.1470872 0.014132285 -0.1748072
-0.10770567 0.046768088 0.025348954 -0.0862183 0.14053342 0.063813746 -0.14815593 -0.028329782
-0.022178879 0.023405783 -0.011866204 -0.0054069436 -0.09505414 -0.0046248157 -0.0986445 -0.14241904
0.0013627091 -0.09297156 -0.099579826 0.044341493 0.11426373 -0.09680491 -0.013103889 -0.020031542
-0.12031804 -0.021970093 -0.0068068444 -0.0002888963 -0.05506809 0.053718716 -0.040447086 0.04899441

bias f4 [64]
00000000: e865 323d 3a80 f73c c48b 593c 6bbc 10bc
00000010: 3462 f7bd 9e34 5dbd cc62 86bc 18ef f93b
00000020: e4f6 efbc b994 733b 7215 c83c 6f95 98bd
00000030: 04ff 0d3e a879 f0bc 9833 d0bd 5b17 d3bd
00000040: f46e 15bd 29b2 a93d 85d0 553d e5ef 8d3c
00000050: 224f 30bd 2ed8 b03b ba82 06be 5dac 96bd
00000060: 8646 d63d c6bd f4bd 7fc7 a2bd d9a8 313e
00000070: ccd6 8b3c a003 48bd 8728 683b ba83 13bd
00000080: 0e9f 223d bf84 8fbd 6e70 aa3d 52d2 4d3d
00000090: d49a dabc aa91 fa3c 8a28 c43b 48ee 05bc
000000a0: 5ccd 9bbd 088a 343d e63e 953d 7b59 15be
000000b0: ae0f c43c 70c6 773c a083 a5bd 43b8 e6bd
000000c0: bc16 923d 3752 c0bc 3dfc a53c d5ec 023e
000000d0: c2ab 96bd 0e60 3cbc ac1b 94bc 3ebb 4c3d
000000e0: a19c 4fbd 844d 48ba 35a0 4dbd 8741 00bd
000000f0: 89ad 2abb 5923 c93b f4e7 7cbd 8d60 bfbc
0.043554217 0.03021251 0.013277952 -0.008833985 -0.12079278 -0.054005258 -0.016404532 0.007627379
-0.029292531 0.0037167503 0.024424288 -0.07450377 0.13866812 -0.029354885 -0.10166091 -0.10307189
-0.036482766 0.082859345 0.052200813 0.017326305 -0.043044217 0.0053968644 -0.13135806 -0.073570944
0.1046267 -0.11950259 -0.07948207 0.17349567 0.017070197 -0.048831582 0.0035424547 -0.036014296
0.039702468 -0.07007741 0.083222255 0.050249405 -0.026685156 0.030587036 0.005986278 -0.008174486
-0.076075286 0.04407695 0.072873875 -0.14584915 0.023933258 0.015122995 -0.08081746 -0.11265614
0.071332425 -0.023476703 0.020261878 0.12785657 -0.07356979 -0.011497511 -0.018079601 0.049983256
-0.050686482 -0.0007640945 -0.050201613 -0.03131249 -0.0026043376 0.006138247 -0.061744645 -0.023361469

weight f4 [64]
00000000: 4e11 393f e7cf 443f 9d37 2c3f 74ea 1f3f
00000010: da59 5c3f c35c 8e3e 22b6 263f bff2 603e
00000020: 1ec1 6a3e f9f3 b43e 6f61 283f a2db 473f
00000030: be67 153f 66f8 a03e bf12 023f 6a27 1a3f
00000040: 57ed d33e 280e 043f 5af1 063f 84a8 133f
00000050: 8527 403f 3f1c b63e f796 9d3e 9504 db3e
00000060: d33f e23e 8bbd 803e 19da 043f 5dc4 bf3e
00000070: e3b3 4c3e 3c86 063f 3913 3f3e ddb7 0a3f
00000080: 8550 813e 59d7 353f 118c 0f3f 775e fa3e
00000090: 6354 8c3e 63c4 023f ab96 793e 598a 3a3f
000000a0: 75be a53e 0405 0b3f f853 a23e f240 153f
000000b0: 14d6 1d3f 22cf 903e 0648 9a3e 2424 153f
000000c0: 8e1d d33e 2bb7 9b3e 59af 753e b4c8 ba3e
000000d0: 8f7b 473f 5aeb 073f edb8 443f 0b6d b63e
000000e0: d65d 0e3f 8f84 d33e 700d 213f d7c0 043f
000000f0: 521d 203f d645 413f c1f1 6a3e 2cbe 1c3e
0.7229203 0.76879734 0.6727236 0.6246712 0.860746 0.27805147 0.6512166 0.219676
0.22925231 0.35342386 0.6577367 0.7806951 0.58361423 0.31439513 0.50809854 0.6021639
0.41392013 0.515841 0.52712023 0.5767901 0.750603 0.35568425 0.3077924 0.42776933
0.4418932 0.2514461 0.5189529 0.374545 0.19990496 0.52548575 0.18659677 0.54186803
0.25256744 0.7103172 0.560731 0.48900196 0.27408132 0.5108091 0.24373882 0.7286735
0.3237187 0.5430453 0.31704688 0.58302224 0.6165478 0.2828303 0.30133075 0.5825827
0.41233486 0.30413184 0.23992671 0.3648125 0.7792291 0.53093493 0.76844674 0.35630068
0.5561193 0.41312072 0.6291113 0.5185675 0.6254474 0.75497186 0.22943784 0.1530692

bias f4 [64]
00000000: e825 09bd 45cb 83bd 7182 a2bd 9b81 68bd
00000010: 1845 05be 99d6 13bd 8829 cdbd a187 39bd
00000020: 39a4 29bd fc10 39bd 61f2 ab3c dc1c 0ebe
00000030: 0ffd ae3d 9ba3 91bd a6e8 d6bd 6e4a cabd
00000040: a34e 9cbd 1ccc 603d 7c7f d2bc fb05 273c
00000050: 6eed 89bd b6d6 cabc 4b86 bcbd 41cd 14bd
00000060: eb53 113c f452 edbd c7f7 01be 5f3f 063e
00000070: 1d97 27bd a5ec 08bd afa1 06bd 1e63 acbd
00000080: dace adb9 37c2 88bd 0af7 9c3d 3315 133d
00000090: 2e25 97bd 8870 44bd 51a7 ee3b f2b7 a6bd
000000a0: 758f 23bd 4f70 73bd cee7 073d ecd6 30be
000000b0: ea39 17bd 6d1b ae3d fe95 7bbd 8dca f5bd
000000c0: c4a0 31bc cbb6 b0bd adb1 1e3d bf41 993d
000000d0: adb4 febd 933a 3dbb 9ae9 1cbd d16a f03b
000000e0: 5d6b 5cbd dbd0 85bd 0a29 b0bd 0b86 e0bd
000000f0: 8c47 98bd 30d5 e1bd 15ae c6bd d834 3fbd
-0.033483416 -0.06435255 -0.07935036 -0.056764226 -0.13014638 -0.03609333 -0.10017687 -0.04529536
-0.04141638 -0.045182213 0.020989599 -0.13878196 0.08544361 -0.071112834 -0.10493593 -0.098774776
-0.07632186 0.054882154 -0.025695555 0.010194297 -0.06734739 -0.024760585 -0.09205302 -0.036328558
0.008870105 -0.11588088 -0.12692176 0.13110112 -0.040915597 -0.033428807 -0.032869037 -0.084173426
-0.00033151248 -0.066776685 0.076643065 0.03590889 -0.07380138 -0.04795888 0.0072831293 -0.081405535
-0.039931733 -0.059433278 0.03318005 -0.17269486 -0.036920466 0.08501325 -0.06142234 -0.12001524
-0.010841552 -0.08628615 0.038743664 0.07483243 -0.12436805 -0.0028874024 -0.038308717 0.0073369523
-0.053813327 -0.06533977 -0.086015776 -0.10963067 -0.074355215 -0.110269904 -0.09701172 -0.046681255

running_mean f4 [64]
00000000: 0706 863d 320f 273e b100 97bc 8065 05be
00000010: 6429 9ebd 6bba 98bd c32f a13e 7e88 ac3d
00000020: 4168 323e 30d8 ff3c 6288 d2bd 1391 033e
00000030: 7356 e2bd b19d 4abe 2d18 abbd 9659 483e
00000040: 5247 9a3d 9943 69bd 040e e73d b465 73bd
00000050: 23f5 af3e f4c6 803b 77cf e83e d1d9 6c3c
00000060: 01f3 acbd fedc c43e 9854 303d df7a 91be
00000070: 7f6b 0a3e 3ee2 a8bd 24df 903e 9f18 5abd
00000080: 699c d73d e297 c23e 0466 16be c092 4bbd
00000090: 3be0 463e 2a5e be3e aa62 793d 0563 5b3e
000000a0: d232 673e 5661 e73e 6354 64bd f7f7 0a3f
000000b0: 5a66 91bd 97a4 24be f4f1 a53d 658f 963d
000000c0: f6e7 96bc 37fa ba3e 31ba a4bd 4faa d3bd
000000d0: 2294 8c3e 66fe d5bd 09ac 8c3d ca7e 1cbe
000000e0: d1e8 a3bd f3bc 4f3e c26e 0b3f c642 433e
000000f0: 52ea 813d 9b13 883e 13c7 813e 76cb 2a3e
0.065441184 0.1631439 -0.018432947 -0.13027 -0.077227384 -0.074574314 0.31481752 0.08424471
0.17422582 0.031231016 -0.10279919 0.1284831 -0.11051645 -0.19786717 -0.083542205 0.19565424
0.075331345 -0.05694923 0.1128197 -0.059423164 0.34366712 0.003929967 0.45470783 0.014456228
-0.08444787 0.38449854 0.043049425 -0.28414056 0.13517569 -0.08246277 0.28295243 -0.053246137
0.1052788 0.38006502 -0.14687353 -0.0497005 0.19421475 0.37181216 0.06088511 0.21424492
0.2257798 0.4519145 -0.05574454 0.54284614 -0.070996 -0.16078411 0.081027895 0.07351569
-0.018421154 0.36519024 -0.08043326 -0.10335218 0.27456766 -0.10448913 0.068687506 -0.15282741
-0.080033906 0.20286922 0.5446588 0.19068441 0.06343521 0.26577458 0.25347194 0.16679177

running_var f4 [64]
00000000: 953f 313e a037 f83d ea73 af3d cd81 2d3e
00000010: f282 613e 699b e73d 3cae de3d b34f b63d
00000020: 4041 fc3d 041d c43d 6c01 4c3e 06e1 133e
00000030: 2fee 013e 82a0 ae3d cf61 0d3e 3c5b 123e
00000040: bde7 093e f7d7 173e 8df2 223e 84ea 073e
00000050: e1d0 223e 4b0b 173e c455 373e f701 8e3d
00000060: e485 163e beef c53d 20d6 c13d 3f09 563e
00000070: 3a43 8e3d c156 513e b8d0 fc3d bd3c e23d
00000080: 630d b53d dbe9 4c3e 908d ef3d 4f90 e43d
00000090: f7aa c03d 4fcf c23d ad52 ea3d b2b5 273e
000000a0: 9d81 2e3e e534 833e d077 ec3d b8ff 693e
000000b0: d5d3 613e 9bd4 dc3d ff16 ca3d 468b b43d
000000c0: ce8a 2e3e 97cc de3d acf2 ac3d bf58 303e
000000d0: ee63 813e d32b d73d b3a0 253e aa49 be3d
000000e0: c013 283e 8aaf a13d 8fa5 d33e 79d1 023e
000000f0: d207 0c3e 3022 073e bdf8 983d fb93 e43d
0.17309411 0.121199846 0.08567031 0.16944046 0.22022608 0.11308939 0.10873076 0.0890192
0.12317133 0.09575847 0.19922417 0.14441308 0.12688516 0.08526708 0.13806842 0.14292616
0.13467307 0.14828478 0.15912838 0.13273054 0.15899993 0.14750402 0.1790381 0.069339685
0.14699513 0.09664868 0.09464669 0.20901965 0.06946416 0.2044325 0.123444974 0.11046741
0.08840444 0.20011084 0.11696923 0.11160337 0.09407609 0.09512197 0.114415504 0.16377905
0.17041631 0.25626293 0.1154629 0.22851455 0.22053464 0.10782739 0.098676674 0.08815627
0.17045137 0.10878866 0.084447235 0.17221354 0.25271553 0.10506406 0.16174583 0.09291394
0.16413784 0.078948095 0.4133725 0.1277522 0.13674858 0.13196635 0.07469318 0.111610375

weight f4 [128, 64, 3, 3]
00000000: acec 47bd 7b78 bb3c 4fc3 30be ccb6 4f3d
00000010: ce40 bb3d e299 a2bd ac5e f1bd 9334 d3bc
00000020: 3300 b1bd 2429 c2bc 788d 3dbd 6e30 c43b
00000030: c340 adbd 58ed 31bc 8bb5 cebc b070 c8bc
00000040: 3e09 04bc c8ac 8abc 7266 8abc d968 d6bd
00000050: ec5b bebd e955 a9bb 4093 93bd ad72 063e
00000060: 6af5 9f3c f341 3abd 776e b7bc 30fb a33d
00000070: bf58 6a3d 3481 e8bd c7bb aebb 3143 b83c
00000080: 99aa d73d 4652 11be b445 363d 16f5 ce3c
00000090: 533d d63b 8ce5 e63c 1374 6ebd 5b67 5f3d
000000a0: 417b 573c 4631 38bc 5cd2 debc b315 9e3c
000000b0: 3200 98bd a45b 43bd 8f31 17be 5345 72bd
000000c0: cc3b fc3c bcea ab3c dc27 98bc b3d9 413b
000000d0: 1f5d ab3d 439a a23d c90e 8bbd c466 fdba
000000e0: 0c24 e23d ffd3 21bd 507b 9fbd 7e4a c6bd
000000f0: 12c6 0b3c 2ee1 4c3d 0cdb 20be 01d8 453d
00000100: 64f9 b73d a3f5 2cbd 6fe3 0bbc 9eed 97bc
00000110: a845 d3bc 6d0f 1ebe 3789 bbbc 5183 633d
00000120: 76b0 5f3c 2408 b9bc f0ee 383e 399a 993d
00000130: 4c6a 703d c845 793d c7d9 82bb 9980 0ebd
00000140: b07e bbbd a1ee f83c 6034 02bd 2249 473d
00000150: fb27 9dbd 8b5a 59bd efa1 4e3d 3862 103d
00000160: 323b 16bd 9ea7 53bd 20d5 e5bd 7072 6dbd
00000170: 3dcb d93c 6e54 bfbd 8f47 cabd 95cb b1bd
00000180: 6a0f 02bc f5a1 5b3c d920 6f3d f363 a33d
00000190: af0f 3a3c de4f 88bc 4c89 6a3b c206 09bd
000001a0: e22a 943c 4e08 a23c aa4d 7b3c 645d 0a3e
000001b0: 016e 883d 8301 a13d 3c58 49be 1977 90bd
000001c0: 2eaf 9bbd 7f99 06be f397 41be 7333 c2bd
000001d0: c293 96bd 4b63 ddbd a720 4a3b 2748 86bd
000001e0: a6ea 3dbd b7cc e6bb 1233 173d 62bf 6ebb
000001f0: a7a1 4a3c 5090 b23d e699 7c3d 1217 df3d
00000200: adfb de3c 4ea7 68bd 62ee 63bd 6650 01be
00000210: caea 453b 9a81 3bbd abf5 243d 4355 76bd
00000220: 680a 273d 9bc8 f6bc 3c50 55bc 58c1 78bd
00000230: 8576 34bd 48f8 d43b 0973 ccbd 3c8b 173d
00000240: e0e3 a1bd 82d1 02bc bfdd c13d 20ed 2f3d
00000250: 4fa9 1f3d 8019 e13d e2e5 a63d 5796 2abd
00000260: f453 66bd 658b 1d3d 142b fc3c f9c9 d7bc
00000270: 7c69 7e3d 767f 8bbd c4dc 57bd 8c41 00be
00000280: 7d8f 1cbe 848b 02be 7290 e5bd b9d0 bfbd
00000290: 6959 263c bea1 4dbd 4c6f 43bd f64f 2cbe
000002a0: b69d 07bc 3234 87bd 781b 153b 8d9d 2b3c
000002b0: c841 7c3d bd85 103d b04a 9abd 482e a23d
000002c0: 5363 263e fb5f 883c 30c6 89bd de30 4bbd
000002d0: d77a 28bd 61fa 5fbd b1b3 a03d c460 a8bd
000002e0: aeae aebc 05a3 77ba 25f8 13bd fb6e 3e3c
000002f0: 0037 6cbc 57d1 8bbb fef0 3cbe 6e17 bfbc
00000300: 34f7 de3d 0ba4 c6bd d50a 8cbd 7ad7 adbd
00000310: 4a2a 85bc c920 b6bd 9215 c43d d4f4 513d
00000320: 45b6 f03c 3280 44bc 180a 0d3d c56b 5f3d
00000330: 4d5d 0abc eaa5 edbc d6b8 dc3d a7f2 193d
00000340: 7184 eabc 502f 05be c041 ebbd 7d97 ce3b
00000350: 967e 8dbd 2734 b83c 09ef b8bd 7a0a 433d
00000360: 58fc 8fbd d1f9 ec3c 7321 8fbd 44e1 11be
00000370: 2f94 17be a140 c1bd bbea e73d 2dfe d4bd
00000380: 9045 63bd d968 5f3d b95a f43d eae0 c43c
00000390: 304a 543c 3c2c 503d 02a2 0f3d 1a6e 86bd
000003a0: 98a7 763c 2627 acbd ef08 1abe 6276 2c3b
000003b0: f8bf 0b3d f6a7 70bd 00ce 1c3c 38b8 cb3a
000003c0: f654 56bd a7a5 463d 8df3 02be 6496 edbc
000003d0: f620 433d dc25 8e3d dc6d c23c fd41 a73d
000003e0: f4aa 9abc 7e6f 083c 18bb 5e3d a431 27be
000003f0: a379 0e3e 6240 2cbd 6590 653d 9fd8 9cbc
-0.048809692 0.022884598 -0.17262004 0.050711438 0.0914322 -0.07939507 -0.11785635 -0.025781905
-0.08642616 -0.023701258 -0.046277493 0.0059872186 -0.08459618 -0.01085981 -0.02523305 -0.024467796
-0.008058844 -0.016928092 -0.016894553 -0.10469217 -0.092948765 -0.005167712 -0.0720582 0.13129683
0.019526202 -0.04547305 -0.02239154 0.080068946 0.05721354 -0.113527685 -0.0053324434 0.022492977
0.10530586 -0.14191541 0.044500068 0.02526335 0.006538072 0.028185628 -0.058216166 0.054541927
0.013151945 -0.011242216 -0.027199917 0.019297456 -0.07421912 -0.047694817 -0.14764999 -0.059148144
0.030790232 0.020985954 -0.018573694 0.0029579222 0.08367371 0.07939579 -0.067899294 -0.0019332995
0.11042032 -0.039508816 -0.07787192 -0.09682177 0.00853111 0.050019436 -0.1570856 0.0483017
0.08983114 -0.042226445 -0.008538111 -0.018545922 -0.02579005 -0.15435572 -0.022892578 0.055545155
0.013652911 -0.02258689 0.18059897 0.07500119 0.058695123 0.060857564 -0.0039932462 -0.03479061
-0.09155023 0.030387225 -0.03178823 0.04865373 -0.07673641 -0.053064864 0.0504474 0.03524992
-0.036677547 -0.051673524 -0.11222291 -0.057970464 0.02658617 -0.093422756 -0.0987693 -0.08681408
-0.007938245 0.013405313 0.058380935 0.07978048 0.011356278 -0.016639646 0.0035787402 -0.03345371
0.018086854 0.01977935 0.015338341 0.13512188 0.066616066 0.078616165 -0.19662565 -0.07053966
-0.07601772 -0.13144492 -0.1890562 -0.094824694 -0.07352401 -0.10809954 0.0030842216 -0.06556731
-0.046366356 -0.007043447 0.03691394 -0.003642999 0.0123676425 0.08718932 0.061670206 0.10893072
0.027219618 -0.05680018 -0.05564726 -0.12628326 0.003019976 -0.045777895 0.04027335 -0.060139906
0.04078141 -0.030124953 -0.013019618 -0.060731262 -0.04405834 0.006499324 -0.09982879 0.03699802
-0.07904792 -0.007984521 0.09466123 0.04295075 0.038979825 0.10991192 0.081493154 -0.04164728
-0.056232408 0.038463015 0.03078226 -0.026341425 0.062112316 -0.068114206 -0.052700773 -0.12525004
-0.15289111 -0.12748533 -0.112091914 -0.093659826 0.010153153 -0.050203077 -0.047713563 -0.16827378
-0.008277347 -0.06601752 0.0022751968 0.010474575 0.06158617 0.035283793 -0.07533777 0.07918984
0.16248827 0.01664733 -0.067272544 -0.04960715 -0.041132774 -0.05468214 0.078467734 -0.082215816
-0.021323528 -0.0009446594 -0.03612532 0.0116231395 -0.01441741 -0.0042668986 -0.18451306 -0.023326602
0.10886994 -0.096992575 -0.068380035 -0.084883645 -0.016255517 -0.08892972 0.09574427 0.051258877
0.029383788 -0.011993455 0.034433454 0.054546136 -0.008445096 -0.029009778 0.10777442 0.037584927
-0.028627606 -0.1300633 -0.1148715 0.00630468 -0.0690891 0.022485806 -0.09029967 0.047617413
-0.070305526 0.028927715 -0.06988802 -0.14246088 -0.14802621 -0.09436155 0.11324068 -0.10400043
-0.05548626 0.05454335 0.119313665 0.024033029 0.012957141 0.050823435 0.035066612 -0.06563969
0.015054606 -0.084059045 -0.1504247 0.002631568 0.034118623 -0.05875393 0.009570599 0.0015542572
-0.05232712 0.048497822 -0.1278822 -0.029002376 0.047638856 0.06940815 0.023734026 0.08166883
-0.018880345 0.008327363 0.054377645 -0.1632753 0.13913588 -0.042053588 0.05604591 -0.019146262

bias f4 [128]
00000000: 35d1 3dbd 95b7 f2bc 05af 8ebd 305e 373d
00000010: 242a 4abd cb7b 4cbd a443 e83b 0a4f e3bd
00000020: b3b2 afbc b533 dbbc f954 a0bd 9b9e bfbd
00000030: 7129 50bd c882 19bd 3305 98bd 5764 b3bd
00000040: fb98 adbd 8f36 92bd d402 efbc f15b 8f3b
00000050: fb41 80bd 01a2 24bd 5447 93bd f260 d3bd
00000060: 4573 10be 0f59 38bd 59f4 5dbd 3cc6 2dbd
00000070: 9892 2ebd 728a 4dbd 6af7 91bd 922f a1bd
00000080: 265e 4ebd 536e b1bd a104 3ebd 4963 cfbd
00000090: f6c5 64bd a842 5dbd 9d7d 8ebd ab43 86bd
000000a0: cc70 82bc 1f4f 5fbd e6fa b0bd 403a 03bd
000000b0: 6af1 41bd dd12 5abd 9a49 93bd 374e e0bd
000000c0: aee1 a4bd 08a1 b7bd 534f 563c 3400 06bd
000000d0: 3a47 68bd 8892 dcbd 3759 93bc 0cb3 c6bd
000000e0: b35e fcbd 3dad 57bd c47d 89bd 784f 0fbd
000000f0: 92cb 6ebd 57b3 c9bc fd95 89bd e61f f3bc
00000100: 2795 14bd 3605 42bd ce97 64bd 2c56 8abd
00000110: 80c2 7bbd d9f1 8dbd 5019 7bbd 6e8e 67bd
00000120: 46fc 30bd bda6 34bd 38f9 8bbd 9f40 92bb
00000130: 69ce 42bd 5416 e6bd 1b48 a3bd 309c 3cbd
00000140: e4d4 44bd 9d7c 833c 1a01 f6bc 3c6d b9bd
00000150: 41e3 7bbd 7cbf 40bd c63f fc3b 2289 acbb
00000160: 3ee6 dabc 90f8 71bd 3257 c639 7898 3cbd
00000170: 0ebf cbbd 2f31 21bd eea2 37bd 6aa4 a6bd
00000180: 4eeb 2b39 daa4 08bd 6bc0 4cbd 4f84 03be
00000190: bff9 6ebd 640c bfbc 2f73 d0bb 080f c7bd
000001a0: 8e0a 47bd 923f 1cbd 5514 1cbd e4c5 8ebd
000001b0: f923 01bd 6598 2dbd 6be5 10be c5de 68bd
000001c0: 6dfe 70bd dd4e edbc 1004 e7bc 571a e7bd
000001d0: d6c4 04bc 4ad5 b6bd 97c8 a3bc 5bd4 9dbd
000001e0: 8d74 c6bd 33b8 75bd d613 0dbd f327 37bb
000001f0: b68a ccbc 099c 93bd 66b6 a4bd da06 12bd
-0.046342093 -0.029628554 -0.06966976 0.04476756 -0.049356595 -0.049922746 0.0070881415 -0.1109906
-0.021447515 -0.026758054 -0.07828707 -0.093564235 -0.05082077 -0.03747824 -0.07422867 -0.08759373
-0.08476444 -0.071393125 -0.029176153 0.004374974 -0.06262585 -0.04019356 -0.07191339 -0.10321225
-0.14106472 -0.045006808 -0.054188106 -0.04242538 -0.04262027 -0.05018086 -0.071272686 -0.078704014
-0.050382756 -0.08663621 -0.046391133 -0.10126359 -0.055852853 -0.054018646 -0.069575526 -0.065558754
-0.015922926 -0.054518815 -0.08641605 -0.032037973 -0.04734937 -0.053240646 -0.07191773 -0.10952418
-0.080508575 -0.08966261 0.013080436 -0.032715037 -0.056708552 -0.10770136 -0.017986877 -0.09702119
-0.1232275 -0.052655447 -0.06713441 -0.034987897 -0.05829961 -0.024621649 -0.06718061 -0.029678296
-0.036275055 -0.04736825 -0.055808835 -0.06754717 -0.061464787 -0.069308944 -0.061303437 -0.056532316
-0.043209337 -0.044104327 -0.06834644 -0.00446327 -0.04756013 -0.112347275 -0.079727374 -0.04604739
-0.04805459 0.016050631 -0.030029822 -0.09054038 -0.061496023 -0.047057614 0.007698032 -0.005265371
-0.026721116 -0.05907494 0.00037830469 -0.046043843 -0.0994855 -0.039353546 -0.044833116 -0.08136828
0.00016395489 -0.03336034 -0.04998819 -0.1284344 -0.058343645 -0.023321338 -0.006361387 -0.09719664
-0.04859405 -0.038146563 -0.038105328 -0.069713384 -0.031528447 -0.042381663 -0.14150016 -0.056853075
-0.05883639 -0.028968269 -0.02820018 -0.11284321 -0.00810357 -0.089274004 -0.01999311 -0.07706519
-0.09690199 -0.05999012 -0.034442745 -0.0027947396 -0.024968486 -0.07207496 -0.08042602 -0.035651065

weight f4 [128]
00000000: 6357 293f 0720 b83e dd0a 163f da89 0f3f
00000010: b2f8 0e3f e0b1 0a3e d206 483f 1ecf c63e
00000020: a668 4a3f 2ee0 123f 9537 173f 1e97 633f
00000030: beb3 b23e c34a 293f 9a9b d13e 428a 733f
00000040: cd80 8f3e 1afc 853f e47a 6e3f fbea 933e
00000050: f3d3 2a3f a783 283f 4f97 5b3f 1803 b93e
00000060: 4dc1 563e a6a9 533f 57a3 f43e fdfa f23e
00000070: 2d0a 0e3f daf6 c43e b5ff 8e3e 775a 7b3f
00000080: 57ee 2b3f c227 df3e e87a 143f 1cb4 613f
00000090: 0f03 6e3f 102b 0a3f 95c7 5b3e e142 7c3f
000000a0: d4ff c83e 0c89 163f c2d1 583e 817b 713f
000000b0: 2a90 a33e bb81 5d3f ceed 1f3e ae5e a63e
000000c0: e8b0 283f 0b3d 0d3f 0ff0 b33e 1c05 8d3e
000000d0: cdf5 2d3f 9229 493f 5f64 713f e7a3 953e
000000e0: 6f39 663f da90 b83e 5e41 4b3f 6c63 093f
000000f0: af4a ef3e b89c 623f 9bbf 4f3e ea10 163f
00000100: 798a 3d3f d535 603f 72f6 1b3f b0c5 da3e
00000110: 7f0f f63e 736c 323f 9857 6e3f f5a4 b43e
00000120: 3d8f 023f e436 423f faae 523f 717d 0d3f
00000130: eeaa 403f 2878 023f 3780 0d3f 8a1f 493f
00000140: 5c1f 073f f481 1d3f 629d a13e acb3 693f
00000150: d373 413f a67b 353f 024a 9b3e 53de c53e
00000160: 7d14 cb3e 60ba 803e d947 173f fa2c 173f
00000170: 0ef5 433f bec9 a83e b4b0 663f 2a59 6a3e
00000180: 2928 693f 1222 7f3f 0119 213f fc17 e13e
00000190: c2dd f73e d265 663f 729a 483e cbac 433f
000001a0: 970f 693f da11 1b3f 3101 5e3f 9266 223f
000001b0: 6c8b 653f 8c06 613e 8791 b03e a12b 033f
000001c0: a675 173f b877 0a3f 4009 6d3f 9f50 c33e
000001d0: 8db8 123f f1fe 533f dae6 3a3f f84f e63e
000001e0: c7e9 743e 99f4 303f aeb0 9c3e 5043 953e
000001f0: 9a6b 583f 94df 053f f6a4 2f3f 4c40 2f3f
0.66148967 0.35961935 0.58610326 0.5606972 0.5584823 0.13544416 0.78135407 0.38829893
0.7906593 0.5737332 0.59069186 0.8890246 0.34902757 0.661297 0.40939027 0.9513284
0.28027955 1.046756 0.93156266 0.28890213 0.6672966 0.65825886 0.85777754 0.36135173
0.20972176 0.8268074 0.47780868 0.47457114 0.55484277 0.38469583 0.27929464 0.98184913
0.6716055 0.4358502 0.5800004 0.8816545 0.9297342 0.5397196 0.21462853 0.9853955
0.3925768 0.58802867 0.21173766 0.94329077 0.31945926 0.8652608 0.15618059 0.3249411
0.6589494 0.5517127 0.35144088 0.2754296 0.6795319 0.78579056 0.9429378 0.2922661
0.89931387 0.36048013 0.7939662 0.5366733 0.46736667 0.88520384 0.20287935 0.5861956
0.7403942 0.8758214 0.6092292 0.4272895 0.48058698 0.6969673 0.9310241 0.35282102
0.50999814 0.75865006 0.82298243 0.55269533 0.7526082 0.50964594 0.55273765 0.7856375
0.52782226 0.6152642 0.31565386 0.9128978 0.7556736 0.708918 0.303299 0.38646182
0.3966407 0.25142193 0.59094006 0.59053004 0.765458 0.32966417 0.9011338 0.22885576
0.91076905 0.9966136 0.6292878 0.4396361 0.48411375 0.89999115 0.19590166 0.76435536
0.91039413 0.60574114 0.8672057 0.6343776 0.89665866 0.21975154 0.3448603 0.5123845
0.5916389 0.54088926 0.9259224 0.38147447 0.5731285 0.82810885 0.730085 0.44982886
0.23917304 0.69123226 0.30603546 0.29152918 0.84539187 0.5229428 0.68611085 0.68457484

bias f4 [128]
00000000: 79bf 12bc 8a70 21bd 6f2c 3dbd cac2 f53a
00000010: 580a f0bc a6aa edbc c69e 02bd 45ce bfbd
00000020: c5b0 5dbd a169 40bd 55bb 8fbd 93e5 3dbd
00000030: e740 1abd 7097 4ebd feae 1abd 25ac a9bd
00000040: b917 c2bd 45f4 4fbd 3fc7 8ebc 355d d3bc
00000050: 633b 23bd d190 90bd 3b58 73bd 1615 aabd
00000060: 441c c1bd 543f 89bc d329 8abc b6eb 67bd
00000070: 03a2 88bd 367e d4bc d9c6 5dbd bf03 87bd
00000080: d188 8dbd 1a06 34bd 58f8 a7bd 2a1e b1bd
00000090: 08f8 4ebd 1e81 9abd 3a62 fcbc 09c1 8ebd
000000a0: bcc7 08bd 86db d3bc 4c3e 5bbd e8de 39bd
000000b0: bbff d2bc 4452 1cbd 1b18 40bd c6de 67bd
000000c0: 0fd6 97bd c28f 7bbd 02dc 00bc 1e02 74bd
000000d0: 0e7e fdbc 4b6b 93bd 46e5 e63c a2b9 a0bd
000000e0: 2913 b0bd 5d85 59bd 9acd 4cbd 8f7f d0ba
000000f0: b8f6 41bd bddd 79bd 4667 74bd 31c1 00bd
00000100: 4f46 f0bc 8f04 27bd 8e39 52bd b3f1 36bd
00000110: 22f3 4dbd 1a2a 90bd 05b0 f0bc 430f 86bd
00000120: f36e 2abd 2aa1 1cbd 8768 2abd 0f74 5cbc
00000130: 28fd 02bd 0a54 a1bd b6b3 8ebd f54d 86bd
00000140: 6915 61bd 344b ae3c 97cd cebc 360d 6abd
00000150: 06aa adbc 30d4 c1bb f1e2 0c3b 1bc5 0c3c
00000160: 460c 56bd c6a2 b4bd 98b6 a9bb cb01 dabc
00000170: 7c3c 9cbd a19b 5cbd 2796 cebc e532 34bd
00000180: c90d 453c 2dca 1cbd b341 91bc b4f1 b2bd
00000190: 28e4 c0bc fd63 72bd 096c 0c3a 7eac a3bd
000001a0: e457 83bd afe6 13bc 2778 76bc f8d9 4bbd
000001b0: 10c7 d4bc a67e 0abd 88e0 b5bd d6ca 5ebc
000001c0: 5751 bfbd 5755 d6bc 2402 8abd b584 eebd
000001d0: a2a0 03bd 1477 2bbd 25e5 7abd 4ef5 07bd
000001e0: 0d5d 6bbd 64a0 98bd dbdb 59bb 7082 a2bc
000001f0: b32e 14bd 47f0 dcbc 6e98 dcbd b4a3 a6bc
-0.008956783 -0.039413966 -0.046184953 0.0018750068 -0.029301807 -0.029012036 -0.0318897 -0.09365515
-0.05412366 -0.046975736 -0.070181526 -0.046361517 -0.037659552 -0.05043739 -0.03776454 -0.08284787
-0.09477181 -0.050770063 -0.017428992 -0.02580128 -0.039851557 -0.070588715 -0.059410315 -0.08304803
-0.09429219 -0.01675383 -0.016865646 -0.056621276 -0.06671526 -0.025939088 -0.054144714 -0.065925114
-0.06910861 -0.04395113 -0.08201665 -0.086483315 -0.05052951 -0.075441584 -0.030808557 -0.06970412
-0.033393607 -0.025861513 -0.053526208 -0.045378596 -0.025756707 -0.038164392 -0.04689799 -0.056608938
-0.07413875 -0.061416395 -0.007864954 -0.05957233 -0.030943897 -0.07198199 0.028185498 -0.07847907
-0.085974045 -0.0531057 -0.050000764 -0.0015907156 -0.04735443 -0.06100248 -0.0596688 -0.03143424
-0.0293304 -0.04077583 -0.05132442 -0.044664096 -0.050280698 -0.0703928 -0.029380808 -0.0654588
-0.041609716 -0.038239636 -0.04160359 -0.013455405 -0.03197971 -0.07877357 -0.06967871 -0.06557838
-0.05495206 0.021276094 -0.025244517 -0.057141505 -0.021199238 -0.0059151873 0.0021497572 0.0085919155
-0.0522578 -0.08820109 -0.0051792376 -0.026612183 -0.07628724 -0.053859357 -0.025218083 -0.04399385
0.012027212 -0.038278747 -0.017731523 -0.087375075 -0.023546293 -0.059177388 0.00053566747 -0.07991885
-0.06413248 -0.009027167 -0.015043295 -0.049768418 -0.025973827 -0.033812188 -0.088807166 -0.013598165
-0.09341686 -0.02616374 -0.067386895 -0.116464056 -0.032135613 -0.04186161 -0.061253686 -0.033192925
-0.057461787 -0.07452467 -0.0033242616 -0.019837588 -0.03617735 -0.026970042 -0.10771261 -0.020341732
