3epochs_0.001learingrate_86batchsize.pt (torch_old, 716139 bytes, 28 tensors)

weight f4 [32, 3, 5, 5]
0.03586043 -0.09553104 -0.11495052 0.11260447 -0.046658542 0.0075125704 0.0086629335 -0.10441888
0.008436988 0.036036536 0.002234887 0.036404114 -0.078546375 -0.075138964 0.05929934 0.10803295
-0.030648928 0.06980407 -0.025200408 0.069839716 0.11098712 -0.04402398 -0.07507471 -0.06796293
-0.06954826 0.014500188 0.05955123 -0.100110486 -0.027865775 0.0943972 0.0742703 0.13148138
-0.04392438 0.07099481 0.114886634 0.03785877 0.109304324 -0.13379939 -0.13778533 0.06471843
-0.016657908 0.03355808 -0.07053724 -0.059498593 0.074337654 0.044219844 -0.07719864 -0.11308422
-0.06829562 0.11842478 0.038009334 0.058568023 0.04281808 -0.10388687 0.025058089 -0.049185358
-0.06456325 -0.09095603 -0.12109732 -0.029288832 -0.069566354 -0.087569356 -0.023393512 0.079523265
0.10644342 0.12101988 0.058118958 -0.07655124 -0.1345682 0.13506132 -0.018322907 0.09329951
0.0058077388 -0.063571036 0.14613266 -0.06922655 -0.0994314 -0.07181323 -0.049978364 0.053006925
0.062159438 -0.081434876 -0.033133335 0.1296673 0.14055292 -0.07095393 -0.05686766 0.13251425
0.0914831 -0.020570759 -0.0819318 0.027167266 0.0669293 0.044342794 -0.032917246 -0.13110138
0.07184863 -0.04815396 -0.09226491 -0.015297152 -0.059869327 0.0100102555 0.004585116 -0.039197754
0.06533837 0.0532627 -0.021721037 0.1390601 0.08364108 0.08294293 0.003845438 0.07578129
0.069314964 0.007570178 0.03456254 0.08649254 -0.029616944 -0.08095812 -0.0651963 -0.06285465
0.06501571 -0.047418993 -0.13588683 -0.11643772 -0.03189779 -0.08597545 -0.047862038 -0.05795463
-0.028265065 0.02081347 0.03849161 -0.042665534 -0.08432222 -0.043081876 -0.07654807 -0.061055016
0.04475756 0.115862414 -0.011246554 0.023374371 0.024490047 -0.11601257 0.039472077 -0.07913606
-0.15242039 -0.025513062 -0.064764395 0.043457307 -0.1319492 -0.08314823 0.12531185 0.08044369
0.010417672 -0.037468895 0.07377354 -0.08742605 0.069759436 0.07969225 0.061779574 0.09514514
0.05166552 -0.107598476 0.10694668 0.013760897 0.082599595 -0.15478244 -0.040986463 0.114415646
-0.019979589 0.101211235 -0.12610082 -0.007039315 0.05790524 0.07064472 -0.07473357 -0.011811844
-0.012882648 -0.06711399 -0.0032006064 0.0167764 0.04412935 -0.019736 -0.09250421 0.0026853436
0.11368937 0.07341449 -0.011628052 0.06579822 0.030971969 0.042971145 -0.031106096 -0.0144334
0.1164754 0.024490088 0.10037719 -0.06961709 0.049795177 -0.0935674 -0.011288799 0.08198647
-0.08942926 -0.088586934 0.099801295 0.027189327 -0.026368035 -0.061591316 0.062202275 0.07906423
-0.054030187 0.056150068 -0.14129788 0.06757838 0.03496906 0.12527539 -0.05470516 -0.10609218
0.011372219 -0.101159185 0.051807117 -0.038564634 -0.124807656 0.03726102 -0.016092097 -0.039714217
-0.07944095 -0.061424058 -0.044615246 -0.043148592 0.022968967 0.0072882 0.057965178 -0.100190826
-0.1307149 -0.077214524 0.016494054 0.013444555 0.06119136 -0.026104016 -0.028384924 0.060476955
0.016293537 0.040000673 -0.153242 -0.026858753 0.08385853 0.042902876 -0.16509555 -0.015946388
0.06730379 0.09553677 0.048757713 0.090817496 0.059418272 -0.11028489 -0.11072009 -0.03046704
00000000: 63e2 123d c7a5 c3bd 2e6b ebbd 2c9d e63d
00000010: 071d 3fbd 022c f63b faee 0d3c 91d9 d5bd
00000020: 4b3b 0a3c 0c9b 133d 2f77 123b 7b1c 153d
00000030: ecdc a0bd 75e2 99bd dde3 723d 6140 dd3d
00000040: 7613 fbbc 70f5 8e3d 1671 cebc 2008 8f3d
00000050: 374d e33d 7d52 34bd c5c0 99bd 2630 8bbd
00000060: 516f 8ebd 3292 6d3c feeb 733d ba06 cdbd
00000070: c446 e4bc 5253 c13d 071b 983d 0ea3 063e
00000080: 0dea 33bd ba65 913d af49 eb3d cc11 1b3d
00000090: f2da df3d b502 09be 9917 0dbe 198b 843d
000000a0: 2a76 88bc 3374 093d d475 90bd ccb4 73bd
000000b0: 573e 983d de1f 353d 521a 9ebd b398 e7bd
000000c0: 93de 8bbd b188 f23d adaf 1b3d 06e5 6f3d
000000d0: 0362 2f3d a4c2 d4bd 9f46 cd3c 9676 49bd
000000e0: bd39 84bd 2847 babd df01 f8bd 22ef efbc
000000f0: ce78 8ebd 9057 b3bd c0a3 bfbc 18dd a23d
00000100: 02ff d93d 45d9 f73d 250e 6e3d e6c6 9cbd
00000110: 3fcc 09be 844d 0a3e ec19 96bc d013 bf3d
00000120: d84e be3b 8831 82bd cda3 153e a6c6 8dbd
00000130: b1a2 cbbd d112 93bd 1db6 4cbd ca1d 593d
00000140: e59a 7e3d 54c7 a6bd d2b6 07bd 81c7 043e
00000150: 1bed 0f3e 4b50 91bd 10ee 68bd d1b1 073e
00000160: 7e5b bb3d 0284 a8bc dccb a7bd e38d de3c
00000170: 3b12 893d caa0 353d 3cd4 06bd 713f 06be
00000180: 6025 933d 163d 45bd 63f5 bcbd e8a0 7abc
00000190: 8a39 75bd 0e02 243c be3e 963b d38d 20bd
000001a0: 20d0 853d fd29 5a3d 51f0 b1bc c565 0e3e
000001b0: 044c ab3d fcdd a93d be03 7c3b 3933 9b3d
000001c0: 01f5 8d3d 410f f83b 7391 0d3d 0023 b13d
000001d0: 3c9f f2bc 5fcd a5bd a385 85bd f0b9 80bd
000001e0: f526 853d 6b3a 42bd eb25 0bbe e676 eebd
000001f0: 42a7 02bd e613 b0bd fc0a 44bd d661 6dbd
00000200: 238c e7bc 0381 aa3c 61a9 1d3d 0ec2 2ebd
00000210: 21b1 acbd 9f76 30bd 3cc5 9cbd d314 7abd
00000220: b453 373d 4649 ed3d 7743 38bc 9c7b bf3c
00000230: 5a9f c83c 0098 edbd 79ad 213d 1612 a2bd
00000240: 1714 1cbe c500 d1bc 32a3 84bd 4a00 323d
00000250: b11d 07be 9f49 aabd c051 003e a9bf a43d
00000260: e2ae 2a3c fc78 19bd 9516 973d 6e0c b3bd
00000270: 09de 8e3d b135 a33d 940c 7d3d 75db c23d
00000280: 399f 533d 975c dcbd dc06 db3d 6375 613c
00000290: fa29 a93d 4a7f 1ebe 6ce1 27bd c052 ea3d
000002a0: 3cac a3bc d647 cf3d 9320 01be 0eaa e6bb
000002b0: 0c2e 6d3d 2eae 903d ea0d 99bd 7786 41bc
000002c0: be11 53bc 0f73 89bd 44c1 51bb a96e 893c
000002d0: fac0 343d 64ad a1bc d972 bdbd 97fc 2f3b
000002e0: f9d5 e83d 565a 963d 9683 3ebc 38c1 863d
000002f0: edb8 fd3c 8302 303d 36d2 febc 117a 6cbc
00000300: a88a ee3d 709f c83c 8e92 cd3d 6893 8ebd
00000310: 07f6 4b3d 44a0 bfbd a8f4 38bc 86e8 a73d
00000320: b026 b7bd 116d b5bd 9f64 cc3d 27bc de3c
00000330: c701 d8bc 2d47 7cbd d0c7 7e3d 6dec a13d
00000340: c24e 5dbd 9dfd 653d 64b0 10be 8966 8a3d
00000350: b83b 0f3d 3148 003e 8512 60bd db46 d9bd
00000360: 8b52 3a3c 8c2c cfbd b333 543d f3f5 1dbd
00000370: 289b ffbd 039f 183d 93d3 83bc 60ab 22bd
00000380: f0b1 a2bd cb97 7bbd 7abe 36bd 94bc 30bd
00000390: 6a29 bc3c dad1 ee3b e56c 6d3d d930 cdbd
000003a0: 20da 05be a622 9ebd 8a1e 873c 8d46 5c3c
000003b0: cba3 7a3d 17d8 d5bc 8087 e8bc afb6 773d
000003c0: 067a 853c bfd7 233d 79eb 1cbe e306 dcbc
000003d0: 05be ab3d edba 2f3d cf0e 29be 00a2 82bc
000003e0: 92d6 893d c8a8 c33d 2bb6 473d 86fe b93d
000003f0: 9360 733d 0bdd e1bd 37c1 e2bd 0496 f9bc

bias f4 [32]
-0.045050044 -0.079790555 0.025063349 0.033423584 -0.004836409 -0.08202661 -0.11302125 -0.02086849
-0.087251306 0.117852956 -0.03578368 -0.01590198 0.067641996 0.07125624 -0.094008446 -0.006478536
0.011473696 -0.020513423 -0.10694137 -0.0066229114 0.10842362 -0.05647303 -0.0050174873 -0.029073091
0.027060874 0.017589023 0.09446821 -0.07331193 0.017397538 -0.057391625 -0.09978023 -0.076447584
00000000: 6586 38bd 3b69 a3bd a751 cd3c 2be7 083d
00000010: bd7a 9ebb 91fd a7bd af77 e7bd 65f4 aabc
00000020: d0b0 b2bd e45c f13d e891 12bd df44 82bc
00000030: e387 8a3d cbee 913d 8087 c0bd e649 d4bb
00000040: 2bfc 3b3c c40b a8bc 1404 dbbd 0205 d9bb
00000050: 340d de3d 4450 67bd bc69 a4bb b12a eebc
00000060: c4ae dd3c db16 903c 8d78 c13d 9124 96bd
00000070: 4885 8e3c 7b13 6bbd 9459 ccbd 8d90 9cbd

weight f4 [32]
0.28813368 0.16907528 0.7131664 0.50819844 0.5868901 0.13202901 0.5300718 0.39751315
0.6548738 0.33955306 0.8984325 0.57120115 0.682843 0.88780427 0.2346527 0.14065924
0.24094333 0.7407409 0.5667968 0.622493 0.9077618 0.72977287 0.5919888 0.07212175
0.39892864 0.4577417 0.20001392 0.77501404 0.47982234 0.6243922 0.24746259 0.91688037
00000000: 4286 933e 1222 2d3e 1392 363f 4b19 023f
00000010: 6e3e 163f 9d32 073e c9b2 073f d886 cb3e
00000020: cfa5 273f e6d9 ad3e acff 653f 3d3a 123f
00000030: cdce 2e3f 2447 633f cc48 703e fa08 103e
00000040: d9b9 763e 32a1 3d3f 9819 113f b45b 1f3f
00000050: 1463 683f 65d2 3a3f 948c 173f 91b4 933d
00000060: 6040 cc3e 1f5d ea3e 73d0 4c3e 5267 463f
00000070: 46ab f53e 2bd8 1f3f d566 7d3e acb8 6a3f

bias f4 [32]
-0.025773333 -0.00052693696 -0.025596252 -0.0089616375 -0.012666075 -0.009735008 -0.0065076584 -0.037981354
0.0055476795 0.012919849 -0.027343703 0.009339504 -0.033628877 -0.022375682 -0.013246459 -0.009869491
-0.051490933 -0.0043026293 -0.11160782 0.00845305 0.0020100328 -0.017702153 -0.093149 -0.039054926
0.0011347479 -0.015462736 -0.028793717 -0.08694089 0.025037335 -0.011054504 -0.01882793 -0.06160245
00000000: 9922 d3bc 2422 0aba 3baf d1bc d5d3 12bc
00000010: 5e85 4fbc 957f 1fbc 323e d5bb 5692 1bbd
00000020: 4fc9 b53b c6ad 533c e7ff dfbc b804 193c
00000030: 6fbe 09bd 354d b7bc ad07 59bc a5b3 21bc
00000040: 28e8 52bd 12fd 8cbb a492 e4bd a97e 0a3c
00000050: c1ba 033b 1b04 91bc e7c4 bebd 0ff8 1fbd
00000060: d2bb 943a 6a57 7dbc cde0 ebbc 110e b2bd
00000070: 191b cd3c f31d 35bc 083d 9abc da52 7cbd

running_mean f4 [32]
0.11726373 0.5795063 -0.32167304 0.79726386 0.33039647 -0.07673226 0.46179834 0.16001971
-0.1646241 0.85283804 0.8546017 0.2569674 -0.015334658 0.13671419 0.41538626 -0.16608903
-0.081020534 0.18339153 -0.34314972 0.711286 0.054528933 0.21846308 -0.38338724 -0.13458042
0.34983516 0.40950775 0.2207584 -0.76610595 -0.074200176 0.41338372 -0.16823286 -0.09794402
00000000: f727 f03d 865a 143f 54b2 a4be 7c19 4c3f
00000010: ba29 a93e ce25 9dbd d570 ec3e 35dc 233e
00000020: 3893 28be 9853 5a3f 2dc7 5a3f 3b91 833e
00000030: 383e 7bbc cefe 0b3e 82ad d43e 3e13 2abe
00000040: 18ee a5bd fdca 3b3e 52b1 afbe d716 363f
00000050: bb59 5f3d c9b4 5f3e 554b c4be 73cf 09be
00000060: 981d b33e 00ab d13e 7d0e 623e 851f 44bf
00000070: 43f6 97bd 08a7 d33e 3c45 2cbe e096 c8bd

running_var f4 [32]
0.16693287 0.3105963 0.38964593 0.5196585 0.4134998 0.13329162 0.24851084 0.15563537
0.1071864 0.43984014 0.6550817 0.36340246 0.10568148 0.36085612 0.42238468 0.36866018
0.23965798 0.13885637 0.11683895 0.4653073 0.16030513 0.23388828 0.4958768 0.060379226
0.28190112 0.25038338 0.1215649 0.29210955 0.30121338 0.3749899 0.36139593 0.07420487
00000000: 73f0 2a3e 7a06 9f3e ac7f c73e 5708 053f
00000010: 3fb6 d33e 997d 083e a079 7e3e e15e 1f3e
00000020: 8b84 db3d ba32 e13e 6fb3 273f e30f ba3e
00000030: 886f d83d 22c2 b83e ce42 d83e 07c1 bc3e
00000040: e768 753e 5d30 0e3e 4249 ef3d c23c ee3e
00000050: 0727 243e 6980 6f3e 90e3 fd3e 3550 773d
00000060: 5855 903e 4032 803e 05f7 f83d 628f 953e
00000070: a438 9a3e adfe bf3e e308 b93e b9f8 973d

weight f4 [32, 32, 5, 5]
-0.004346 0.033415932 -0.030108487 -0.018024744 0.016239464 0.019088358 -0.0067875334 0.029937532
-0.009854556 0.0053088944 0.04940761 0.025065044 -0.016655723 0.013932085 0.018395182 0.047254644
0.06031403 0.023592057 -0.013489888 0.020348633 0.06501898 -0.004345288 -0.00459623 0.019993301
-0.0010650435 -0.014362091 -0.046928797 0.021502541 0.027999016 0.039104443 -0.049586065 -0.018081898
0.012450634 0.008545072 -0.04906363 -0.05901586 -0.021998188 -0.007942501 -0.038549006 0.021772422
-0.028616196 -0.006649139 -0.05287139 -0.013710072 0.020878963 0.00805415 -0.02249775 0.018686246
0.00901793 -0.029143604 -0.028012482 0.010070079 0.019329557 0.01455555 -0.041050453 -0.041131858
0.036282003 -0.0028663913 -0.03948846 -0.0055191056 0.004534203 0.0029748927 -0.010721994 -0.03790238
0.016519962 0.017846065 0.011431054 0.008272034 0.02087549 -0.05045015 -0.0044094254 0.027888233
-0.010240974 -0.00025379704 -0.02374739 0.035157267 0.022161132 0.005509895 0.006924859 -0.013191172
0.014744948 -0.017816681 -0.033067342 -0.041962117 -0.03627594 0.046140913 0.02035872 0.0010674663
-0.011250665 0.022417858 0.006739002 -0.035289288 -0.013182825 -0.06295545 -0.010025447 -0.025180897
0.014304652 -0.053007856 -0.048395555 -0.03942456 0.0051791426 -0.0049929963 -0.017778344 0.019204905
-0.008069621 -0.009144249 0.040285513 -0.020201925 -0.016079556 0.0088308565 0.021075804 0.021832228
-0.008295747 -0.033493828 -0.024126174 0.00800637 0.026972676 0.006080539 -0.025319079 0.007052138
0.008479443 0.013250681 -0.037800714 -0.06438611 -0.03522883 -0.054119177 0.023391979 -0.019124232
-0.02374202 0.067280814 -0.014770917 0.010692747 0.023107607 -0.05325672 0.036321696 -0.001027804
-0.03480037 -0.0098213265 0.018963741 0.08464763 0.009997257 -0.012174871 -0.0040543326 0.01832655
0.031899665 0.04803237 -0.012994505 -0.0064613596 -0.023877354 -0.03512023 -0.015985826 0.023976695
-0.005973712 -0.016873145 -0.028462723 -0.022576649 0.015594327 -0.0060796095 -0.03207803 -0.043454725
-0.038638685 0.056490406 0.01864528 -0.011646334 -0.04006038 0.035769597 0.024077225 -0.018227668
0.0059315697 -0.0370475 -0.01123904 0.050950088 0.010403067 -0.022764219 -0.012969081 0.020407166
0.012346821 -0.06647953 0.03392147 -0.008356102 0.01956776 -0.0013349144 0.005747818 0.008048404
-0.03655936 0.017134272 0.044877786 0.0051086284 -0.01706535 -0.038949553 0.028722988 -0.027782239
-0.012029234 -0.06573701 -0.014349426 -0.0045259446 -0.050456017 -0.015043707 0.0014114605 0.028046759
-0.029170766 -0.024423676 0.035543356 0.04607384 -0.0036572788 -0.04382925 -0.0011793233 0.018805683
0.03657307 -0.014962555 -0.021487558 0.0010245771 0.0006544903 -0.07135462 -0.045500524 -0.0343657
-0.030996934 -0.008229499 -0.06960177 0.018034885 -0.020542407 -0.038862646 -0.037711605 -0.028933372
-0.008893126 -0.033832654 0.002131804 -0.048881065 -0.06299221 -0.058479354 0.007751083 0.0021062004
-0.024892919 -0.016043589 -0.03672573 -0.014503203 -0.038581237 -0.049165767 0.0023634152 0.008077157
-0.017537726 -0.03539854 -0.039882246 -0.06048246 -3.792165e-05 0.043905843 -0.05232003 -0.03171195
-0.061573043 -0.03806056 0.021987982 -0.015493991 0.0079560485 -0.013556331 -0.010476336 -0.036954835
00000000: e468 8ebb 25df 083d 13a6 f6bc a1a8 93bc
00000010: a008 853c 305f 9c3c f569 debb 8e3f f53c
00000020: 0175 21bc 3cf6 ad3b a25f 4a3d 3555 cd3c
00000030: 9571 88bc 6643 643c 7eb1 963c 168e 413d
00000040: d80b 773d 2144 c13c b104 5dbc 2db2 a63c
00000050: ac28 853d eb62 8ebb f99b 96bb fec8 a33c
00000060: ee98 8bba fa4e 6bbc 6938 40bd 1926 b03c
00000070: 315e e53c fb2b 203d c21a 4bbd 7d20 94bc
00000080: befd 4b3c a100 0c3c f2f6 48bd 9dba 71bd
00000090: 8b35 b4bc 4421 02bc 90e5 1dbd 145c b23c
000000a0: 836c eabc 05e1 d9bb ac8f 58bd 36a0 60bc
000000b0: 5c0a ab3c 8ef5 033c 344d b8bc e613 993c
000000c0: f1bf 133c 91be eebc 6f7a e5bc f9fc 243c
000000d0: 0559 9e3c 677a 6e3c 8524 28bd e179 28bd
000000e0: 709c 143d 11da 3bbb a7be 21bd 9dd9 b4bb
000000f0: a793 943b 6bf6 423b 4dab 2fbc 873f 1bbd
00000100: df54 873c e931 923c 5149 3b3c 6d87 073c
00000110: 1303 ab3c d1a4 4ebd f17c 90bb dd75 e43c
00000120: c2c9 27bc 1010 85b9 e389 c2bc 1101 103d
00000130: 438b b53c 598c b43b ede9 e23b c91f 58bc
00000140: cb94 713c 4af4 91bc 9f71 07bd 78e0 2bbd
00000150: 1496 14bd 41fe 3c3d 55c7 a63c 3aea 8b3a
00000160: b654 38bc a8a5 b73c d9d2 dc3b 808b 10bd
00000170: c7fc 57bc c9ee 80bd c641 24bc 2b48 cebc
00000180: 0f5e 6a3c c41e 59bd 6b3a 46bd a67b 21bd
00000190: ccb5 a93b 4a9c a3bb e4a3 91bc 9b53 9d3c
000001a0: 7236 04bc c3d1 15bc 6c02 253d 827e a5bc
000001b0: 46b9 83bc 4caf 103c 2aa7 ac3c 80d9 b23c
000001c0: e3ea 07bc d330 09bd 41a4 c5bc 262d 033c
000001d0: cdf5 dc3c 423f c73b f569 cfbc 9f15 e73b
000001e0: 5ded 0a3c 6219 593c ecd4 1abd dddc 83bd
000001f0: 1b4c 10bd 12ac 5dbd 89a0 bf3c 6caa 9cbc
00000200: a07e c2bc 86ca 893d b701 72bc a230 2f3c
00000210: 2a4c bd3c b823 5abd 0fc6 143d 61b7 86ba
00000220: d58a 0ebd a1e9 20bc d959 9b3c bd5b ad3d
00000230: 89cb 233c 1c79 47bc 35da 84bb 9021 963c
00000240: 39a9 023d 97bd 443d e8e6 54bc d0b9 d3bb
00000250: 719a c3bc 3bda 0fbd b5f4 82bc c66a c43c
00000260: 21bf c3bb 8d39 8abc a82a e9bc aaf2 b8bc
00000270: 597f 7f3c 7637 c7bb 4164 03bd 95fd 31bd
00000280: 9943 1ebd 7c62 673d fcbd 983c 44d0 3ebc
00000290: 5a16 24bd 2483 123d 9a3d c53c 3152 95bc
000002a0: 9d5d c23b 1fbf 17bd f323 38bc 0ab1 503d
000002b0: a071 2a3c 077c babc 457c 54bc ee2c a73c
000002c0: 524a 4a3c 6b26 88bd 3df1 0a3d 08e8 08bc
000002d0: 914c a03c 4bf8 aeba 3158 bc3b 74dd 033c
000002e0: 44bf 15bd 2c5d 8c3c c5d1 373d 4866 a73b
000002f0: a2cc 8bbc 9189 1fbd 794c eb3c 9497 e3bc
00000300: 4416 45bc 20a1 86bd db19 6bbc 604e 94bb
00000310: f8aa 4ebd e179 76bc c100 b93a 51c2 e53c
00000320: 88f7 eebc 2914 c8bc e995 113d ecb7 3c3d
00000330: f5ae 6fbb 4d86 33bd 8693 9aba 600e 9a3c
00000340: a5cd 153d 8125 75bc ad06 b0bc 1a4b 863a
00000350: 1a92 2b3a 5f22 92bd c25e 3abd 0cc3 0cbd
00000360: 48ed fdbc 05d5 06bc 5f8b 8ebd e5bd 933c
00000370: 8d48 a8bc 702e 1fbd 7c77 1abd ae05 edbc
00000380: 79b4 11bc 1c94 0abd bcb5 0b3b 8337 48bd
00000390: 0f02 81bd 0c88 6fbd ccfc fd3b 2e08 0a3b
000003a0: 3cec cbbc d86d 83bc b86d 16bd d89e 6dbc
000003b0: 5c07 1ebd 0b62 49bd 87e3 1a3b 0d56 043c
000003c0: 47ab 8fbc 0ffe 10bd 915b 23bd 75bc 77bd
000003d0: 100e 1fb8 9dd6 333d 874d 56bd 64e4 01bd
000003e0: 0434 7cbd 64e5 1bbd 2420 b43c 82da 7dbc
000003f0: 165a 023c 601b 5ebc f0a4 2bbc f45d 17bd

bias f4 [32]
-0.01866165 0.026642134 0.012163086 0.008731143 -0.04965785 0.020504832 -0.00958562 -0.017674524
-0.0017211458 -0.028449433 0.030760117 -0.06828736 -0.014413291 0.009147389 -0.015747169 -0.03307106
-0.02339317 -0.039794527 0.010446634 -0.036208462 -0.008875545 -0.0011722957 -0.008102552 0.0125674615
-0.02996943 0.0028273736 -0.040482935 -0.0021732757 0.004703358 -0.008889782 0.002601614 0.021761417
00000000: 51e0 98bc 9b40 da3c ae47 473c 110d 0f3c
00000010: 0866 4bbd c0f9 a73c 010d 1dbc 2aca 90bc
00000020: 1298 e1ba c90e e9bc a4fc fb3c 3eda 8bbd
00000030: b925 6cbc eede 153c 3500 81bc 8575 07bd
00000040: 09a3 bfbc 96ff 22bd 5c28 2b3c 534f 14bd
00000050: bc6a 11bc b7a7 99ba 91c0 04bc c1e7 4d3c
00000060: 7382 f5bc 754b 393b 6fd1 25bd 846d 0ebb
00000070: a01e 9a3b 73a6 11bc d77f 2a3b 0045 b23c

weight f4 [32]
0.49571586 0.42968914 0.39200845 0.13752192 0.10213046 0.26844737 0.5875882 0.45083046
0.44663522 0.3167818 0.39726257 0.32341173 0.28673458 0.55853236 0.6745337 0.93055093
0.16219284 0.29676056 0.89097935 0.56512874 0.8073266 0.6666115 0.3147344 0.7044113
0.20443098 0.43472263 0.6710741 0.7523744 0.12580629 0.17007028 0.28909424 0.07325177
00000000: 78ce fd3e 3700 dc3e 55b5 c83e 8cd2 0c3e
00000010: c629 d13d ef71 893e 2e6c 163f 40d3 e63e
00000020: 5fad e43e 3931 a23e 0066 cb3e 3996 a53e
00000030: e0ce 923e fafb 0e3f 3eae 2c3f 9638 6e3f
00000040: e115 263e 00f1 973e 3917 643f 47ac 103f
00000050: f5ac 4e3f 0da7 2a3f de24 a13e 4d54 343f
00000060: 5b56 513e f793 de3e 83cb 2b3f 9c9b 403f
00000070: 5dd3 003e e726 2e3e 2904 943e 0605 963d

bias f4 [32]
-0.048252407 -0.043460082 -0.04746675 -0.036916267 -0.039288983 -0.026437283 0.011929319 -0.044833925
-0.018882554 0.007437866 -0.04030641 -0.07271877 -1.5967897e-05 -0.007993563 -0.033470817 -0.03932311
-0.02654633 -0.01018491 -0.037395384 -0.052842084 -0.0438449 -0.04646793 -0.013170981 -0.049032234
-0.059486996 -0.04172568 -0.068388864 -0.051588517 -0.056509104 -0.017858347 -0.04452728 0.009245426
00000000: 51a4 45bd 3303 32bd 7f6c 42bd 8335 17bd
00000010: 7ced 20bd 0093 d8bc 3173 433c c7a3 37bd
00000020: 96af 9abc 58b9 f33b 5618 25bd 94ed 94bd
00000030: ccf2 85b7 6ff7 02bc b218 09bd 4511 21bd
00000040: b077 d9bc 9cde 26bc e72b 19bd f170 58bd
00000050: b696 33bd 2855 3ebd 19cb 57bc 06d6 48bd
00000060: a3a8 73bd 8ce8 2abd 760f 8cbd 7b4e 53bd
00000070: 1776 67bd ab4b 92bc 3d62 36bd 217a 173c

running_mean f4 [32]
-0.8947484 0.3962882 0.047329996 -1.1393285 0.22076944 0.19585541 0.41749644 -0.66753924
-0.22035836 -0.39397174 -1.018534 0.04610784 -0.568187 0.35106188 -0.6615031 0.08689016
-0.62849385 -0.49501166 0.20022504 -0.35394958 -0.67755836 -0.807744 0.69219965 -0.19326265
-0.29346067 -0.50053936 -0.67297995 -0.116992556 -0.8162583 -0.36358422 0.17790379 -0.603236
00000000: 3b0e 65bf 49e6 ca3e 19dd 413d 84d5 91bf
00000010: 6211 623e 528e 483e 18c2 d53e dae3 2abf
00000020: 9fa5 61be aab6 c9be 525f 82bf 93db 3c3d
00000030: b474 11bf 62be b33e 4458 29bf 78f3 b13d
00000040: f9e4 20bf 2b72 fdbe cb07 4d3e e138 b5be
00000050: 7774 2dbf 50c8 4ebf ff33 313f a5e6 45be
00000060: 7a40 96be 5923 00bf 6a48 2cbf cb99 efbd
00000070: 4ef6 50bf b627 babe 692c 363e ad6d 1abf

running_var f4 [32]
0.26185423 0.41137928 0.45363653 0.39343908 0.3599676 0.3437329 0.80109024 0.33626014
0.2831924 0.4833753 0.4831978 0.31243664 0.8152003 0.57076967 0.58694446 0.46712303
0.3503005 1.2381915 0.8426004 0.40774614 0.33053896 0.42507306 0.6051126 0.4926354
0.60007745 0.3811056 0.381604 0.49573484 0.33642828 0.83329797 0.72331715 0.6485167
00000000: c211 863e 4ea0 d23e 0c43 e83e d970 c93e
00000010: ac4d b83e c2fd af3e 4014 4d3f 4a2a ac3e
00000020: 98fe 903e f87c f73e b465 f73e b2f7 9f3e
00000030: f8b0 503f f61d 123f fe41 163f c02a ef3e
00000040: 965a b33e 0f7d 9e3f a9b4 573f 1ac4 d03e
00000050: 673c a93e 2da3 d93e a9e8 1a3f b53a fc3e
00000060: ad9e 193f 4620 c33e 9961 c33e f5d0 fd3e
00000070: 5440 ac3e 0453 553f 502b 393f 3105 263f

weight f4 [64, 32, 3, 3]
0.07610848 -0.014465741 -0.003869067 0.028348645 0.016262373 -0.062236954 -0.029523367 -0.07350219
-0.05465247 -0.054709643 0.003780582 -0.018801367 -0.052496854 -0.054671515 0.06416597 0.033498533
0.05049177 -0.084626034 -0.017050471 -0.10429589 -0.05165845 0.12509103 0.017746301 -0.027639393
0.04271567 0.030256696 0.020036744 -0.11473871 -0.06436329 0.021034941 0.10634128 0.161618
0.00085243996 0.04392948 0.05496157 0.045338012 -0.02077259 -0.08089879 -0.03345651 0.051686194
0.034651402 -0.122372106 -0.041253626 -0.018016668 -0.03785392 0.02036713 -0.031775907 0.058327552
-0.047442827 -0.06848864 -0.05526382 -0.01608626 -0.007849429 0.012548222 0.074089624 -0.030915657
-0.07076335 -0.03545166 -0.07151718 -0.12710652 -0.025802298 0.057297345 -0.033485427 -0.013151473
0.078622974 -0.005464017 -0.017631793 0.022277113 -0.012570776 -0.028295374 -0.0046967487 -0.11262029
0.053272247 0.042183746 0.026288265 0.032993987 0.021819014 -0.011839026 -0.028521355 -0.053379472
-0.062522344 0.015049632 0.006489694 -0.050590254 -0.020419596 -0.008886603 0.015323245 0.043406438
0.036092576 -0.0012413774 0.016975889 0.013016566 -0.013509776 -0.010782038 0.018055 -0.018141015
-0.06307485 -0.030100388 -0.0018660175 -0.011386489 0.077697754 0.06710405 0.029037155 -0.022822283
-0.06533504 0.018729156 -0.036505498 -0.07440199 0.068844855 0.016269516 -0.04425331 -0.049062524
-0.049694624 -0.029037299 -0.008241941 0.00982098 -0.047382083 -0.0052498057 -0.058036234 -0.027378106
-0.040506523 0.027618328 0.008316786 -0.035559915 -0.07013444 -0.03280211 -0.08581557 -0.0150184855
0.045949522 0.052047037 -0.08758098 -0.08160743 0.07237882 0.15531687 0.06010108 0.03924438
0.03929819 -0.047507804 -0.074413225 0.032293133 -0.017349072 0.007200731 -0.042790048 -0.09899374
-0.037726074 -0.033038314 0.025943121 -0.03677853 -0.030136634 -0.014901971 0.003243544 -0.023838108
-0.061204217 -0.055933792 -0.08872085 -0.05172138 -0.024056492 -0.056123838 -0.040651184 0.038896944
0.094032235 0.097522445 -0.02967872 0.05507187 0.044449314 -0.0003953598 -0.030842245 -0.0689656
-0.029343937 -0.009579595 -0.08926492 -0.004584466 0.024323625 0.08161345 -0.020038813 0.036275525
0.017199874 0.029195718 0.04826781 -0.10455135 0.056743126 0.09593808 0.051637564 -0.07253773
-0.05193577 -0.048215028 0.02281123 0.06431674 0.007840048 -0.03595689 -0.058248702 -0.03251143
0.030838562 0.050186858 0.0044137053 -0.022682296 -0.045933694 -0.064640276 0.071507 0.009784306
0.012930247 0.0038560694 -0.0064996597 -0.13309805 -0.029633345 -0.09216292 -0.017719526 -0.063739255
0.000815614 -0.007922305 -0.025291251 0.025110148 0.026363753 -0.050714776 0.02085489 0.06390221
-0.011995883 -0.06910539 -0.046399567 -0.0050125066 0.03041745 -0.052242085 -0.04620772 0.033311687
-0.061573815 0.023810653 0.06838201 -0.0071239555 -0.050013047 -0.079665214 -0.07930094 0.03503957
0.119753726 0.03264258 0.004503775 -0.05407492 0.00047252115 0.00018878338 0.06833098 -0.043085355
0.054935586 0.025599742 -0.09223944 0.00045356664 0.055823922 0.04549367 -0.006186577 0.004641814
-0.049183626 -0.015804991 -0.04988926 -0.10385319 -0.06583152 0.01917454 0.08294262 0.04936929
00000000: c3de 9b3d b701 6dbc 2c90 7dbb 6b3b e83c
00000010: ab38 853c 2dec 7ebd fdda f1bc 5188 96bd
00000020: 45db 5fbd 3817 60bd a4c3 773b 5305 9abc
00000030: f106 57bd 3def 5fbd 7369 833d c235 093d
00000040: 75d0 4e3d 6a50 adbd 6ead 8bbc 1599 d5bd
00000050: d097 53bd dd17 003e b160 913c 026c e2bc
00000060: a0f6 2e3d e4dc f73c 1924 a43c 21fc eabd
00000070: e7d0 83bd 7851 ac3c 75c9 d93d 307f 253e
00000080: 4776 5f3a 66ef 333d 621f 613d 5ab4 393d
00000090: 472b aabc 44ae a5bd b209 09bd e7b4 533d
000000a0: a1ee 0d3d 3a9e fabd 90f9 28bd b197 93bc
000000b0: b60c 1bbd f8d8 a63c 7427 02bd dfe8 6e3d
000000c0: 6953 42bd c643 8cbd 515c 62bd 55c7 83bc
000000d0: e49a 00bc 0f97 4d3c 4dbc 973d d542 fdbc
000000e0: 60ec 90bd c335 11bd 9977 92bd 3628 02be
000000f0: 575f d3bc 9fb0 6a3d 0428 09bd 4779 57bc
00000100: 1505 a13d 7f0b b3bb 8d70 90bc 7e7e b63c
00000110: a8f5 4dbc b3cb e7bc 2fe7 99bb 77a5 e6bd
00000120: 0034 5a3d ddc8 2c3d 7d5a d73c b424 073d
00000130: cabd b23c 79f8 41bc 9ea5 e9bc 6fa4 5abd
00000140: b70b 80bd bb92 763c 80a7 d43b ba37 4fbd
00000150: ff46 a7bc 1d99 11bc 590e 7b3c f3ca 313d
00000160: cfd5 133d b7b5 a2ba 0511 8b3c 6f43 553c
00000170: 1c58 5dbc 25a7 30bc 14e8 933c 779c 94bc
00000180: 632d 81bd 1795 f6bc 2895 f4ba 658e 3abc
00000190: 0020 9f3d d96d 893d 54df ed3c ccf5 babc
000001a0: 61ce 85bd e36d 993c ca86 15bd 1260 98bd
000001b0: 88fe 8c3d a647 853c f542 35bd c9f5 48bd
000001c0: 978c 4bbd a1df edbc 3509 07bc 2de8 203c
000001d0: b713 42bd 9006 acbb 67b7 6dbd 0d48 e0bc
000001e0: 2bea 25bd d53f e23c 2143 083c 46a7 11bd
000001f0: a5a2 8fbd 815b 06bd 13c0 afbd 1810 76bc
00000200: 9135 3c3d 462f 553d a85d b3bd cc21 a7bd
00000210: 593b 943d 630b 1f3e 8d2c 763d b7be 203d
00000220: 24f7 203d 8b97 42bd f665 98bd ce45 043d
00000230: a41f 8ebc 1cf4 eb3b 9e44 2fbd 3bbd cabd
00000240: a886 1abd 2f53 07bd ab86 d43c 15a5 16bd
00000250: 1ae1 f6bc 6627 74bc a391 543b 2348 c3bc
00000260: 46b1 7abd d51a 65bd 47b3 b5bd ccd9 53bd
00000270: 1f12 c5bc 1ce2 65bd db81 26bd 6752 1f3d
00000280: f993 c03d d9b9 c73d c920 f3bc 0b93 613d
00000290: 7c10 363d 4b48 cfb9 e0a8 fcbc d63d 8dbd
000002a0: b262 f0bc bcf3 1cbc 87d0 b6bd 4a39 96bb
000002b0: 5742 c73c f424 a73d 7028 a4bc a595 143d
000002c0: c0e6 8c3c dc2b ef3c 78b4 453d 051f d6bd
000002d0: 7b6b 683d 2f7b c43d e981 533d a98e 94bd
000002e0: 9aba 54bd 1f7d 45bd 9ede ba3c 7fb8 833d
000002f0: 8b73 003c 8847 13bd 3196 6ebd b52a 05bd
00000300: 27a1 fc3c bc90 4d3d d8a0 903b 39d0 b9bc
00000310: f824 3cbd 1f62 84bd 4372 923d 5b4e 203c
00000320: 63d9 533c 1cb6 7c3b 19fb d4bb db4a 08be
00000330: a1c1 f2bc eabf bcbd 8a28 91bc ba89 82bd
00000340: eece 553a 8ecc 01bc 992f cfbc ccb3 cd3c
00000350: ccf8 d73c 4cba 4fbd e0d7 aa3c 29df 823d
00000360: 618a 44bc 2087 8dbd 790d 3ebd f43f a4bb
00000370: 042e f93c ccfb 55bd 4e44 3dbd d671 083d
00000380: d334 7cbd 8f0e c33c de0b 8c3d 1270 e9bb
00000390: 7bda 4cbd 8427 a3bd 8868 a2bd a785 0f3d
000003a0: 7141 f53d 3ab4 053d 6794 933b aa7d 5dbd
000003b0: b7bc f739 27f4 4539 1df1 8b3d 457a 30bd
000003c0: 2304 613d 8db6 d13c 08e8 bcbd afcc ed39
000003d0: a0a7 643d 9257 3a3d c5b8 cabb 5c1a 983b
000003e0: c574 49bd 7879 81bc ae58 4cbd fbb0 d4bd
000003f0: add2 86bd ed13 9d3c d2dd a93d 7437 4a3d

bias f4 [64]
-0.06368939 -0.002425019 0.003824115 0.023406642 0.0074685044 0.00080815994 -0.061815754 0.018522775
-0.016442604 -0.045726597 -0.032147475 -0.06532769 -0.029253123 0.0074559157 0.027596112 0.03419716
-0.044152867 -0.032153793 -0.021458894 0.03275139 -0.00034925592 -0.047115102 0.053321045 0.029530236
-0.05416249 -0.025463616 -0.0525582 -0.050583422 0.01564215 -0.02709772 -0.029140295 0.044523604
-0.0023992162 -0.0018568722 -0.0584395 0.04217397 0.042720493 0.03361434 0.002620955 0.015942244
-0.007470392 -0.044752043 -0.062301796 -0.0048939926 -0.04770493 0.05782626 -0.00779562 0.014347066
-0.034283206 -0.04961215 -0.0013498323 -0.064240314 -0.012559559 -0.033232857 -0.048697453 -0.024226028
0.07400746 0.036136277 -0.03318027 0.022549186 0.04954925 -0.0038823318 0.06847566 0.005924931
00000000: 956f 82bd 11ed 1ebb 019e 7a3b 49bf bf3c
00000010: 5bba f43b b2da 533a 8432 7dbd 13bd 973c
00000020: a4b2 86bc d04b 3bbd 12ad 03bd 86ca 85bd
00000030: 3fa4 efbc c150 f43b 3e11 e23c 5212 0c3d
00000040: a3d9 34bd b2b3 03bd 90ca afbc 5226 063d
00000050: 561c b7b9 c4fb 40bd 2b67 5a3d 65e9 f13c
00000060: 7dd9 5dbd 1399 d0bc 4447 57bd 9030 4fbd
00000070: f723 803c 0afc ddbc a1b7 eebc 625e 363d
00000080: 2b3c 1dbb 4b62 f3ba 425e 6fbd 9dbe 2c3d
00000090: affb 2e3d 31af 093d 54c4 2b3b 4f99 823c
000000a0: 31ca f4bb eb4d 37bd 2b30 7fbd c95d a0bb
000000b0: 3f66 43bd 3adb 6c3d 6672 ffbb f50f 6b3c
000000c0: 8c6c 0cbd 1c36 4bbd dbec b0ba 6d90 83bd
000000d0: 9cc6 4dbc 2d1f 08bd fb76 47bd aa75 c6bc
000000e0: 3991 973d a203 143d 09e8 07bd 12b9 b83c
000000f0: 28f4 4a3d b86e 7ebb f83c 8c3d ec25 c23b

weight f4 [64]
0.1594894 0.854083 0.62316316 0.3626453 0.94102824 0.38786352 0.5094452 0.52486444
0.41450936 0.58580667 0.31413445 0.44816557 0.76864463 0.692884 0.30650648 0.3699869
0.6999494 0.3339215 0.32559952 0.871303 0.92461514 0.73152053 0.1491529 0.41213623
0.9484817 0.8269544 0.4768166 0.14166169 0.98535055 0.9758314 0.32459846 0.9157766
0.49639022 0.62553024 0.530293 0.19662128 0.4040708 0.68424535 0.7916617 0.5409278
0.9468403 0.64873964 0.84051967 0.9731426 0.25738898 0.94177145 0.84212166 0.43763748
0.09800324 0.407797 0.898438 0.7164254 0.88976675 0.13932456 0.54801345 0.21640697
0.6502391 0.9095536 0.9018244 0.18717523 0.111811385 0.43491933 0.36554265 0.113151625
00000000: 3051 233e 2fa5 5a3f 9f87 1f3f a5ac b93e
00000010: 3ae7 703f 0c96 c63e 006b 023f 845d 063f
00000020: 923a d43e 6df7 153f 3bd6 a03e f575 e53e
00000030: e5c5 443f d960 313f 6bee 9c3e ec6e bd3e
00000040: e22f 333f c2f7 aa3e fbb4 a63e b70d 5f3f
00000050: 94b3 6c3f ee44 3b3f 8abb 183e 8503 d33e
00000060: b2cf 723f 49b3 533f 4e21 f43e c30f 113e
00000070: ef3f 7c3f 16d0 793f c531 a63e 5670 6a3f
00000080: dc26 fe3e c022 203f 48c1 073f 1757 493e
00000090: 5ee2 ce3e b42a 2f3f 57aa 4a3f 3f7a 0a3f
000000a0: 2064 723f cd13 263f 4c2c 573f e01f 793f
000000b0: 7dc8 833e ef17 713f 4995 573f 0512 e03e
000000c0: ecb5 c83d c5ca d03e 0800 663f a867 373f
000000d0: c1c7 633f 19ab 0e3e 9c4a 0c3f ca99 5d3e
000000e0: 1276 263f 81d8 683f f7dd 663f ddaa 3f3e
000000f0: 5efd e43d bfad de3e 6828 bb3e 0abc e73d

bias f4 [64]
-0.03518076 -0.07120484 -0.023930835 -0.029806273 -0.08530582 -0.0582959 -0.048243135 -0.0006228947
-0.09169095 -0.067183524 -0.047571935 -0.060426675 -0.03645973 -0.07517897 -0.01613828 -0.05367876
-0.0032944707 -0.034216426 -0.0038159357 -0.030252252 0.0055717323 -0.08404788 -0.02740818 -0.027266825
-0.056474116 -0.068099454 -0.03576121 -0.064395055 -0.048105285 -0.05179573 -0.00014314492 -0.074123055
0.023880044 -0.0641765 -0.06373451 0.00058769435 -0.0062527712 -0.07694935 -0.052810125 -0.029714407
-0.075457744 -0.030960185 -0.03341822 -0.07401696 -0.041416857 -0.039657846 -0.065478615 -0.047414634
-0.009465209 -0.045462474 -0.06425427 -0.085484065 -0.064872675 0.010235069 -0.028876478 -0.0059230616
-0.025271324 -0.059918907 -0.019238899 -0.023391949 0.025509788 -0.017996768 -0.024526628 0.006604404
00000000: b319 10bd d8d3 91bd 990a c4bc 492c f4bc
00000010: d1b4 aebd aec7 6ebd 989a 45bd c149 23ba
00000020: 77c8 bbbd 8497 89bd cada 42bd f681 77bd
00000030: cc56 15bd 6ff7 99bd 6d34 84bc 42de 5bbd
00000040: 0ce8 57bb 8626 0cbd c714 7abb 92d3 f7bc
00000050: 1493 b63b 4b21 acbd 1f87 e0bc ad5e dfbc
00000060: 6751 67bd ba77 8bbd 597a 12bd 8ee1 83bd
00000070: 0c0a 45bd c227 54bd 2c19 16b9 d4cd 97bd
00000080: 15a0 c33c f86e 83bd 3d87 82bd 800f 1a3a
00000090: 0ce4 ccbb 9f97 9dbd 6e4f 58bd a16b f3bc
000000a0: 9789 9abd 37a0 fdbc 8be1 08bd 3496 97bd
000000b0: b9a4 29bd 4470 22bd a719 86bd d935 42bd
000000c0: f713 1bbc dc36 3abd be97 83bd 4512 afbd
000000d0: f7db 84bd feb0 273c 5d8e ecbc 3e16 c2bb
000000e0: cf05 cfbc 876d 75bd e59a 9dbc 79a0 bfbc
000000f0: e7f9 d03c f56d 93bc 11ec c8bc c269 d83b

running_mean f4 [64]
-0.010591656 0.27339187 0.0090914015 -0.097567834 0.16916023 -0.06781973 -0.15545759 0.06264652
0.105249725 0.09013893 0.09668074 -0.21318774 0.04942484 0.020813035 0.08354721 0.07780343
-0.042868633 0.21109413 -0.023545433 -0.15850006 -0.19344972 -0.5226768 0.16536337 0.07536022
0.10717366 -0.22976023 0.14748588 -0.13691123 0.09437189 -0.17836441 0.03642608 -0.20969506
-0.23251049 0.19972667 0.03389157 0.044172112 0.037092064 0.23318815 0.047191784 -0.11255635
0.06424786 -0.08609777 0.1381961 -0.07139262 0.22371495 -0.40638366 0.16336349 -0.20325723
-0.3750296 -0.2276496 0.22747989 -0.22385696 0.120695874 0.000999544 -0.39275172 0.0069133546
0.08233467 0.26940507 -0.22933298 0.040733222 0.11639314 -0.0109440135 -0.4178935 -0.09634991
00000000: a088 2dbc 05fa 8b3e 1af4 143c a5d1 c7bd
00000010: 5738 2d3e 12e5 8abd 4630 1fbe d24c 803d
00000020: 2b8d d73d c29a b83d 8d00 c63d e34d 5abe
00000030: b371 4a3d 1980 aa3c cd1a ab3d 6857 9f3d
00000040: 0597 2fbd 0f29 583e 5ae2 c0bc d74d 22be
00000050: af17 46be 26ce 05bf 0455 293e 7656 9a3d
00000060: dd7d db3d 4446 6bbe 8a06 173e 7532 0cbe
00000070: 0d46 c13d 29a5 36be 8333 153d 4dba 56be
00000080: 3b17 6ebe 2685 4c3e e3d1 0a3d d1ed 343d
00000090: d9ed 173d e0c8 6e3e 2c4c 413d f283 e6bd
000000a0: 6294 833d 0754 b0bd 4783 0d3e 4b36 92bd
000000b0: 8815 653e 8511 d0be c248 273e aa22 50be
000000c0: e103 c0be fa1c 69be 7df0 683e c23a 65be
000000d0: 662f f73d 2203 833a c116 c9be 6c89 e23b
000000e0: 149f a83d 76ef 893e 44d6 6abe e1d7 263d
000000f0: 875f ee3d 854e 33bc 23f6 d5be 1a53 c5bd

running_var f4 [64]
0.1095061 0.14730455 0.11173128 0.15060815 0.067605466 0.07309413 0.16238394 0.08997291
0.09815891 0.12503459 0.085731566 0.11806147 0.10214546 0.21010704 0.07406536 0.08211277
0.08908827 0.12970375 0.09287985 0.13623619 0.14181373 0.35563716 0.112335205 0.095716864
0.09366729 0.10187468 0.13473639 0.0706417 0.15179828 0.11375551 0.084362485 0.16904558
0.116680115 0.11379742 0.106807016 0.083823055 0.09006561 0.14980267 0.1288937 0.14273238
0.07850622 0.120224066 0.13817336 0.19889472 0.09965545 0.38109693 0.10788121 0.13112095
0.1755066 0.11548845 0.19434083 0.09932283 0.09797265 0.069747165 0.20985983 0.08034801
0.14111386 0.17951798 0.22641005 0.07075222 0.08612083 0.14751638 0.26315808 0.1051828
00000000: bc44 e03d 01d7 163e 5fd3 e43d 0639 1a3e
00000010: bc74 8a3d 60b2 953d fa47 263e b843 b83d
00000020: 8a07 c93d 1109 003e 0894 af3d 36ca f13d
00000030: a431 d13d 4d26 573e 94af 973d bd2a a83d
00000040: e973 b63d 0fd1 043e ca37 be3d 8081 0b3e
00000050: 9e37 113e 1316 b63e 0010 e63d 3407 c43d
00000060: a3d4 bf3d aca3 d03d 56f8 093e 98ac 903d
00000070: 0271 1b3e a6f8 e83d 3dc6 ac3d 491a 2d3e
00000080: fcf5 ee3d 9f0e e93d a3bd da3d 6cab ab3d
00000090: 5274 b83d df65 193e b6fc 033e 7028 123e
000000a0: dec7 a03d 0938 f63d 517d 0d3e 0fab 4b3e
000000b0: 2818 cc3d 231f c33e d3f0 dc3d 9244 063e
000000c0: 01b8 333e 3585 ec3d 4801 473e c569 cb3d
000000d0: e2a5 c83d 9ad7 8e3d 7fe5 563e 7f8d a43d
000000e0: 2780 103e 90d3 373e 09d8 673e 8ae6 903d
000000f0: 1e60 b03d 890e 173e a8bc 863e 146a d73d

weight f4 [128, 64, 3, 3]
0.0045609893 0.0120362 0.019088915 0.025088767 0.0006710423 0.04786522 0.007986317 0.02621932
0.050037406 -0.007156231 -0.011175448 -0.0075007393 -0.047250893 -0.032938663 0.010414363 0.019878134
-0.043397065 0.022626253 -0.040176317 -0.00058534025 -0.028093277 -0.0236068 0.0009156599 0.020603761
-0.056849472 -0.030330928 0.023020724 0.006910946 0.029608557 -0.017394785 0.034807187 0.008519218
-0.07821365 -0.029161567 -0.05825985 0.003908171 0.021172432 0.059309952 0.061930418 0.031956743
0.0011124535 -0.043599248 -0.061131734 -0.03311293 -0.056534495 0.0035747595 0.017005 -0.029490253
-0.0007150025 -0.013216079 0.03090331 -0.015280141 -0.015748883 0.040849134 -0.013489101 0.040588677
0.061498143 0.02307912 0.0264459 -0.011735301 -0.035228062 0.026759975 -0.0015395978 0.03198791
-0.009970523 0.03384789 0.050512847 -0.021533743 -0.03228028 -0.03189782 0.00012339605 -0.00051761407
-0.012770348 -0.008270024 0.0058919364 -0.042202216 0.027666057 -0.024841692 0.03901933 -0.004994775
0.01840878 -0.035988834 -0.07951776 -0.09513251 -0.00016698526 -0.02892645 0.038553417 0.02997607
0.013280479 0.058046047 0.009821078 -0.042957984 -0.00031614385 -0.035951033 0.038677197 0.018597027
0.04235959 0.039682668 -0.012080848 -0.026002767 -0.047126096 -0.08189376 0.037108663 0.061436914
0.048634868 0.04060789 -0.007980115 0.003579011 0.02044781 0.030095989 0.01044521 0.04724383
0.055781774 -0.06719113 0.016011905 0.01857846 0.044736356 0.049177513 0.0035224063 0.025486566
-0.007857815 -0.044166397 -0.051774208 -0.06015931 -0.0015168027 0.00222197 0.034151193 0.047527935
0.030770311 -0.027015306 -0.028350888 0.02537418 -0.03606923 -0.05901153 -0.012862162 -0.04067778
-0.0020746496 0.06593984 -0.004958438 -0.01999113 -0.042997595 -0.024508843 0.045091383 -0.06295476
-0.018062714 -0.049116913 0.03361686 -0.04798883 0.03251005 0.021119319 0.0070152283 0.0043381485
-0.036548562 0.027040709 0.017304868 -0.0033567362 0.013302906 0.022577967 -0.008782657 -0.0014519927
0.027042883 -0.001960849 -0.025528299 0.03906379 0.037487064 0.026269978 -0.045312308 0.02806135
-0.034147818 -0.06630869 -0.057188872 0.016724031 -0.035484344 -0.026920164 -0.035965733 -0.08473227
-0.06497262 -0.061200928 -0.05423518 -0.0131562585 0.058176782 -0.08102362 -0.047953084 -0.042708237
-0.041306723 -0.017045857 -0.011037502 -0.035094216 0.035540145 -0.01783636 -0.0022794667 0.008885541
-0.02998642 -0.027218297 0.01585697 -0.012916642 -0.049406882 -0.03988656 0.011375786 -0.06398902
-0.055144917 -0.02645056 -0.06372478 0.0021185088 -0.039676182 0.00066811795 -0.05178427 0.099134654
0.057525005 0.02699127 0.0619241 -0.07548221 0.04261434 -0.019501198 0.02742198 -0.008631093
0.033779357 -0.012062891 0.014514855 0.0032020868 0.04410024 0.025648886 -0.04967493 0.014503136
0.02175899 -0.01665484 -0.014778216 0.05907642 -0.04757103 -0.06315273 0.00334976 -0.013533833
-0.021569205 -0.022973726 0.012325525 0.0133443205 0.018107085 0.034189057 0.02852194 -0.059214246
0.038139503 -0.008027252 0.004929554 -0.028710939 0.0037456364 -0.035324026 0.0038679885 0.034395825
0.09415297 -0.028590607 -0.02674582 0.021686837 0.014555463 -0.03551092 -0.01212104 -0.006283108
00000000: 5a74 953b 7b33 453c 5b60 9c3c f586 cd3c
00000010: e3e8 2f3a 520e 443d 0bd9 023c e6c9 d63c
00000020: 06f4 4c3d d17e eabb 3a19 37bc c3c8 f5bb
00000030: 278a 41bd b1ea 06bd 01a1 2a3c 78d7 a23c
00000040: 1fc1 31bd b15a b93c ec8f 24bd 8571 19ba
00000050: df23 e6bc 0c63 c1bc e508 703a 38c9 a83c
00000060: feda 68bd 9178 f8bc f595 bc3c 3875 e23b
00000070: a58d f23c 827f 8ebc fb91 0e3d 3194 0b3c
00000080: 7a2e a0bd 3de4 eebc e1a1 6ebd 1d10 803b
00000090: cf71 ad3c feee 723d c0aa 7d3d 13e5 023d
000000a0: bfcf 913a 2095 32bd 4565 7abd 6ca1 07bd
000000b0: b790 67bd 8346 6a3b 124e 8b3c 8b95 f1bc
000000c0: 016f 3bba 4188 58bc f028 fd3c 8e59 7abc
000000d0: cd03 81bc 6c51 273d 6401 5dbc 5040 263d
000000e0: 7ae5 7b3d 6c10 bd3c 12a5 d83c 6c45 40bc
000000f0: 4d4b 10bd bc37 db3c 54cc c9ba c105 033d
00000100: 685b 23bc 16a4 0a3d 8fe6 4e3d 8867 b0bc
00000110: 5438 04bd 4aa7 02bd e063 0139 7eb0 07ba
00000120: b93a 51bc ff7e 07bc 2511 c13b 3bdc 2cbd
00000130: eda3 e23c ce80 cbbc bcd2 1f3d 36ab a3bb
00000140: 03ce 963c 0769 13bd 35da a2bd d5d4 c2bd
00000150: c418 2fb9 2af7 ecbc 30ea 1d3d 6090 f53c
00000160: 5e96 593c b1c1 6d3d 96e8 203c b6f4 2fbd
00000170: 1cc0 a5b9 6441 13bd fb6b 1e3d cb58 983c
00000180: 4081 2d3d 4b8a 223d c0ee 45bc c103 d5bc
00000190: 4b07 41bd eab7 a7bd 41ff 173d 46a5 7b3d
000001a0: 5b35 473d 7554 263d 07bf 02bc d78d 6a3b
000001b0: 2a82 a73c dd8b f63c 6322 2b3c bf82 413d
000001c0: 6e7b 643d 819b 89bd 662b 833c db31 983c
000001d0: 783d 373d 5c6e 493d 2cd8 663b 34c9 d03c
000001e0: 11be 00bc d3e7 34bd 3111 54bd 9c69 76bd
000001f0: 74cf c6ba 789e 113b 1fe2 0b3d a7ac 423d
00000200: 0512 fc3c 344f ddbc 1f40 e8bc 83dd cf3c
00000210: 54bd 13bd 13b6 71bd d1bb 52bc be9d 26bd
00000220: d8f6 07bb 780b 873d 657a a2bb 70c4 a3bc
00000230: 3f1e 30bd c5c6 c8bc beb1 383d 6dee 80bd
00000240: 42f8 93bc d12e 49bd d5b1 093d ef8f 44bd
00000250: 4229 053d 6c02 ad3c 00e0 e53b 0727 8e3b
00000260: f2b3 15bd 7a84 dd3c f0c2 8d3c b0fc 5bbb
00000270: 6ff4 593c 6ef5 b83c 22e5 0fbc ca50 beba
00000280: 0989 dd3c 9681 00bb b920 d1bc 5a01 203d
00000290: 098c 193d 2334 d73c 6699 39bd ebe0 e53c
000002a0: 95de 0bbd dacc 87bd e13e 6abd d600 893c
000002b0: 0858 11bd ad87 dcbc ce50 13bd 1d88 adbd
000002c0: 5d10 85bd d3ad 7abd b525 5ebd 598d 57bc
000002d0: c74a 6e3d b6ef a5bd 746a 44bd d5ee 2ebd
000002e0: 3d31 29bd c1a3 8bbc a4d6 34bc f4be 0fbd
000002f0: 8b92 113d 8f1d 92bc 1b63 15bb a994 113c
00000300: 15a6 f5bc e8f8 debc 7ae6 813c 53a0 53bc
00000310: df5e 4abd 1760 23bd 8161 3a3c ad0c 83bd
00000320: a3df 61bd d8ae d8bc 2382 82bd aed6 0a3b
00000330: 7e83 22bd a324 2f3a be1b 54bd 1c07 cb3d
00000340: 579f 6b3d cc1c dd3c 20a4 7d3d 6b96 9abd
00000350: 608c 2e3d fac0 9fbc 0fa4 e03c 6e69 0dbc
00000360: 395c 0a3d 6fa3 45bc b7cf 6d3c 1ada 513b
00000370: 74a2 343d 9d1d d23c f077 4bbd 909e 6d3c
00000380: e93f b23c bb6f 88bc 5520 72bc 1efa 713d
00000390: d7d9 42bd 3856 81bd a687 5b3b 03bd 5dbc
000003a0: e7b1 b0bc 6533 bcbc 00f1 493c 23a2 5a3c
000003b0: 4f55 943c d309 0c3d d8a6 e93c a38a 72bd
000003c0: 2b38 1c3d bc84 03bc 1988 a13b 3433 ebbc
000003d0: 5a79 753b edaf 10bd 147e 7d3b a3e2 0c3d
000003e0: 46d3 c03d d936 eabc 0d1a dbbc 98a8 b13c
000003f0: 097a 6e3c e673 11bd 5497 46bc 88e2 cdbb

bias f4 [128]
-0.017303457 -0.028856425 0.005887978 -0.05020156 -0.0015599204 0.020336369 -0.019638699 0.01791199
-0.040599052 -0.007888594 -0.023792611 -0.000525784 -0.008366478 0.0059233904 0.017873948 -0.087068744
0.007613985 -0.028976476 -0.025707101 -0.053028006 0.01353361 -0.057887282 0.016151298 -0.063243285
-0.0058031348 0.0063205743 -0.04380833 0.01608432 0.022796242 -0.06870334 -0.009031386 -0.050124474
0.015593168 -0.033609718 -0.0036612458 -0.023478039 -0.028925871 -0.011257496 -0.027553318 -0.05100742
0.004526878 0.008552518 0.017172385 -0.035491433 -0.04026216 -0.012570793 -0.002871259 -0.004383062
0.023499485 -0.03458915 -0.0060448013 0.030586367 0.02208356 -0.017696481 0.023559786 -0.028627403
-0.050366845 -0.061277356 0.0015534282 0.02757057 -0.016827362 -0.029010175 -0.05409831 -0.010751586
0.018408878 0.009722477 -0.05654212 -0.00092285126 0.021393944 -0.042319663 0.013252028 0.0055029276
-0.041032884 -0.01608284 -0.023389744 -0.02048141 0.0050500613 -0.015322528 0.0018667822 -0.053030267
0.0065220064 -0.010851039 0.010972622 -0.037458334 -0.020384638 -0.053962644 -0.032993816 0.002164325
-0.0015217552 -0.037712622 0.010620899 -0.043983128 0.007902286 0.014018303 -0.01602426 -0.011979174
0.01825903 0.031406995 -0.015414902 0.0050148517 0.016376471 -0.020588174 0.007216532 -0.028884402
0.003471007 -0.011139681 -0.0018326668 -0.012266808 -0.004378442 -0.0063163736 -0.0025532271 0.015470587
0.004320195 0.008425869 -0.003154065 -0.0019938715 -0.051991336 -0.0481784 0.014749899 0.011598384
0.01753245 -0.016337885 0.021166908 0.007813782 -0.03853 -0.008611134 -0.0044159074 -0.0069203624
00000000: fbbf 8dbc 4f64 ecbc f0ef c03b 27a0 4dbd
00000010: 3e76 ccba 7598 a63c 56e1 a0bc 2abc 923c
00000020: 314b 26bd 293f 01bc b9e8 c2bc c4d4 09ba
00000030: 8d13 09bc 0019 c23b 636c 923c 1951 b2bd
00000040: bc7e f93b 1360 edbc b397 d2bc e533 59bd
00000050: 13bc 5d3c 371b 6dbd ba4f 843c b285 81bd
00000060: 3928 bebb d21c cf3b 5d70 33bd 44c3 833c
00000070: 2fbf ba3c 56b4 8cbd 61f8 13bc 524f 4dbd
00000080: 7d7a 7f3c 58aa 09bd 83f1 6fbb 0455 c0bc
00000090: f3f5 ecbc 5c71 38bc 7fb7 e1bc 28ed 50bd
000000a0: 3456 943b dc1f 0c3c 1aad 8c3c 775f 11bd
000000b0: efe9 24bd baf5 4dbc bc2b 3cbb ca9f 8fbb
000000c0: fe81 c03c 5aad 0dbd 7813 c6bb 4390 fa3c
000000d0: 95e8 b43c 36f8 90bc 7400 c13c 0484 eabc
000000e0: 774d 4ebd f7fd 7abd 679c cb3a addb e13c
000000f0: 89d9 89bc bfa6 edbc 3196 5dbd 6c27 30bc
00000100: 37ce 963c 064b 1f3c b698 67bd 80eb 71ba
00000110: 5a42 af3c 6257 2dbd 091f 593c e751 b43b
00000120: 1912 28bd 29c0 83bc d99b bfbc a1c8 a7bc
00000130: fc7a a53b 570b 7bbc d1ae f43a 4436 59bd
00000140: 8eb6 d53b 8ec8 31bc 83c6 333c e96d 19bd
00000150: affd a6bc ef07 5dbd 8624 07bd 59d7 0d3b
00000160: a275 c7ba 8d78 1abd 4703 2e3c a727 34bd
00000170: 9778 013c 06ad 653c 4f45 83bc 4c44 44bc
00000180: f693 953c 9fa4 003d c98e 7cbc a053 a43b
00000190: f327 863c 88a8 a8bc a878 ec3b fb9e ecbc
000001a0: d679 633b 3583 36bc 1836 f0ba b9fa 48bc
000001b0: 0979 8fbb 95f9 cebb 0b54 27bb 5878 7d3c
000001c0: 6c90 8d3b a80c 0a3c 6eb4 4ebb 9dab 02bb
000001d0: def4 54bd b756 45bd 8fa9 713c 2607 3e3c
000001e0: 36a0 8f3c 07d7 85bc 3966 ad3c 6105 003c
000001f0: a2d1 1dbd b715 0dbc 51b3 90bb 35c4 e2bb

weight f4 [128]
0.62922055 0.7619426 0.09230547 0.50521 0.49068007 0.5496 1.006854 0.88967043
0.7926443 0.86093724 0.30233696 0.08724778 0.30128908 0.51541615 0.8839792 1.0289001
0.74611706 0.62846076 0.27098686 0.8677184 0.94490045 0.47404793 1.0048192 0.06672418
0.564043 0.897063 0.59179056 0.2215743 0.3480073 0.59962547 0.54992414 0.16017729
0.74544996 0.5137472 0.64883685 0.12849192 0.23633915 0.22187608 0.4267935 0.89362794
0.5420131 0.72191584 0.6600299 0.7220459 1.0121976 0.41328862 0.10607577 0.1291514
0.8840357 0.79749984 0.14486976 0.14686376 0.15518457 -0.12578817 0.73106056 0.29402065
0.4823967 0.496065 0.8977465 0.48769745 1.0452332 0.9854888 0.6321332 0.6276605
0.908622 0.581613 0.4450769 0.996811 0.102691896 1.0323637 0.528526 0.78486085
0.74061286 0.96178585 0.23642813 0.87220883 0.65707976 0.086693905 0.88820755 0.7041954
0.9751065 0.75667584 1.026266 0.4181139 0.7307839 0.21754268 1.0465196 0.6157283
0.9875217 0.8746039 0.3340673 0.5975037 0.2727035 0.5762969 0.92818373 0.19421086
0.13704334 0.15141602 0.9066177 0.25381622 1.0212553 0.27607056 0.19189651 0.7830828
0.89240986 0.6600257 0.5830887 0.6893653 0.6359732 0.89465874 0.33647445 0.5599589
0.12600248 0.4355872 0.6113354 0.3587337 0.81438625 0.86236423 0.57927126 0.764574
0.47225535 0.8935335 0.50260586 0.8616316 0.22391185 0.41928142 0.36018324 0.7711484
00000000: 9914 213f ac0e 433f a60a bd3d 7155 013f
00000010: 6b3a fb3e 96b2 0c3f 98e0 803f 71c1 633f
00000020: bdea 4a3f 6266 5c3f e9cb 9a3e f7ae b23d
00000030: 9042 9a3e 50f2 033f 764c 623f 00b3 833f
00000040: 8701 3f3f cee2 203f cabe 8a3e cb22 5e3f
00000050: ffe4 713f 69b6 f23e ea9d 803f b0a6 883d
00000060: 1f65 103f eca5 653f 967f 173f 60e4 623e
00000070: 032e b23e 0e81 193f d4c7 0c3f 8405 243e
00000080: cfd5 3e3f f084 033f 2c1a 263f 6393 033e
00000090: e402 723e 7c33 633e ad84 da3e cdc4 643f
000000a0: 5fc1 0a3f 7acf 383f b8f7 283f 00d8 383f
000000b0: b18f 813f 919a d33e 413e d93d 4440 043e
000000c0: 2a50 623f f328 4c3f bd58 143e 7463 163e
000000d0: b4e8 1e3e 9dce 00be c926 3b3f e089 963e
000000e0: b3fc f63e 3bfc fd3e b7d2 653f 7bb3 f93e
000000f0: 34ca 853f fe48 7c3f 7bd3 213f 5cae 203f
00000100: 749b 683f 97e4 143f 1fe1 e33e 012f 7f3f
00000110: 2150 d23d 7e24 843f 7b4d 073f a4ec 483f
00000120: ce98 3d3f 9937 763f 371a 723e 1449 5f3f
00000130: 6136 283f 938c b13d 9261 633f 2646 343f
00000140: 94a0 793f 82b5 413f af5c 833f 0613 d63e
00000150: a714 3b3f 82c3 5e3e 5bf4 853f 5fa0 1d3f
00000160: 39ce 7c3f 0be6 5f3f df0a ab3e 01f6 183f
00000170: cb9f 8b3e 3288 133f 739d 6d3f 36df 463e
00000180: 1755 0c3e cd0c 1b3e 1918 683f 33f4 813e
00000190: 7eb8 823f 1f59 8d3e 8580 443e 1d78 483f
000001a0: f974 643f 72f7 283f 4d45 153f 3f7a 303f
000001b0: 24cf 223f 5b08 653f 6146 ac3e 7759 0f3f
000001c0: cb06 013e 4905 df3e 7a80 1c3f f2ab b73e
000001d0: 9e7b 503f e7c3 5c3f 1f4b 143f 1fbb 433f
000001e0: 74cb f13e 9dbe 643f c7aa 003f e393 5c3f
000001f0: 2649 653e 0eac d63e f069 b83e fb69 453f
