3epochs_0.0007learingrate_40batchsize.pt (torch_old, 712670 bytes, 34 tensors)

weight f4 [32, 3, 5, 5]
00000000: 5409 b63d e862 3c3d 704c f23d 3a27 953d
00000010: 09d6 e33d dba8 d63d 4423 383d 1d3a a53d
00000020: 0466 93bb 69e3 9abb 0770 a83d 44f5 10bd
00000030: a566 173c 67a7 f2bd f5ea 74bc df04 5fbd
00000040: e1ae 8fbd af35 55bd 52a0 143d b1ca 8d3d
00000050: e8de b13d 2174 02bd 7b3c 50bd 0b96 c1bd
00000060: f34b 6f3d 8406 bd3d 2bd2 b83d 6f1e 0f3e
00000070: 7680 afbd 00a7 603d d1a8 0f3e d88b 2c3c
00000080: 1704 3dbb 6f9f 5a3c 88aa 643d e5f1 d2bb
00000090: cec4 b2bd 6612 d1bd de00 03be e70e 163d
000000a0: b735 973d 10f6 433d 3c84 9cbd 0f91 923c
000000b0: f7e1 b73d ec92 823d 8ef5 acbd 431a 45bd
000000c0: c940 8dbd c099 df3c 2516 703d 1177 353d
000000d0: bc57 303d 4556 c13b b647 2ebd 31ec 86bd
000000e0: 302e ae3c 4d4f aebd 81d1 03be 3c8c 98bd
000000f0: bd44 12bd 3e3c 6c3d 1ad3 94bd 303a 32bd
00000100: 469b 6bbd 35f8 a9bc 89db e6bc c0cc c5bd
00000110: a924 59bc 9766 2ebc e49a ccbd cd78 34bd
00000120: 75aa 56bb df2b 6fbd 4624 36bd e166 4dbd
00000130: e90f 803d a4c8 3dbb 3ef9 763d c551 f9bc
00000140: 1a82 a4bd 4539 3b3c 03a8 42bd c963 d93c
00000150: e1c0 83bd b333 62bd 85fd 62bd 7bf9 053d
00000160: f2d1 813d aa0c 92bc 6e66 713d ac00 ebbd
00000170: 5ae7 12be f0d3 5ebd 7fb0 6b3d 30d4 af3d
00000180: e8be ecbc 08df ebbd 75df 813d 50ee cebd
00000190: dd1e 913d c775 0c3b 5c36 a73d dfc2 9bbd
000001a0: 9323 cc3d 2685 0e3d 6293 9abd 3934 88bd
000001b0: ad06 c13d bf2b cb3d 8b9c bc3d 65bb ae3c
000001c0: 44ae bdbc 2760 91bc 419d d7bd de58 903d
000001d0: 9f58 4fbd 53a1 66bc 492a 40ba fb9f 64bd
000001e0: 212b fe3d 25db 04be f02e 2bbd b335 eb3d
000001f0: 425d a73d 4eee c6bc db6e ccbd 3746 18bd
00000200: 0d7b aebd d825 913d 9100 f93d a0c5 063d
00000210: 2bd2 08bd 8984 b9bd 0a4f 163d 3378 453d
00000220: bb5c 2e3d 9bbc 09be 7f71 a03d cee6 3a3d
00000230: 72e2 b43d c865 b2bd eef4 50bd 32ef 6a3d
00000240: 84ca 86bd 62d8 da3c a2b8 853d b366 b93c
00000250: d3bf d93d ecb3 b93d fb42 ebbd 6c24 d6bc
00000260: f2df 5a3d d4a0 1fbc f69e b33c 1ca6 f0bd
00000270: 0999 71bd 5611 02be 0ab1 7fbd 47c1 593d
00000280: 03c9 dc3d 56bb e2bd fcbf 2fbd 4dfd 4dbc
00000290: 731a c2bd b5ff 92bc 536e ca3b c2b8 ed3b
000002a0: 9e89 ecbd 85a5 91bd b609 aabd 2f27 0e3d
000002b0: 67b0 41bc 2468 403c 4051 d2bd a711 debd
000002c0: 0356 ed3c aeb5 babd c316 20bd 834e e43d
000002d0: 321c 61bd 110d acbd a8f2 eebd b0b0 95ba
000002e0: 5eda 3a3c 9de4 8fbd 2c1c 7f3d 3488 0d3d
000002f0: a54f c7bd 69c6 97bd 5112 293b 6fca fd3d
00000300: fd9d 40bd 1248 6a3d 3dd9 88bd 09db fc3c
00000310: 92d9 0f3d 9686 c23d 6bf0 c93b 1c8e e83c
00000320: 25fd 4e3d 4182 dabd be05 313d 536c bc3d
00000330: 77d0 62bd 8e69 343d 2649 ffbd 90fd 9dbd
00000340: 2671 9a3d 40cc d63d bad5 4abd c231 a83d
00000350: 12c8 b4bd 9127 1b3d 40c7 e9bd 38e6 d73d
00000360: f543 5a3c 15d8 bdbd 7550 9cbc 4eed 15bd
00000370: 0f54 623d b183 e13d c6da 3b3d 89a7 d63d
00000380: 6906 6c3b a91f 33bd ee12 0abd 61b2 adbd
00000390: 1310 bf3d 72b5 e9bc 609b 7bbd bd72 d8bc
000003a0: f6ae 6b3d 51f0 84bd dfd7 be3c 9bfb e73d
000003b0: 88d2 0b3e 53a0 dc3d 51ba 1d3e 2383 e33d
000003c0: 50c7 93bd bb5e d83d dacd 6bbd 5d3b 9abd
000003d0: 8228 d13d 5442 8e3d 49dc bcbc bb19 83bd
000003e0: 49c3 8fbd f55e 59bd 30cc 863d c25a 74bd
000003f0: 03cf 403d 62aa 66bd c5dc a43d 1b9c 03bd
0.08888498 0.04599276 0.118309855 0.072828725 0.11124808 0.104814254 0.044955507 0.08067725
-0.004498245 -0.0047268164 0.082244925 -0.035390154 0.009240781 -0.11848336 -0.014948596 -0.054448005
-0.070157774 -0.05205315 0.036285706 0.06923426 0.08685094 -0.03184903 -0.05083893 -0.094524466
0.05842204 0.092297584 0.09024461 0.13976453 -0.08569424 0.054846764 0.14029242 0.010531388
-0.002884155 0.013343676 0.055826694 -0.0064375275 -0.08728944 -0.10208587 -0.127933 0.036635306
0.07383292 0.047842085 -0.07642409 0.017891435 0.08978646 0.063756794 -0.08445273 -0.04812075
-0.068971224 0.027294993 0.05861487 0.044303004 0.04305242 0.0059001767 -0.042548858 -0.06588019
0.021262258 -0.08511219 -0.12872888 -0.074486226 -0.035710085 0.05767464 -0.07266827 -0.043512523
-0.057521127 -0.020748237 -0.028180854 -0.096581936 -0.013253369 -0.0106445765 -0.099904805 -0.044060517
-0.003275541 -0.058391448 -0.044468187 -0.05014694 0.062530346 -0.0028958702 0.06029629 -0.030434499
-0.080326274 0.011427228 -0.04752351 0.02653684 -0.06433273 -0.055225085 -0.055417556 0.032708626
0.06338872 -0.017828304 0.058935575 -0.114747375 -0.14346066 -0.054401338 0.057541367 0.085853934
-0.028899625 -0.11517149 0.06341449 -0.10104048 0.07085965 0.0021432505 0.08164665 -0.07605528
0.09967723 0.03479495 -0.07547642 -0.06650586 0.094251014 0.09920453 0.09209546 0.021329591
-0.023154385 -0.017746044 -0.10528041 0.070482 -0.050621625 -0.014076549 -0.000733052 -0.05581663
0.1241057 -0.12974222 -0.04179281 0.11484852 0.081720844 -0.024283554 -0.099820815 -0.037176337
-0.08519564 0.07087296 0.12158311 0.032903314 -0.033403557 -0.09058482 0.03669647 0.048210334
0.042568903 -0.13450854 0.07834148 0.04563027 0.088322535 -0.087108195 -0.051014833 0.05735702
-0.065815955 0.026714507 0.065293565 0.022631979 0.10632291 0.090675205 -0.11487385 -0.026140414
0.053436227 -0.009742934 0.021926384 -0.11750433 -0.058983836 -0.12701926 -0.062424697 0.05316284
0.107805274 -0.11070888 -0.0429077 -0.012572599 -0.09477701 -0.017944196 0.0061777025 0.007254691
-0.11549686 -0.071116485 -0.083026335 0.034705337 -0.011821843 0.011743579 -0.102694035 -0.10843211
0.028971678 -0.09116684 -0.039084207 0.111477874 -0.05495853 -0.0840093 -0.11667377 -0.0011420455
0.011404602 -0.070260264 0.062282726 0.03455372 -0.09731988 -0.074108906 0.002579827 0.12392127
-0.04702567 0.057197638 -0.0668206 0.030866163 0.0351196 0.094983265 0.0061626933 0.028388076
0.050534386 -0.10669375 0.043218367 0.09200349 -0.05537459 0.044045977 -0.12465124 -0.07714379
0.075411126 0.10488176 -0.04952023 0.082126155 -0.08827223 0.03787953 -0.11414957 0.105419576
0.013321866 -0.0926973 -0.019081334 -0.036603265 0.055255946 0.11011446 0.045862935 0.104811735
0.0036014563 -0.043731365 -0.03370946 -0.08481289 0.09329238 -0.028528903 -0.061427474 -0.026421899
0.057539903 -0.06491149 0.023296295 0.11327287 0.1365453 0.10772767 0.15403105 0.11108997
-0.0721575 0.105649434 -0.057569362 -0.07530854 0.102128044 0.06946245 -0.023054259 -0.06401392
-0.070196696 -0.053069074 0.065819144 -0.059656866 0.04707242 -0.056314833 0.08049921 -0.032131296

bias f4 [32]
00000000: 0212 04be e1ea 2ebe ec0c f13c 7074 9dbd
00000010: f863 b83d 6a72 623d 5407 bf3d 5014 573d
00000020: 89d2 dfbb c19b b53c 38d5 093d d977 293d
00000030: 251c 55bc b00b db3b f120 63bd 8a26 e3bd
00000040: 1b94 573c 6a74 bfbc d6d6 7cbc cfde e6bd
00000050: 987a 5fbd 92bb 863d bee9 26bd ce18 8f3d
00000060: 5f86 a6bd 9ff3 9ebc 8186 d63c 601c aa3d
00000070: f648 3ebb d4cc 91bd 06c2 133d 1966 49bc
-0.12897494 -0.17081787 0.029425107 -0.07688224 0.090034425 0.055284895 0.093275696 0.052509606
-0.0068305177 0.022168996 0.033650607 0.04137406 -0.013007198 0.006684743 -0.055451337 -0.11091335
0.01315787 -0.02337094 -0.01543208 -0.11272966 -0.054560274 0.06578745 -0.040750258 0.06987153
-0.08131098 -0.019403277 0.026187183 0.08306193 -0.0029035187 -0.07119146 0.036073707 -0.012292408

weight f4 [32]
00000000: ee81 093e 3b9e d83e 879b bf3e f4af 293d
00000010: 5a12 b43e 1916 b13e 0b3c 2b3f c080 2d3f
00000020: e81c 233f 4497 443f c8e5 993e dd6b de3e
00000030: bdf9 663f fc7e 1b3f 0024 b43e 63b1 4b3f
00000040: 25db 363f e4c7 5f3f 4c20 0f3f 8dd3 b93e
00000050: ba10 403f fade 193f a5ce 093f 532b 243f
00000060: faad 913e 4f16 8c3d 1690 b23e 5c13 ee3e
00000070: 03e9 0f3f eac6 5d3f fe48 6b3f b01e 823d
0.1342847 0.4230822 0.37423345 0.041427568 0.3517025 0.34587172 0.66888493 0.6777458
0.6371598 0.76793313 0.30058122 0.43441668 0.9022482 0.6074064 0.35183716 0.79567546
0.7142814 0.87414384 0.55908656 0.36294213 0.7502552 0.6010586 0.5383094 0.6412861
0.28453046 0.068401925 0.34875554 0.46499145 0.5621492 0.86631644 0.9190825 0.063535094

bias f4 [32]
00000000: 04ba ee3c 4568 98bd 1ee1 2fbc b21f 12bd
00000010: 263b 9bba e952 87bb 8f07 13bc 1781 78bb
00000020: 147c b73c 632d dfbc fd2a 87bc 0323 1b3c
00000030: 2dee 153c 153f 4d3c f37b 3cbd c630 bcbd
00000040: 058e 02be d829 bbbc f991 56bd 6418 43bc
00000050: f936 7dbd 72cb 13bd 2887 a23d 021a 5cbd
00000060: b75e 96bd 8df3 65bd dd9d 2fbd 8804 12bd
00000070: 1d24 a13b 9a3b abbc 0640 edbc 6cb6 68bd
0.029141434 -0.07441763 -0.010734824 -0.03567476 -0.0011843189 -0.0041297567 -0.00897397 -0.003791874
0.022398032 -0.027243322 -0.01649999 0.009468797 0.009151024 0.012527247 -0.046016645 -0.0918899
-0.12749489 -0.022847101 -0.052385304 -0.011907671 -0.061820004 -0.036082692 0.07935935 -0.05373574
-0.07342284 -0.05614047 -0.04287516 -0.035648853 0.004917635 -0.020902444 -0.028961193 -0.056814596

running_mean f4 [32]
00000000: 7c93 783e 2044 21be 4230 2d3f 7730 11be
00000010: af01 df3e f7a6 1d3f e975 453f 214a a43e
00000020: 3948 a43e 1e59 24bd 8510 843e e6d6 6b3d
00000030: 70e2 a83e 0a7b 0a3f 5e86 993e a078 02be
00000040: 981f 91be 8921 3e3f d061 423e 2fad cd3e
00000050: c7dd b0bf 9b5e 813e 011c 5a3e d3ee 843d
00000060: 1793 c7bd 5a3a 24be 5c98 5d3e 5a4b ff3e
00000070: cc7e ae3e d906 21bd 055c 3a3f b116 85bc
0.24275011 -0.15748644 0.6765176 -0.14178644 0.43555972 0.61582893 0.7713304 0.32087806
0.32086352 -0.04012405 0.25793853 0.05757799 0.32985258 0.5409399 0.29985327 -0.12741327
-0.28344417 0.7426992 0.18982625 0.4017119 -1.3817681 0.2526749 0.21299745 0.064908646
-0.09744852 -0.16037884 0.21640152 0.49862176 0.34081113 -0.03931317 0.7279666 -0.016246172

running_var f4 [32]
00000000: 782d e83e a36d 9f3d 3126 c03e fbef 3c3e
00000010: b765 373e ee1c 173f f71e 033f b53d a53e
00000020: 42f9 bd3e 0bb3 9f3e e116 313e 0996 d53e
00000030: 70a0 913e 71b0 be3e 0b10 243e a995 213e
00000040: 7423 8a3e 8b49 143f 923d bb3d 215f 9a3e
00000050: cee6 893f da3c 9d3d f337 a63e 70ce 743e
00000060: eb53 e63d 6c13 ba3d e59a 853e f455 ec3e
00000070: ca14 be3e dde8 3c3e 39dd c73e c326 3c3d
0.4534719 0.077845834 0.37529138 0.1845092 0.17909895 0.5902852 0.51219124 0.3227364
0.3710423 0.31191286 0.17293884 0.4171603 0.28442717 0.3724399 0.16021745 0.15779747
0.26980174 0.5792472 0.09142603 0.30150703 1.0773561 0.07677622 0.3246456 0.23906875
0.11246475 0.09085736 0.26094738 0.46159327 0.37125236 0.18448205 0.39035967 0.045935404

weight f4 [32, 32, 5, 5]
00000000: f89e 59bc 521c 0a3d 2bc1 913d 7a22 603d
00000010: 6bea 873c fc08 dd3c 25ab 3abc 272c 94bb
00000020: c6c6 15bb 4fb8 c4bc 6485 973d 62c6 3c3d
00000030: 034b 853c fbaa 85bd 85bc acbd 7890 513c
00000040: 48b0 ecbc 7d5c a33b ca6f 94bd c147 45bd
00000050: dc06 8fbc 73ff 013c 15a1 0c3d 7412 06bb
00000060: 18e6 1abd d34a 66bc 19ab 243d edcb ad3c
00000070: bd2b 343c caa6 1dbc 6822 2e3d 3817 833c
00000080: 58b2 00b9 639a 3abd a657 44bc b587 503c
00000090: b7f5 79bd 23ae 3bbd ffdc 7ebc 6d45 a13c
000000a0: d941 e5bc ac46 1c3c 1f3f e3bc c815 7cbc
000000b0: ea2d e7bb f38a 80bd cd88 a53c edb4 073d
000000c0: 7e90 8e3c 011f bd3c 61a7 2cbd 33c2 95bd
000000d0: 354b d0ba f9ca 43ba 6563 79bd e238 e03b
000000e0: 09c0 7fbc ec3c 833c 9c6c a7bc 0f66 98bc
000000f0: 2421 4239 2b0d f93c b1bf f23c 7696 6a3c
00000100: e99a dd3c 71af 10bd c827 45bd 7b9e 08bb
00000110: 2f42 28bc da66 57bc 347a 10bc 8f59 6bbd
00000120: ec4d 05bd 2708 8dbd 3ad7 11bd ce61 683d
00000130: c352 3f3d f804 293d 1753 863c 5a49 023d
00000140: 9554 36bb d115 14bb a567 ac3c 2825 e9bc
00000150: a71c d33c 712e 96bc a382 a53b 9052 18bd
00000160: 068f 9b3a 95a8 e43c c4ef 403c 9cf4 7dbb
00000170: ff1e ccbc 7bba 04bd 9744 c7bc 79e2 a3bc
00000180: 26eb 363d 276a 393d 1e86 b0bc d628 813c
00000190: 94a7 9dbc ad8c 00bb 4cd5 c83b f46d bf3c
000001a0: ed2c 473d 6692 1ebd a347 7e3c c867 253d
000001b0: 8d30 ef3c 711b 643a fcf1 4b3d 3c27 7d3d
000001c0: 4a61 d2bc 8b36 de3c 665f 12bb 2336 76bd
000001d0: 5904 63bd b676 98bd e78a c6bc 18ba 8bbc
000001e0: 0a09 41bd e4bd 94ba 463f 283c 9978 babb
000001f0: b4f1 8ebb 12db cabc 5d45 dcbc 527b c73b
00000200: 5042 923b 330a f7bc 9f52 673c d56e a1bc
00000210: 6807 603c e0f7 d6bc 51c2 71bd 5fe1 b03c
00000220: 261d b43c 12c7 62bc 8b57 e4bc 987a 31bd
00000230: ae3a 64bc 4ddf 2bbc 71ca 3e3d 2fcd 1ebc
00000240: 909c 39bd 32cb 3cb9 ab76 7f3d d7bc c03c
00000250: bc1e 063c eab3 103b 1d07 45bc ea38 85bc
00000260: 38c2 8cbd 2ec6 3bbd 3386 e9bd f81c 16bd
00000270: fdd1 37bd cddc 49bd df2e 47bd 388f a8bd
00000280: 94cc d13c fb96 123c 8bee 04bc 53ea c1bc
00000290: 876c b7bc cfe3 553d 7621 b1bc cc7c f73a
000002a0: 795a d83c eb75 e5bc 4c00 123d 40bd 233d
000002b0: 840a f8bb ff4e 3a3c 5907 aa39 de7a 7e3d
000002c0: 143c 333d 6cb4 593d f982 27bc f6fd d43b
000002d0: 288f 8b3c 1479 90bc 9e39 62bd 90f4 69bd
000002e0: 8534 bbbd 6918 07bc 70af 143b 2e0a dabc
000002f0: 1380 7dbd 10ee 45bd b544 91bc afa0 a33a
00000300: ffae 2abc a69a ddbb aab6 8dbd a39c 1ebd
00000310: 881e 9abb ef65 713d 4ba1 853c 18b4 f3bb
00000320: ca90 6d3d bd97 2f3d 9cdf 273d d48c 153d
00000330: 9806 323d 1fed 173d 605e 423d d4f8 213d
00000340: 0f72 a53c b93d 5bbd 531c ae3b 8a31 d13c
00000350: 2ac3 123d 978e 0abd 60ce 02bb 939f 30bd
00000360: fa7e ce3c 504e 17bb 85dd 7e3c 4a0e 39bb
00000370: 651d 4d3b 96b3 39bd 4268 ac3c 854e f33b
00000380: f8b7 8ebc 29e7 073c caa2 8dbc cec0 99bc
00000390: dda7 47bc f9d5 6fbc 80df 83bc 5706 51bd
000003a0: 7bd6 81bd bf85 b6bc de2e cfbc d6a0 53bd
000003b0: b266 12bd 9f90 bb3b 7de6 43bd 7d95 bfbc
000003c0: ecb5 09bd c313 ef3c 2a78 f03c a455 2d3b
000003d0: 20f8 8a3c 9ed4 783c 9d98 eb3b 0ce3 3b3d
000003e0: 210a f6bc ec16 30bd 952f 793b 5b1c 96bc
000003f0: 12ac 66bc 8379 66bd e574 69bd 5f04 88bd
-0.01328253 0.033718415 0.07116922 0.05472038 0.016591271 0.026981823 -0.011393343 -0.004521865
-0.0022854074 -0.024013666 0.07398489 0.04608763 0.01627112 -0.065267526 -0.08434395 0.012790792
-0.028892651 0.0049853907 -0.072478846 -0.048164133 -0.017459325 0.007934439 0.034333307 -0.0020457776
-0.03781709 -0.014055925 0.040202234 0.021215403 0.010996756 -0.009622285 0.04251328 0.016002283
-0.0001227347 -0.04555739 -0.011983788 0.012727668 -0.061025348 -0.045820367 -0.015555619 0.019686425
-0.0279855 0.009538334 -0.02774006 -0.015386052 -0.007055034 -0.062765025 0.020206833 0.03313153
0.017402884 0.023086073 -0.042151812 -0.07312431 -0.0015891554 -0.0007468905 -0.060885806 0.0068427185
-0.01560975 0.01602026 -0.020437531 -0.018603353 0.00018513628 0.030401787 0.029632421 0.014318099
0.027051406 -0.035323564 -0.04813364 -0.0020846415 -0.010269686 -0.01314708 -0.008818198 -0.057458457
-0.032545015 -0.068863206 -0.035605647 0.0567339 0.046709787 0.041264504 0.016397042 0.031808235
-0.002782141 -0.0022596011 0.021045515 -0.0284601 0.025770498 -0.018332692 0.0050509735 -0.037188113
0.0011868186 0.027912417 0.011775915 -0.0038750535 -0.024917124 -0.032404404 -0.024324698 -0.020005452
0.04465785 0.04526725 -0.021548327 0.015766542 -0.019244947 -0.00196151 0.0061289426 0.02336786
0.04862683 -0.038713835 0.015520009 0.040382177 0.029197956 0.0008701599 0.04979132 0.061804995
-0.025681157 0.027125617 -0.0022334694 -0.060110223 -0.055424068 -0.07444517 -0.024236156 -0.01705651
-0.04712776 -0.0011348096 0.010268992 -0.005690646 -0.0043623094 -0.024762664 -0.026888544 0.006087699
0.0044634715 -0.03015623 0.0141188195 -0.01970617 0.013673641 -0.026241243 -0.059023205 0.02159184
0.021986555 -0.013841407 -0.027873775 -0.043329805 -0.013930006 -0.010490251 0.046579782 -0.009692474
-0.045315325 -0.00018004773 0.06236903 0.023527546 0.008186039 0.0022079893 -0.012025622 -0.01626249
-0.06872982 -0.045843296 -0.114025496 -0.03664872 -0.044877995 -0.049282838 -0.048628684 -0.08230442
0.025610246 0.008947129 -0.008113514 -0.023671305 -0.022390617 0.05221921 -0.0216224 0.0018881797
0.026410328 -0.02801033 0.035644814 0.039975405 -0.007569613 0.011371373 0.000324304 0.062128894
0.043758467 0.05315058 -0.010224097 0.006500001 0.017036036 -0.01763586 -0.05523073 -0.057118
-0.09140877 -0.008245566 0.0022687577 -0.026616182 -0.06188972 -0.048322737 -0.017732957 0.00124838
-0.010417699 -0.0067628203 -0.06919606 -0.0387236 -0.0047033466 0.058935102 0.016312262 -0.0074372403
0.05799941 0.04286932 0.040984735 0.036511257 0.04346332 0.03709137 0.047453284 0.03954394
0.020195989 -0.05352566 0.005313435 0.025536317 0.035830654 -0.03382739 -0.0019959435 -0.04312093
0.025207032 -0.002308745 0.015555744 -0.0028237277 0.0031298038 -0.045337282 0.021045808 0.0074251317
-0.017421708 0.008294859 -0.017289538 -0.018768694 -0.012186018 -0.014638417 -0.016097784 -0.051031437
-0.06339737 -0.022280572 -0.025290903 -0.051667057 -0.03574247 0.0057240273 -0.047827233 -0.023386711
-0.03362076 0.029184228 0.029354174 0.002644875 0.016964018 0.015187411 0.007189824 0.045870826
-0.030034127 -0.04299061 0.0038022746 -0.018324068 -0.014079111 -0.056268226 -0.056996245 -0.06641459

bias f4 [32]
00000000: 4222 193d 1c46 f4bc 1b67 ecbc cd83 123c
00000010: ad89 b9bc c910 8cbd f867 b33c d217 0cbb
00000020: 273c 6ebc fff6 82bb 96ba 90bc 5507 f1bc
00000030: dc44 993c 9515 9dbb 3094 4ebc b764 bf3c
00000040: 1116 2bbd 844a f4bc e6fb 3abc c5aa a1bc
00000050: e426 e2bb 6ab0 073d 10a1 82bc 41ae f1bc
00000060: 5d9e 96bc a124 babc 9cb5 493d cd86 39bd
00000070: f887 f0bc 05d0 bebc 0efd 62bd 5b1d 75bc
0.037386186 -0.029818587 -0.028857758 0.008942557 -0.022648657 -0.06839139 0.021900162 -0.0021376503
-0.014540709 -0.0039967294 -0.017667096 -0.029422441 0.018709593 -0.0047938325 -0.012608573 0.023363454
-0.04176909 -0.029820688 -0.011412596 -0.01973475 -0.006901609 0.033127226 -0.015945941 -0.029502036
-0.01838606 -0.022722544 0.04924546 -0.04529457 -0.02936171 -0.02329255 -0.055417113 -0.014960612

weight f4 [32]
00000000: 8f1e d73e 9f86 5a3f d51f bd3e e165 d43e
00000010: 1965 d83e d2a1 f63e c4cb 393e 70f5 093f
00000020: 3583 653f 4957 133f f798 0d3f 66fd 6b3f
00000030: ec6f 713e 10fe 643f 018e 743f cda5 9e3e
00000040: 1da6 f43e 8bbe 2b3f 37a2 3c3f 3a75 3e3e
00000050: d4d9 ac3e 0a34 763f 7091 cc3e 5b1c 813f
00000060: dfd1 0d3f 96ae 393f eb1b e93e 7fd9 313e
00000070: f05f 163e f1f1 573e bdb8 573e 7f2e 453f
0.42015502 0.85361665 0.36938348 0.41483977 0.4226463 0.48170334 0.18144137 0.5389013
0.8965333 0.5755506 0.5531153 0.9218353 0.23577851 0.8945017 0.9552918 0.3098587
0.47782984 0.6708762 0.7368502 0.18599406 0.3375994 0.96173155 0.3995471 1.0086778
0.5539836 0.7253202 0.45529112 0.17368124 0.14685035 0.21088387 0.21066566 0.7702407

bias f4 [32]
00000000: 8ade 4ebd 7b38 42bd 5287 3cbd 47d9 43bd
00000010: f9b7 20bd 05eb 2ebd 141f f3bc 6252 1cbd
00000020: a0a4 99bc 43f8 f4bc 5ee4 6dbd 8dd2 18bd
00000030: b797 19bd 84f3 21bd 6864 c1bc 2d13 0ebb
00000040: b861 8abd a913 8abd cedd d4bb 1839 60bd
00000050: 90d2 8cbd 509f 2dbd bd09 8dbc bf43 3dbd
00000060: a7a0 aabd eedb 66bd 24e6 bdbc 5875 ddbc
00000070: 84dc 81bd 8b3e fcbc bc45 17bd 9e8c e8bc
-0.0505052 -0.047417145 -0.04602749 -0.047814634 -0.03923795 -0.0427046 -0.029677905 -0.038164504
-0.018755257 -0.029903537 -0.058079116 -0.037310172 -0.037498202 -0.039538875 -0.023607448 -0.002167891
-0.067569196 -0.06742031 -0.0064961677 -0.05474195 -0.06876099 -0.04238826 -0.017216558 -0.046207186
-0.08331423 -0.056362085 -0.023181029 -0.027033493 -0.06340888 -0.030791542 -0.03693174 -0.028387364

running_mean f4 [32]
00000000: 9681 473e f97f 17bf 7da3 0dbf 13b8 ca3e
00000010: b209 cc3f 6245 f6be 2709 d8be 4c9e e43d
00000020: 9d1c 41bf ffc0 7ebe 0bee 2abf fe36 15bf
00000030: 2d17 043f 5a7a 5a3d 36f2 63bf 856f 3ebf
00000040: aefa 41be 617b c3be 1481 ebbe 38b0 09bf
00000050: 2a65 88be e6f3 3abe 7d3e 1fbf 32b4 07bf
00000060: fa53 e1bd 47ea 65bf 797a f7bd 612a 313f
00000070: 6a47 c6bc 90aa c73e 06d2 003f 9b04 88bd
0.19483027 -0.59179646 -0.5532759 0.39593562 1.5940459 -0.4809981 -0.42194483 0.11163005
-0.75434285 -0.2487831 -0.66769475 -0.58287036 0.51597863 0.05333934 -0.8904146 -0.74388915
-0.18943283 -0.38180068 -0.45996916 -0.53784513 -0.26639682 -0.18257102 -0.62204725 -0.5300933
-0.110023454 -0.89810604 -0.12083907 0.6920529 -0.024203975 0.38997316 0.5032047 -0.066415034

running_var f4 [32]
00000000: 71d7 fe3e 01a7 e13e 1254 923e e5a4 e53e
00000010: d5ab 663f 381d 2e3f 63de ce3e e8c7 a73e
00000020: 66bc 0c3f abaf f33e 2391 a83e fbbc a43e
00000030: 819e 043f e8f9 1d3f aad7 dd3e 545b ec3e
00000040: f79b af3e 0a6a f83e bb11 4b3f 5f2b 033f
00000050: 4c7a 943e 8d10 3f3f 1284 063f 45d7 133f
00000060: 03a2 b13e c528 6b3e 10d4 6e3f a1ad 513f
00000070: 962c 073f 4800 1a3f 5668 f13e e965 113f
0.49773744 0.44072726 0.28579766 0.44852367 0.90105945 0.68013334 0.40404043 0.32769704
0.54974973 0.47594962 0.3292323 0.3217543 0.5180436 0.6170945 0.433286 0.46163428
0.3429868 0.485184 0.7932393 0.51238054 0.28999555 0.7463463 0.52545273 0.5775035
0.34693918 0.22964771 0.9329233 0.8190556 0.5280241 0.6015668 0.47149915 0.5679613

weight f4 [64, 32, 3, 3]
00000000: da23 e7bd 1c27 83bd 0ba5 98bc 6cab 523d
00000010: e095 f03b 7c62 13bd bc71 89bd fe8c 01bd
00000020: b298 cf3c b07f fabc 7a57 0c39 182f 293d
00000030: d24a 823d 1712 ddbc 6dbd 00bd cb2d 59bd
00000040: b170 583d 6c84 5bbb bee7 94bc 8f9c cfbd
00000050: 62d5 c8bd c7b5 00bc 04cf 123d fe1b 193c
00000060: 6f84 703c 7082 51bd 0e4f e6bd 57b5 033d
00000070: e89e 8c3d 7023 a2bc a418 05bc 8012 f43b
00000080: b73f e13d a911 c4bd 62e4 d9bd 9c3c 3abd
00000090: 1e87 c8bc d31c 5a3d 38ea 63bd 2141 8ebc
000000a0: 385b 57bc a34b 1dbc e85b 04bd 3205 bd3c
000000b0: aabf 753c 6935 a4bc 0856 34bd 20ae dbbd
000000c0: 4d4a 51bd 674d de3c 0463 e8bc 5f74 b6bd
000000d0: ac8b e03c 4b92 70bc 1579 76bc c40d 9a3c
000000e0: ee89 e9ba 38b0 98bd 84c6 6ebc 0e22 97bd
000000f0: 4ed5 8bbd 52d9 ebbd ab83 59bb fc68 253d
00000100: 3b54 d0bc 61d8 98bd 224a 30bc f95d 263c
00000110: 9d4d e9bc 340a 7b39 b267 99bd 826f 6fbc
00000120: 3613 86bd 5007 903d 4fbc adbc e546 123b
00000130: c889 abbd ce29 f4bc 04f8 0e3d adca 23bc
00000140: e622 623d fac5 4ebc cc23 483d b9b0 d93c
00000150: 3de1 603d 53e5 18bd 261d 1abd 1d56 66bc
00000160: e0c8 73bd dc70 9b3c a118 8d3d af00 ed3b
00000170: 89e3 91bd 1878 523d 1056 81bd 3083 5abc
00000180: 5450 8fb9 b571 40bd 7dba d03c 21eb ccbc
00000190: da37 843c defb b0bd 0875 17bd 0141 063d
000001a0: 9154 573d 2af0 37bd cfc0 c8b8 20a9 59bd
000001b0: 78b3 a1bd 36cd 643c 350c 703d 6a97 913d
000001c0: 469b cdbc a67a c6b9 f433 4ebc a6c4 8ebd
000001d0: 6252 21bc 97bb 3fbd e70e f33c 9f45 043d
000001e0: 2c11 223d 74f2 233c 0efc 853b 5287 edbd
000001f0: e2ca adbd f2a2 a33c 7084 56bc c5c3 9abd
00000200: e9dc 8bbd e91d 7bbd 2930 9abd 9a3f 863c
00000210: 7a99 51bd 3c27 8bbb d1fb cdbd 009e cbbc
00000220: b304 8c3d e37a 2f3d 2866 363d 342d 983c
00000230: c4ce f73c e953 f6bb cd17 44bd 6224 123d
00000240: a0bc 463d 20a0 843d df28 d33b 9acb 64bd
00000250: 7ac5 5fbc d8f8 f73c bf3b a7bd d3bc b0bd
00000260: 2595 eebd 1dac 27bd 8770 e0bd 0de3 9ebc
00000270: 3a2e 79bb 25a8 193c 6931 80bc 5117 19be
00000280: c73d 7fbd 16e3 95bd b014 16bd 2fe2 85bc
00000290: 8ef9 b0bd b5f9 7cbd 8c5f 413d 8d36 983d
000002a0: 3167 c5bc eb29 09bc 1f60 033d ce1c e9bb
000002b0: 9d71 84bc ee0a 75bd 144b 4a3d f9db 6cbc
000002c0: 1294 45bd 69c1 8c3d 4b51 2f3d 84a4 2b3c
000002d0: ba70 73bd 500d aebc 279b 7bbd 5863 cd3b
000002e0: 8e98 c8bd 58c5 36bd 8d5f 423d ae08 9bbb
000002f0: f843 86bb 465a ed3c 2312 51bb 21a4 eebd
00000300: 5f43 69bd 4bbf c33c dbd3 963c 67bb 6b3b
00000310: 300d e6bd 1bf4 fbbd 2813 8fbd 2391 f3bc
00000320: 23b2 12bd b455 653c d17c 9bbd 8d0c 22bd
00000330: 04ce 96bd 8262 0abd ee51 ddbd a83a 603d
00000340: ca7c cebd 3de7 66bc 3a38 003d 5461 99bc
00000350: ec06 69bd a39c b63c e543 8e3b eade 52bc
00000360: 2568 753d 3406 45bc 4f5b 05bd 274f a33d
00000370: 0c13 0cbc f8a0 9d3d 7a2f 9dbd e620 c2bd
00000380: 6d11 a83b 8ea9 873d fb21 d63b 476f 97bd
00000390: 1fd4 acbc 3e5d 403d fbb1 67bb 778d 38bd
000003a0: 0dae 283c b4b5 8cbd 3414 36bd 4b0f 0f3d
000003b0: 3c1a 173d 8a9c 0f3d 5f70 31bd 8a12 46bc
000003c0: 1217 9cbd 8ca8 fcbd 14c7 2c3d 4fca 153d
000003d0: f855 343d 03d5 a0bd 008e efbc e725 19bd
000003e0: f069 383d b187 1abd f194 86bc 578c e7bc
000003f0: 43b1 093d dbd6 ecbc d59e afbd 4f35 9ebd
-0.11286135 -0.06403944 -0.018633386 0.051433012 0.0073420852 -0.035982594 -0.06711146 -0.0316286
0.025341365 -0.030578464 0.00013384028 0.041304678 0.06361927 -0.026986165 -0.03143065 -0.053022187
0.052841846 -0.0033495678 -0.01817691 -0.10137283 -0.098063245 -0.007855839 0.035841957 0.009345053
0.014680012 -0.051149786 -0.11245547 0.03215536 0.068662465 -0.019792289 -0.008123551 0.0074484944
0.10998481 -0.09573681 -0.10639264 -0.045467958 -0.024478491 0.053250145 -0.05564329 -0.01736504
-0.013144307 -0.009600553 -0.03231421 0.023073766 0.01499931 -0.020045 -0.04402736 -0.10726571
-0.05109625 0.027136518 -0.028367527 -0.08908915 0.02741035 -0.014683316 -0.015043517 0.018805392
-0.0017817596 -0.07455486 -0.014573697 -0.07379542 -0.06827794 -0.1151606 -0.0033190052 0.040383324
-0.02543079 -0.07463146 -0.010759862 0.010154241 -0.028479392 0.00023941026 -0.074904814 -0.014613988
-0.06546633 0.07032645 -0.021207957 0.0022320088 -0.08375889 -0.02980509 0.034904495 -0.009997052
0.055209063 -0.0126204435 0.048862264 0.026573526 0.054902304 -0.037328076 -0.037625454 -0.014058617
-0.05951774 0.018974714 0.06889463 0.0072327475 -0.07123477 0.05138406 -0.06315243 -0.013336942
-0.00027334935 -0.04698344 0.02547955 -0.025014462 0.016139913 -0.0864179 -0.036976844 0.032776836
0.052570883 -0.044906773 -9.5726566e-05 -0.053139806 -0.07895559 0.013964942 0.05860539 0.07108958
-0.025098454 -0.00037856883 -0.012585629 -0.069711015 -0.009846302 -0.04680976 0.029670192 0.03229296
0.039567158 0.010006536 0.004088885 -0.11598076 -0.084859625 0.01997516 -0.013093099 -0.07556871
-0.06829245 -0.06130782 -0.07528717 0.01638775 -0.051171757 -0.0042466205 -0.10057796 -0.024855614
0.06836834 0.042841803 0.044531018 0.018576242 0.03024996 -0.007517327 -0.04787426 0.03567923
0.04851973 0.06475854 0.006444081 -0.055858232 -0.013657922 0.030270025 -0.081656925 -0.08629765
-0.11649541 -0.040935624 -0.10958963 -0.019395376 -0.0038021938 0.009378468 -0.01564856 -0.14950301
-0.062314775 -0.07318704 -0.036640823 -0.016343204 -0.08641349 -0.061761577 0.04721026 0.0743228
-0.024097057 -0.00837181 0.03207409 -0.0071140295 -0.016167456 -0.059824876 0.049388006 -0.014456742
-0.048236914 0.068728276 0.042802136 0.010476235 -0.059433676 -0.021246582 -0.06142726 0.006267946
-0.097947225 -0.044621795 0.047454406 -0.0047312593 -0.004097458 0.02897371 -0.003190168 -0.11652399
-0.056949016 0.023894927 0.018411567 0.0035969855 -0.11232984 -0.12302419 -0.06986076 -0.029732293
-0.035814416 0.013997484 -0.07592166 -0.03956275 -0.07363513 -0.03378535 -0.108066425 0.05474344
-0.100823954 -0.014093217 0.03130362 -0.018723167 -0.056891367 0.022291487 0.0043415898 -0.01287053
0.059913773 -0.012025405 -0.03255778 0.079740815 -0.008549463 0.07696718 -0.07675071 -0.09478931
0.0051290304 0.06624137 0.0065348125 -0.07394271 -0.021097241 0.046963923 -0.0035353887 -0.045056786
0.010295403 -0.068705946 -0.04445286 0.034926694 0.036890253 0.035061397 -0.043320056 -0.012089381
-0.07621588 -0.12336835 0.042182043 0.03656989 0.0440273 -0.07853129 -0.029242516 -0.037389662
0.045022905 -0.03772706 -0.016428443 -0.028265161 0.033616316 -0.028911045 -0.08575217 -0.077250116

bias f4 [64]
00000000: 25cf 84bd e2be 16bd 7197 8d3c 414c eabb
00000010: 8806 32bd 7f5d 453d 09aa 8d3c d85f 433b
00000020: 240c 63bd 7f8c e63c 4ff2 2e3d a801 c4bc
00000030: 488d c4bc 99fb 073d 8581 babc 3956 113d
00000040: 4efc 45bd a870 3dbd e06f 4c3d 36f3 e3bc
00000050: d7f5 c6bb 55c7 5b3c 926d 3f3c bc92 f0bc
00000060: 8392 00bd 780c 13bd e78e 8b3c 59e9 66bd
00000070: e6d7 373c 23f1 47bc 7003 db3c cb49 74bc
00000080: 801d 123c 7f16 2abd d9fb 5f3d 6f72 413c
00000090: ae27 7dbc 2257 58bd ea7c b13c aba5 113d
000000a0: 8b52 b23c 81e0 07bd baaa c8bc ea37 a63c
000000b0: ee45 b1bb 554d 133d 56ec 2f3d fc81 1d3c
000000c0: c417 cb3b 160b 96bd 8f1b 4dbd 2acc 1e3d
000000d0: ef53 663c fb40 fbba 0b6e 6bbd ee95 4b3c
000000e0: cce8 cf3a d402 cebc c5f7 c3bc 26c9 263c
000000f0: 92d2 85bd d714 98bb 8630 4ebd 7838 7cbc
-0.06484822 -0.036803134 0.017284127 -0.0071502035 -0.04346326 0.048184868 0.017292993 0.0029811766
-0.0554315 0.028143166 0.042711552 -0.023926571 -0.02399315 0.033198927 -0.022766838 0.03548262
-0.04833632 -0.046250015 0.04991138 -0.027825933 -0.006071787 0.013414224 0.011683838 -0.029366843
-0.031389724 -0.035900563 0.017035915 -0.05637488 0.011220908 -0.012203488 0.026735038 -0.014910172
0.008918166 -0.04152536 0.05468354 0.011807068 -0.015451355 -0.05281747 0.021666009 0.035558384
0.021767875 -0.033173088 -0.024495471 0.020290334 -0.0054099476 0.03596242 0.042949997 0.00961351
0.0061979014 -0.07326333 -0.05007511 0.038768925 0.014058097 -0.0019169146 -0.057477992 0.012425883
0.0015862226 -0.025147833 -0.023921857 0.010179793 -0.06534304 -0.004641156 -0.050339244 -0.015394323

weight f4 [64]
00000000: 1a85 033f 0e1e 333f 19ad 643f 9c01 233f
00000010: 3b60 633f 953b b73d 19d4 393e 1a34 643f
00000020: f22d 5c3f b153 de3e f039 a83e 2983 b23e
00000030: b9e5 733e abd4 023f 79c4 303f 5e4f 1d3e
00000040: 1e7f 663e c3be 643e 0b19 573f 113e 113e
00000050: 0a3b b73e ef7b 723f 5444 393f f165 973e
00000060: c67f 553f a30b 3e3e 6914 d43d 78ac 483e
00000070: 0962 fd3e dc1c 583f fe72 d83d 3ebc 6d3f
00000080: 136f 923e b797 593f aadd a63e 06f3 483f
00000090: c50d 223f 8ff6 6f3f 4463 3a3f c47a 3c3f
000000a0: 1bb4 293e 7a9d d93e f6be 2d3f 9ca6 083f
000000b0: f9d2 463f 2adb 653f d4e3 333e 96f4 c33e
000000c0: 5b9e 743f e8e6 343f c52b 293f 8f59 b73d
000000d0: 1d88 873e 2d18 2b3e e181 ad3e 7176 fd3e
000000e0: 2fbf f23e 3636 323f 0808 473f cc88 893e
000000f0: c8ee 5b3f b79c d43e 45b3 ad3e 6972 e33e
0.5137497 0.69967735 0.89326626 0.6367433 0.8881871 0.08946911 0.18147315 0.89142
0.86007607 0.43423226 0.32856703 0.34865692 0.23818101 0.51105756 0.69049793 0.15362307
0.22509429 0.22338395 0.8402259 0.14183833 0.3578723 0.9472036 0.72369885 0.29569963
0.8339809 0.18559127 0.103554554 0.19597042 0.49488857 0.84419036 0.10568808 0.9286536
0.28600368 0.84997123 0.3259099 0.78495824 0.6330226 0.93735594 0.7280772 0.73624825
0.16572611 0.42502958 0.6786951 0.53379226 0.7766567 0.8978754 0.17567378 0.38272542
0.9555413 0.70664835 0.6608241 0.08952629 0.26471034 0.16708441 0.33888152 0.49504426
0.47411487 0.6961397 0.7774663 0.2686218 0.85911226 0.41525814 0.33925834 0.44423226

bias f4 [64]
00000000: e940 56bd 88c6 01bc 3e6d 42bd 8be4 49bd
00000010: 6b10 a8bd ab23 31bc 6c65 2bbd 9f38 76bd
00000020: 5a6d 9dbd e118 b3bd 8cdd 83bd 48ca ecba
00000030: c0bb c03c f3bf 64bd 6310 f4bb 3ffe b5bb
00000040: f7ce 3a3c 5297 0e3c 4ab2 fbbc 37dc 423c
00000050: 9b3f 9b3c ae57 41bd 07a0 95bc 5947 8f3c
00000060: 5aa7 53bd c81b f0bc 3979 a3bb 7c51 2fbd
00000070: 7415 73bc 87f9 b4bc 2dbf 2ebd 2fa3 33bd
00000080: 250f 0ebd 3634 b2ba 31e1 61bc c15a f5bc
00000090: 09f0 5dbd 2159 3abd fdf4 04bd f28c 57bd
000000a0: fdcf e6bb a5b5 34bd fe9d 3abd 9018 7cbd
000000b0: c7a6 2fbd f294 8abd 262d 16bd 1a22 ebbc
000000c0: fb70 a53b c2ef 96bd e01e 9cbc 5523 583c
000000d0: df75 bcbc 109d b8bd 7e6e 22bb ccc0 923b
000000e0: 05cc c8bb b291 0cbd 15b8 10bd 9234 69bc
000000f0: cbf0 41bd ea53 b9bd 3997 ddba 9e9c 49bd
-0.052307997 -0.007920869 -0.047467463 -0.04929022 -0.082062565 -0.010811727 -0.04184477 -0.06011259
-0.07686873 -0.0874498 -0.06438741 -0.0018065656 0.023527026 -0.05584712 -0.0074482425 -0.00555399
0.011401883 0.00870307 -0.030724663 0.011893324 0.018951228 -0.04720276 -0.018264784 0.017490076
-0.05167327 -0.029310122 -0.004988816 -0.04280232 -0.014836658 -0.02209164 -0.04266279 -0.043856796
-0.03468241 -0.0013595882 -0.0137866 -0.029950501 -0.054183993 -0.045495156 -0.0324602 -0.05262465
-0.007043837 -0.044118542 -0.04556083 -0.061546862 -0.04288366 -0.0676669 -0.03666415 -0.028702784
0.0050488687 -0.07369949 -0.019057691 0.013192018 -0.023005424 -0.09014332 -0.0024785097 0.0044785496
-0.0061278366 -0.034318633 -0.035331804 -0.014233725 -0.04734878 -0.090492085 -0.001690603 -0.049221627

running_mean f4 [64]
00000000: 0c22 3dbf 8ab4 1dbf e68d b3be 7b4e 3e3e
00000010: 780d 083e f330 38bc 2dad 343e 3ebd dabd
00000020: 789c 90bf ac68 cd3e c96c 4dbd ccfa 2f3e
00000030: 0f2b 19be 560a c6bd c930 bbbd 4314 90be
00000040: 6342 df3d 5c98 753e 1495 d9bd f551 c1bb
00000050: 07b9 893d 0faa 6c3e 0623 14bf 485c 85be
00000060: ac2e 623e f392 803d 60cf 753e 8410 b9be
00000070: 18f1 a43c 06f4 01bf 4144 92be b9b7 5fbf
00000080: 1de7 5fbd 2141 f2be 46c2 4bbe e2ee 5c3e
00000090: 6bc0 84bc 41ae 1bbe c23e 3a3c dcbf 70be
000000a0: 8ea6 bcbe 23cc 6d3d bb90 33bf c83c ec3e
000000b0: 80f3 59be 7743 ce3e fe73 1a3f e8bc bd3c
000000c0: dffd 12bf 3e85 9e3e 4e85 e1bd 2e91 aa3d
000000d0: 43eb 223e dce2 073f 99bf 893e 10bc 94be
000000e0: a384 c93d fe1c 233e 9959 00bf 9c09 dc3d
000000f0: e5eb 7b3e 89cc 3f3e 2606 943e 4e7c 6f3d
-0.73880076 -0.61603606 -0.35069197 0.18584625 0.13286388 -0.011242139 0.17644186 -0.10680626
-1.129775 0.4011892 -0.050152574 0.17185515 -0.14957832 -0.0966994 -0.091401644 -0.28140458
0.10901334 0.23983902 -0.106241375 -0.0058996626 0.06724744 0.23111747 -0.5786594 -0.26046968
0.22088116 0.06278028 0.24004889 -0.36145413 0.020134494 -0.50762975 -0.285677 -0.87389714
-0.054663766 -0.47315314 -0.19898328 0.21575502 -0.016205033 -0.15203191 0.011367502 -0.23510689
-0.3684582 0.058056008 -0.70142716 0.46140122 -0.21284294 0.40285847 0.6033324 0.023161367
-0.57418627 0.3096103 -0.11011754 0.08328472 0.15910058 0.53080535 0.2690399 -0.2904973
0.098397516 0.15929028 -0.50136715 0.1074402 0.24601705 0.18730368 0.2891094 0.058468156

running_var f4 [64]
00000000: 9e08 b93e bfe8 be3e 83b6 7f3e 2117 213e
00000010: f938 a53e 7b1d 653e 2a1c 903e a17a 553e
00000020: 26d5 743f 5595 483e 9d3c 7c3e 28a8 563e
00000030: b76b 4c3e cecf b53e c198 733e 4ae3 7e3e
00000040: 3172 533e ea92 553e c183 8c3e 0a95 3b3e
00000050: 83c0 603e 46c2 3d3e 298a 9d3e eb59 b73e
00000060: 9997 393e fd28 133e 9307 863e 964d 733e
00000070: 287e 643e a1c8 c53e 472b 8e3e 1f56 043f
00000080: 3787 3d3e 8351 b83e 5c5d 1c3e 46f3 3f3e
00000090: e621 b83e ec1c 363e 4464 343e ce7d 643e
000000a0: 5e4c 8b3e 1795 053e 3a27 133f 3824 853e
000000b0: e395 9c3e fee4 c03e eaa4 8a3e 2235 3c3e
000000c0: 4c6d 023f a78b 6c3e aff6 6c3e 42ac 833e
000000d0: 3a06 233e 0dde cd3e a626 103e c124 703e
000000e0: cf16 4b3e 65f4 283e 7e8a f73e 9a50 f43d
000000f0: 2591 3f3e 6277 da3e 9620 433e 492d 613e
0.36139387 0.37286946 0.24971966 0.15731479 0.3227003 0.22374527 0.28146487 0.2084756
0.9563774 0.19588216 0.24632497 0.20962584 0.19962965 0.35510105 0.2378874 0.24891391
0.2064903 0.20856825 0.2744427 0.18318573 0.21948437 0.1853114 0.3076947 0.3581079
0.18124236 0.14371105 0.26177654 0.23760065 0.2231375 0.3862963 0.27767393 0.5169391
0.18508612 0.35999689 0.15269989 0.18745145 0.35963362 0.1778447 0.17616373 0.22313616
0.272067 0.13045155 0.5748173 0.26004195 0.30583104 0.37674707 0.27078944 0.18379644
0.50948024 0.23100148 0.23140977 0.2571736 0.15920344 0.40208474 0.14077243 0.2345152
0.1983292 0.16499479 0.4834785 0.11929436 0.18707712 0.42669207 0.190554 0.21989931

weight f4 [64, 64, 3, 3]
00000000: 0d51 203d 878e febc 15d2 59bd 0490 00bd
00000010: 653f f1bc fdd9 30bc 8c26 8dbd 2e42 f23c
00000020: 61a7 373c a1b1 6d3d 4f52 d33c a02c 3c3d
00000030: 3680 39bc 1fc4 39bc 4b67 b4bd 4de5 a3bd
00000040: 941f 4dbd ec87 6dbd 791c 323c 41df 02bc
00000050: 66c1 52bd 69c3 df3c 6aa1 2c3d b427 353c
00000060: 1d0c 7a3d 077c 30bd 0873 37bd 41c0 62bd
00000070: fd8d 4b3d 76b3 18bd 285f 82bd 3ed3 583c
00000080: 38c3 c0bc f5f0 3bbd f336 abbc efa7 6a3c
00000090: b977 10bc 8627 4dbd be5c e03c 48be 983c
000000a0: 18c3 d43a 3783 7cbd 93d4 713c 111e 703d
000000b0: 7691 13bd d941 ac3d d90e bdbb b001 bebc
000000c0: a9c3 123d 0b04 533d 0038 6f3d 1215 15be
000000d0: 424a 8cbd 936b 6ebd 9a17 84bd 06cf 7d3c
000000e0: ca87 b63c af25 a7bd d1ba 17bc e7f7 5ebd
000000f0: fe99 a9bd 1082 a7bd f117 febc 7d83 b93c
00000100: f427 513d 07c4 a9bc ffe3 b23c f45a 4d3d
00000110: 267c dd3d 95ae a0bb e88f 59bd 5e7e 31bc
00000120: 7f42 8e39 fa63 5bbd 67e2 d33b ffec 15bd
00000130: 54c4 bebd 1a6e a5bd aa51 4bbb 636a e2bc
00000140: 4460 48bd 1a55 84bc ab28 b53c 527a 593d
00000150: e5c8 b83c 9108 0abd c15a 43bd fd47 d9ba
00000160: ee41 643d cd7a f53c a1f7 2a3c 225c b3bc
00000170: d578 463c b766 28bc b3fc 443c 6be2 523d
00000180: f15e ee3b c4f0 2d3d ec43 0c3c 44b7 0fbb
00000190: ae45 2fbd bdb6 90bd 40ed 7fbd 66fa 873d
000001a0: 93c2 263d 8398 aebd cb47 80bd 41fa c339
000001b0: 1454 1bbd c94b adbd 2911 debc cd6d 81bc
000001c0: 5755 033d 13e4 9c3d 0365 ad3c 1a7f 98ba
000001d0: 18ce b43c 79a7 8cbd 9ba0 97bd 2258 0a3c
000001e0: 0975 4f3c e056 a7bb 347b 823b c71a d83c
000001f0: ae6e 323d 61cc 2dbc 8dd7 49bd 3799 763c
00000200: 5045 43bb d39c 383c a172 c8bc 8493 063c
00000210: 9fde 3d3c c378 0b3c 4e39 0ebd 9fb0 913b
00000220: e374 2ebd 3878 c3bb 01e7 6d3c 0b19 43bd
00000230: d6f7 9bbd 5557 373d 6ae5 39bc c12c 98bd
00000240: b182 19bd fb55 54bd 5357 a9bd 43a8 2cbd
00000250: 85f2 d5bc 0cfc 89bc d710 db3c 7119 6ebd
00000260: cd5e 75bd 0851 c23d ecb9 d23d b34e 69bd
00000270: 18dd d8bb 99c0 e33b 1763 f5bc ad58 d3bb
00000280: d58f c8bd 58fa 39bd f738 15bc 2c39 9ebd
00000290: 53a5 533d 7cd4 8dbd 07df 99bb 2528 a9bc
000002a0: b1b0 f3bb 5411 08bd f806 94bc 1b81 e03b
000002b0: 4ec6 42bd ea3f 28bd 4879 d63c f21f 3ebd
000002c0: 4d40 09bd 969d 933d f698 d3bd ec04 0ebd
000002d0: fd6f 713c f91f b83c cb6e 833d 74ec adba
000002e0: efcb 5bba 28f7 68bc 4534 0fbd ce74 58bc
000002f0: 472f 9ebc 6d60 033c dc2c 2ebd 7079 16bc
00000300: 9419 a6b9 9520 e2ba c008 b1bd d734 733d
00000310: a054 4f3d cade b6bb 6438 cfbc 6ad8 2cbd
00000320: 1c36 bfbd 6cf9 44bd d8de 04be 6ce6 69bd
00000330: 191e febb 2b40 5bbd 5d53 14bd 8ad3 13ba
00000340: 9eb2 fc3c de36 803c e85b 3dbd 70b7 bcbd
00000350: efda ecbc a3ac 39bd b6d2 a5bd 4fc4 16bd
00000360: d3b9 dc3a 4bc8 c73b b84a 72bb 1c0c 8f3c
00000370: e3d0 9f3c 9f8c 2fbd d21b 813d 0f49 71bc
00000380: 94b1 aeb9 bc52 1abd f2c7 fd3a 5129 debc
00000390: 1aa5 87bc a274 733a 2def aabc b441 26bd
000003a0: 371a 12bb 6579 edbc 5a11 aebc c7d9 b6bc
000003b0: 7849 46bc cc60 663d 5c9e 2b39 9c03 193c
000003c0: 99f7 e53c 438a 403c 1793 0b3d cab1 8bbc
000003d0: aaf5 d1bc c4dc 3c3d f086 983d 7f26 673c
000003e0: 5881 b43d 0080 deb9 6872 dcbc ae49 2ebd
000003f0: cbed 8f3d 4c60 8f3c 4e79 09bd 7d90 263d
0.039139796 -0.031073822 -0.053178865 -0.031387344 -0.029449174 -0.01079416 -0.06892118 0.029572573
0.01120934 0.05803073 0.025796084 0.045940995 -0.011322072 -0.011338263 -0.08808764 -0.0800272
-0.050078943 -0.057990953 0.010871046 -0.007987798 -0.05145397 0.027314859 0.042146124 0.011056829
0.06104671 -0.04308703 -0.044787437 -0.05535913 0.049695957 -0.037280522 -0.06365806 0.013233958
-0.023530588 -0.04588409 -0.020900225 0.014322265 -0.008817607 -0.05008652 0.027387973 0.01864542
0.0016232459 -0.061648574 0.014760154 0.058622424 -0.036027394 0.08410997 -0.0057695922 -0.023194164
0.035831127 0.051517528 0.058403015 -0.14558819 -0.06850101 -0.05820806 -0.06449814 0.015491253
0.022281546 -0.081614845 -0.009260849 -0.054435637 -0.08281325 -0.08179104 -0.031017276 0.022645706
0.051063493 -0.020723356 0.021837233 0.050135568 0.10814695 -0.0049036243 -0.053115755 -0.010833351
0.00027133894 -0.053562142 0.0064661982 -0.03660297 -0.0931479 -0.08077641 -0.0031024017 -0.02763862
-0.04891993 -0.01615386 0.022114119 0.05309517 0.022556731 -0.033699576 -0.04769397 -0.001657724
0.055726938 0.029965783 0.010435016 -0.021894518 0.01211377 -0.010278395 0.012023139 0.05148546
0.0072745015 0.04246594 0.008561116 -0.0021929303 -0.04279106 -0.070661046 -0.06248212 0.066395566
0.040712904 -0.08525183 -0.062636934 0.00037379752 -0.03792198 -0.084617205 -0.027107792 -0.015799427
0.03206381 0.07660689 0.02116633 -0.0011634559 0.02207093 -0.068678804 -0.0740368 0.008443864
0.012662181 -0.005106792 0.003981972 0.026379956 0.043562584 -0.01060781 -0.04927783 0.015051178
-0.0029795952 0.011267859 -0.024468722 0.008213881 0.011588722 0.008512679 -0.03472262 0.0044461037
-0.04259194 -0.005965259 0.014520408 -0.047631305 -0.0761563 0.04476102 -0.0113462005 -0.07430411
-0.037478153 -0.05183981 -0.08268609 -0.042152654 -0.026116619 -0.016843818 0.026741428 -0.05812973
-0.059904862 0.09488112 0.10289368 -0.05695982 -0.0066181533 0.0069504497 -0.029954476 -0.00644978
-0.09793059 -0.045404762 -0.00910782 -0.077257484 0.051671337 -0.06925294 -0.0046957764 -0.020649025
-0.0074368347 -0.03321965 -0.01806973 0.006851328 -0.0475524 -0.04107658 0.026180878 -0.046417184
-0.033508588 0.072077915 -0.10331909 -0.034672663 0.014736173 0.022476183 0.064176165 -0.0013269321
-0.00083845755 -0.014219083 -0.034961957 -0.013211442 -0.019309653 0.008018595 -0.04252325 -0.009184226
-0.00031681044 -0.0017252142 -0.08644247 0.059376564 0.050617814 -0.0055807577 -0.025295444 -0.042198576
-0.093364924 -0.04808943 -0.12975633 -0.057104513 -0.0077550528 -0.053527992 -0.036212314 -0.0005639127
0.03084689 0.015651163 -0.046230227 -0.092146754 -0.02891299 -0.045330655 -0.080968305 -0.03680831
0.0016840048 0.006096875 -0.0036970805 0.017461829 0.019508785 -0.042858716 0.063041344 -0.014726891
-0.00033320172 -0.037676558 0.0019361957 -0.02711931 -0.016558219 0.0009287094 -0.020866001 -0.040590003
-0.0022293457 -0.02898855 -0.021248508 -0.022320641 -0.012102477 0.056244656 0.00016366824 0.009339239
0.028072165 0.011751714 0.034075823 -0.01705255 -0.025629837 0.046108976 0.07447612 0.014108299
0.08813733 -0.00042438507 -0.026910022 -0.042550735 0.07027777 0.017501973 -0.03356295 0.04066514

bias f4 [64]
00000000: 1f1a f2bc aff5 4bbd d190 3fbd c6ec 30bb
00000010: b8f5 f4bc 73df ad3c 7ff0 db3b a811 6c3a
00000020: ae1d 1ebc 829a bc3c 22f6 653c f5da 12bd
00000030: 6569 a9bc 795e efbc 8d5c d53b cbf0 55bd
00000040: 3317 42bd c88d 0cbd ba2d 87bd bd08 48bd
00000050: f2ce 97bc db9a aebb 5b37 8fbd 1bf9 7f3c
00000060: c3ef 12bd a397 79bd 8872 cbbb 13fb f7bc
00000070: 7f7e 4cbb 7994 49bd c680 01bd 9ff3 b7bc
00000080: 0444 46bc c056 5fbd 8a34 fabc 28fe 63bd
00000090: 056d 63bd 4e4d e6bc 1c97 0e3c 62f4 a8bb
000000a0: d473 08bd 1a4a 60bd 3736 f7bc f288 043d
000000b0: 5cd6 d4bc ed94 88bd f359 71bd b8ec 003c
000000c0: 03b5 86bc 6ae4 81bd 713f 19bd dfd5 38bd
000000d0: 1306 9bbd 6d27 71bd 1ea0 30bd 92c1 3abd
000000e0: 15de 06bb 1cf1 00bd a151 a73b 4552 89bd
000000f0: 69dc 883c 02c1 61bd c761 3abd 00d3 1dbc
-0.029553471 -0.04979485 -0.046768967 -0.0026996597 -0.029902324 0.021224713 0.006712019 0.00090053165
-0.009650631 0.023022894 0.014035733 -0.035853345 -0.020680139 -0.029219853 0.006511277 -0.05223159
-0.047385406 -0.0343149 -0.066005185 -0.04883646 -0.018531296 -0.005328519 -0.0699298 0.015623356
-0.035873186 -0.060935628 -0.0062087215 -0.030271089 -0.0031203327 -0.04921386 -0.03161695 -0.022455035
-0.012101177 -0.05452609 -0.03054263 -0.055662304 -0.05552389 -0.028113034 0.0087030195 -0.005156086
-0.033313587 -0.05475817 -0.030177219 0.032357164 -0.02598112 -0.0666903 -0.058923673 0.007868938
-0.016443735 -0.06342395 -0.037414018 -0.04512584 -0.07569518 -0.05887549 -0.04312145 -0.04559476
-0.0020579149 -0.03147994 0.0051061665 -0.06705145 0.016706662 -0.055115707 -0.045503404 -0.009632826

weight f4 [64]
00000000: 1133 523f b296 503f bc91 0e3f aa9a 1d3f
00000010: 2883 ce3e 3520 0b3f aa17 6d3f a9b5 153e
00000020: 2717 c23d b91d 423e 7e79 cc3e c3c4 db3e
00000030: 88e7 f63e 208e 343e 5923 da3e 0386 e93d
00000040: 9734 173e 4f9d 553f dbde 523f fe37 1a3f
00000050: e44f 373f a93c 1d3f 131d 683f 7f8a 2c3f
00000060: 2c4b 373f 85a1 623f 5d51 1e3e 37f2 4c3e
00000070: d51e 383f 3010 ab3e 24eb 723e 085b e13e
00000080: 5dfc 753d 3d78 d83e c29c 593f ce2e d23e
00000090: 30f3 473f 975f 633f 4dac 343f 4aaf 873d
000000a0: dd39 233f c548 603f e4db 013e 05c5 053f
000000b0: 704b a23e 228a b43e f3f8 383f 4cde f53a
000000c0: 9915 fc3e 7e00 6c3f 8966 1b3f ba0b 533f
000000d0: a2b7 ac3e 64e7 ac3e 5091 693f 3c43 023f
000000e0: 7f89 443f d2d8 ad3e a727 dc3e cc25 063f
000000f0: 6222 3e3f bfc6 3f3f e103 273f daf5 313f
0.8210917 0.8147994 0.55691123 0.61564124 0.4033444 0.5434602 0.92614233 0.14620079
0.09477072 0.18956651 0.3993644 0.42923555 0.4822352 0.17632341 0.42605093 0.11402514
0.14766155 0.8344316 0.823713 0.6024169 0.7160628 0.61420685 0.90669364 0.6739883
0.7159908 0.8852771 0.15460725 0.20014273 0.71922046 0.33410788 0.23722512 0.44014764
0.060055126 0.42279235 0.8500482 0.41051334 0.7810545 0.88817734 0.7057541 0.066252306
0.6376017 0.8761104 0.12681538 0.5225375 0.3169818 0.35261637 0.72254866 0.0018758266
0.49235228 0.9218825 0.6070333 0.8243977 0.3373385 0.33770287 0.91237354 0.5088384
0.767723 0.33954483 0.42999002 0.52401423 0.74271214 0.7491264 0.65240294 0.69515765

bias f4 [64]
00000000: 0fd3 c0bd 1712 c6bd 2199 c1bd 934f dfbd
00000010: b9ba 85bd 0198 bdbd fc56 cfbd 3351 8fbd
00000020: e59f 70bd 34ba 85bd c5c3 8abd 4c72 debd
00000030: 6301 82bd f7f5 89bd f517 a6bd d1e3 98bd
00000040: 4b4d b6bd 8dd0 febd 78f2 b0bd e71d c5bd
00000050: 9cd8 9ebd e0a9 b7bd 8d99 11be 997a a8bd
00000060: 3425 bebd 2edc abbd b567 2cbd c7ab c1bd
00000070: 9666 cabd 3218 a8bd e192 e3bd 7a16 5dbd
00000080: 8d69 d4bc 24d8 f6bd 0cf3 18be 07e7 89bd
00000090: 2735 e9bd d7a9 e7bd a447 03be 8eb0 f7bc
000000a0: a101 c8bd 7abd d2bd 5ce1 8dbd eb48 b1bd
000000b0: 8e1c 92bd fcba e5bd d232 a4bd c15e f1bc
000000c0: b850 9fbd c1fb b3bd 6d92 afbd 9deb 94bd
000000d0: 85c9 0dbe 31ea acbd b392 ccbd a17c d8bd
000000e0: 04fd e6bd 73bd aebd 3905 d4bd 98c9 05be
000000f0: 8851 c4bd 900a d7bd ed60 dbbd 696f 7cbd
-0.09415256 -0.09671419 -0.09453035 -0.109038495 -0.06529755 -0.09257508 -0.10124013 -0.069979094
-0.058746237 -0.06529656 -0.06775621 -0.10861644 -0.06347921 -0.06736367 -0.08110038 -0.074653275
-0.08901461 -0.12442122 -0.08639997 -0.09624844 -0.07756159 -0.08967948 -0.14218731 -0.08226509
-0.0928444 -0.08391605 -0.04209109 -0.09456592 -0.09882848 -0.0820774 -0.11111999 -0.053976513
-0.025929237 -0.12052944 -0.14936465 -0.06733518 -0.11387091 -0.11311691 -0.12820297 -0.030235555
-0.09765936 -0.10290046 -0.069277495 -0.08656486 -0.071343526 -0.11217305 -0.08017506 -0.029464127
-0.07779068 -0.087882526 -0.085728504 -0.07271502 -0.13846405 -0.08443106 -0.09988918 -0.10570646
-0.11278728 -0.08532228 -0.10352559 -0.13065183 -0.09585863 -0.105000615 -0.107118465 -0.061629687

running_mean f4 [64]
00000000: 9336 adbe da23 993d e121 9fbe eda1 29be
00000010: 575c 21be 3bfb f43d 1c5b cdbd ef52 9c3d
00000020: d4ca 3c3e 8a9d e43c 2c95 17be 8831 99bd
00000030: 9183 b23c 5688 d63d 0c68 56bb 72aa cf3c
00000040: 4714 a5bd b47a 30be 3987 9fbe e2bb 2bbd
00000050: 2b1e d3be 0747 afbd 4ad0 3dbe b739 28be
00000060: 675f a8bd d9f2 32bd 2267 2b3e c55a de3c
00000070: 91d3 df3c 9d80 6dbe 37b2 1dbd c91a 6abd
00000080: c70d 92be c13b 87bd 49fa 8ebb 27ea ecbd
00000090: 44e3 4fbe b7de b2bd 12cb cdbd 2bf5 9ebe
000000a0: 0a18 4dbe de27 eebd 7079 f6bd 92f1 f4bd
000000b0: a909 8f3a ed86 42be a4fb b93d a085 abbd
000000c0: 24fc 5bbe 1200 aabc 5095 30be dcae 06be
000000d0: 45f1 3fbc 6a30 203c 33c7 51be 4ecf d6bd
000000e0: 277c b3be 59ba 34be 9d1e 1bbe 2caf 413c
000000f0: 452b 3bbe b9a4 15be 6b73 63bd 7d63 b8bd
-0.338307 0.07477541 -0.31080535 -0.16565676 -0.15757881 0.11961981 -0.10027143 0.07633006
0.18436748 0.027907152 -0.14802998 -0.074801505 0.021791251 0.10475223 -0.0032715825 0.02534983
-0.08060508 -0.17234308 -0.31157854 -0.041927226 -0.41233954 -0.08558469 -0.18536487 -0.16428266
-0.082213216 -0.04368863 0.16738561 0.027142892 0.027322562 -0.23193593 -0.038500037 -0.05715445
-0.28526136 -0.06603194 -0.0043633324 -0.115680985 -0.20301539 -0.08733886 -0.10048498 -0.31046423
-0.20028701 -0.11628698 -0.12034881 -0.119601384 0.0010912913 -0.18996783 0.090812 -0.08375096
-0.21482903 -0.020751987 -0.17244458 -0.13152641 -0.011715238 0.009777168 -0.20486145 -0.10488759
-0.35055658 -0.17649211 -0.15148397 0.011821549 -0.18278225 -0.14613618 -0.055529993 -0.09003351

running_var f4 [64]
00000000: b5e7 c73d b252 f53d 6d9f 2b3e 596e ca3d
00000010: c5d3 da3d a7cd a83d 4e3b dd3d 80f8 893d
00000020: 49e6 b13d 3c54 d63d d09f fb3d e19a f63d
00000030: f665 cd3d 4cd7 a93d 7b47 bf3d c71c fb3d
00000040: c3a8 ae3d 427a b63d 212d 313e 506f f23d
00000050: 5b2a 6a3e 71c0 033e a1ba 0b3e f7d8 293e
00000060: 69c3 fe3d 759a 0d3e 860e a73d 21b4 f33d
00000070: d7c5 d83d 98d9 f33d 9de5 f73d 1b9a bd3d
00000080: 85dc 613e 6259 993d 79df d03d 02d8 b53d
00000090: 00c1 f23d 5067 f03d d169 1c3e 38b3 5e3e
000000a0: ee17 073e c5da d63d 464e 7f3d 0e90 df3d
000000b0: 7af0 e13d 18be bf3d 8528 213e be4c c43c
000000c0: 4691 ec3d 0c02 063e 5ebf b53d 153b cd3d
000000d0: e837 fd3d 6ea4 a23d 8849 d43d d58f fd3d
000000e0: c78f 523e dea3 db3d 725d ba3d ba8c d23d
000000f0: 5e6a 013e 511c 1b3e 1cba ec3d 5e13 f93d
0.097609915 0.119786635 0.16760035 0.098843284 0.10684923 0.0824235 0.10802327 0.06736851
0.086865015 0.10465285 0.12286341 0.120412596 0.10029213 0.08293018 0.09339806 0.12261348
0.085282825 0.089100376 0.17302372 0.118376374 0.2286772 0.1286638 0.13645412 0.16586672
0.12439615 0.13828452 0.08157067 0.11899591 0.1058461 0.11906737 0.12104342 0.09257909
0.22056778 0.074877515 0.10198874 0.08879091 0.11853218 0.11738455 0.15274741 0.21748054
0.13192722 0.10490946 0.062330507 0.10916148 0.110321954 0.093624294 0.15738113 0.023962375
0.11551146 0.13086718 0.08874391 0.10021035 0.12364179 0.07941519 0.103655875 0.123809494
0.20562659 0.107246146 0.090998545 0.10280748 0.12638232 0.1514752 0.11558935 0.12161897
